// -----// IR Dump Before Inliner (inline) ('builtin.module' operation) //----- //
#loc = loc("/home/meng/torch-compiler/models/lenet/torch-compile/addmm/addmm.py":6:0)
module {
  tt.func public @addmm_kernel_0d1d2d3d4c5678c910c1112c1314c(%arg0: !tt.ptr<f32, 1> {tt.divisibility = 16 : i32} loc("/home/meng/torch-compiler/models/lenet/torch-compile/addmm/addmm.py":6:0), %arg1: !tt.ptr<f32, 1> {tt.divisibility = 16 : i32} loc("/home/meng/torch-compiler/models/lenet/torch-compile/addmm/addmm.py":6:0), %arg2: !tt.ptr<f32, 1> {tt.divisibility = 16 : i32} loc("/home/meng/torch-compiler/models/lenet/torch-compile/addmm/addmm.py":6:0), %arg3: !tt.ptr<f32, 1> {tt.divisibility = 16 : i32} loc("/home/meng/torch-compiler/models/lenet/torch-compile/addmm/addmm.py":6:0), %arg4: i32 loc("/home/meng/torch-compiler/models/lenet/torch-compile/addmm/addmm.py":6:0), %arg5: i32 loc("/home/meng/torch-compiler/models/lenet/torch-compile/addmm/addmm.py":6:0), %arg6: i32 loc("/home/meng/torch-compiler/models/lenet/torch-compile/addmm/addmm.py":6:0), %arg7: i32 loc("/home/meng/torch-compiler/models/lenet/torch-compile/addmm/addmm.py":6:0), %arg8: i32 loc("/home/meng/torch-compiler/models/lenet/torch-compile/addmm/addmm.py":6:0), %arg9: i32 loc("/home/meng/torch-compiler/models/lenet/torch-compile/addmm/addmm.py":6:0)) attributes {noinline = false} {
    %0 = tt.get_program_id x : i32 loc(#loc1)
    %1 = tt.get_program_id y : i32 loc(#loc2)
    %c16_i32 = arith.constant 16 : i32 loc(#loc3)
    %2 = arith.muli %0, %c16_i32 : i32 loc(#loc3)
    %3 = tt.make_range {end = 16 : i32, start = 0 : i32} : tensor<16xi32> loc(#loc4)
    %4 = tt.splat %2 : (i32) -> tensor<16xi32> loc(#loc5)
    %5 = arith.addi %4, %3 : tensor<16xi32> loc(#loc5)
    %c128_i32 = arith.constant 128 : i32 loc(#loc6)
    %6 = arith.muli %1, %c128_i32 : i32 loc(#loc6)
    %7 = tt.make_range {end = 128 : i32, start = 0 : i32} : tensor<128xi32> loc(#loc7)
    %8 = tt.splat %6 : (i32) -> tensor<128xi32> loc(#loc8)
    %9 = arith.addi %8, %7 : tensor<128xi32> loc(#loc8)
    %10 = tt.expand_dims %5 {axis = 1 : i32} : (tensor<16xi32>) -> tensor<16x1xi32> loc(#loc9)
    %11 = tt.splat %arg6 : (i32) -> tensor<16x1xi32> loc(#loc10)
    %12 = arith.muli %10, %11 : tensor<16x1xi32> loc(#loc10)
    %13 = tt.splat %arg0 : (!tt.ptr<f32, 1>) -> tensor<16x1x!tt.ptr<f32, 1>> loc(#loc11)
    %14 = tt.addptr %13, %12 : tensor<16x1x!tt.ptr<f32, 1>>, tensor<16x1xi32> loc(#loc11)
    %15 = tt.expand_dims %9 {axis = 0 : i32} : (tensor<128xi32>) -> tensor<1x128xi32> loc(#loc12)
    %c1_i32 = arith.constant 1 : i32 loc(#loc13)
    %cst = arith.constant dense<1> : tensor<1x128xi32> loc(#loc13)
    %16 = arith.muli %15, %cst : tensor<1x128xi32> loc(#loc13)
    %17 = tt.broadcast %14 : (tensor<16x1x!tt.ptr<f32, 1>>) -> tensor<16x128x!tt.ptr<f32, 1>> loc(#loc14)
    %18 = tt.broadcast %16 : (tensor<1x128xi32>) -> tensor<16x128xi32> loc(#loc14)
    %19 = tt.addptr %17, %18 : tensor<16x128x!tt.ptr<f32, 1>>, tensor<16x128xi32> loc(#loc14)
    %20 = tt.expand_dims %5 {axis = 1 : i32} : (tensor<16xi32>) -> tensor<16x1xi32> loc(#loc15)
    %21 = tt.splat %arg7 : (i32) -> tensor<16x1xi32> loc(#loc16)
    %22 = arith.muli %20, %21 : tensor<16x1xi32> loc(#loc16)
    %23 = tt.splat %arg1 : (!tt.ptr<f32, 1>) -> tensor<16x1x!tt.ptr<f32, 1>> loc(#loc17)
    %24 = tt.addptr %23, %22 : tensor<16x1x!tt.ptr<f32, 1>>, tensor<16x1xi32> loc(#loc17)
    %25 = tt.make_range {end = 32 : i32, start = 0 : i32} : tensor<32xi32> loc(#loc18)
    %26 = tt.expand_dims %25 {axis = 0 : i32} : (tensor<32xi32>) -> tensor<1x32xi32> loc(#loc19)
    %c1_i32_0 = arith.constant 1 : i32 loc(#loc20)
    %cst_1 = arith.constant dense<1> : tensor<1x32xi32> loc(#loc20)
    %27 = arith.muli %26, %cst_1 : tensor<1x32xi32> loc(#loc20)
    %28 = tt.broadcast %24 : (tensor<16x1x!tt.ptr<f32, 1>>) -> tensor<16x32x!tt.ptr<f32, 1>> loc(#loc21)
    %29 = tt.broadcast %27 : (tensor<1x32xi32>) -> tensor<16x32xi32> loc(#loc21)
    %30 = tt.addptr %28, %29 : tensor<16x32x!tt.ptr<f32, 1>>, tensor<16x32xi32> loc(#loc21)
    %31 = tt.make_range {end = 32 : i32, start = 0 : i32} : tensor<32xi32> loc(#loc22)
    %32 = tt.expand_dims %31 {axis = 1 : i32} : (tensor<32xi32>) -> tensor<32x1xi32> loc(#loc23)
    %33 = tt.splat %arg8 : (i32) -> tensor<32x1xi32> loc(#loc24)
    %34 = arith.muli %32, %33 : tensor<32x1xi32> loc(#loc24)
    %35 = tt.splat %arg2 : (!tt.ptr<f32, 1>) -> tensor<32x1x!tt.ptr<f32, 1>> loc(#loc25)
    %36 = tt.addptr %35, %34 : tensor<32x1x!tt.ptr<f32, 1>>, tensor<32x1xi32> loc(#loc25)
    %37 = tt.expand_dims %9 {axis = 0 : i32} : (tensor<128xi32>) -> tensor<1x128xi32> loc(#loc26)
    %c1_i32_2 = arith.constant 1 : i32 loc(#loc27)
    %cst_3 = arith.constant dense<1> : tensor<1x128xi32> loc(#loc27)
    %38 = arith.muli %37, %cst_3 : tensor<1x128xi32> loc(#loc27)
    %39 = tt.broadcast %36 : (tensor<32x1x!tt.ptr<f32, 1>>) -> tensor<32x128x!tt.ptr<f32, 1>> loc(#loc28)
    %40 = tt.broadcast %38 : (tensor<1x128xi32>) -> tensor<32x128xi32> loc(#loc28)
    %41 = tt.addptr %39, %40 : tensor<32x128x!tt.ptr<f32, 1>>, tensor<32x128xi32> loc(#loc28)
    %42 = tt.expand_dims %5 {axis = 1 : i32} : (tensor<16xi32>) -> tensor<16x1xi32> loc(#loc29)
    %43 = tt.splat %arg9 : (i32) -> tensor<16x1xi32> loc(#loc30)
    %44 = arith.muli %42, %43 : tensor<16x1xi32> loc(#loc30)
    %45 = tt.splat %arg3 : (!tt.ptr<f32, 1>) -> tensor<16x1x!tt.ptr<f32, 1>> loc(#loc31)
    %46 = tt.addptr %45, %44 : tensor<16x1x!tt.ptr<f32, 1>>, tensor<16x1xi32> loc(#loc31)
    %47 = tt.expand_dims %9 {axis = 0 : i32} : (tensor<128xi32>) -> tensor<1x128xi32> loc(#loc32)
    %c1_i32_4 = arith.constant 1 : i32 loc(#loc33)
    %cst_5 = arith.constant dense<1> : tensor<1x128xi32> loc(#loc33)
    %48 = arith.muli %47, %cst_5 : tensor<1x128xi32> loc(#loc33)
    %49 = tt.broadcast %46 : (tensor<16x1x!tt.ptr<f32, 1>>) -> tensor<16x128x!tt.ptr<f32, 1>> loc(#loc34)
    %50 = tt.broadcast %48 : (tensor<1x128xi32>) -> tensor<16x128xi32> loc(#loc34)
    %51 = tt.addptr %49, %50 : tensor<16x128x!tt.ptr<f32, 1>>, tensor<16x128xi32> loc(#loc34)
    %52 = tt.call @"zeros____0cconstexpr_(constexpr_16_, constexpr_128_)__1cconstexpr_fp32_"() : () -> tensor<16x128xf32> loc(#loc35)
    %c0_i32 = arith.constant 0 : i32 loc(#loc36)
    %c32_i32 = arith.constant 32 : i32 loc(#loc36)
    %53 = arith.bitcast %c0_i32 : i32 to i32 loc(#loc36)
    %54 = arith.bitcast %arg5 : i32 to i32 loc(#loc36)
    %55 = arith.bitcast %c32_i32 : i32 to i32 loc(#loc36)
    %56 = llvm.mlir.undef : i32 loc(#loc36)
    %57:3 = scf.for %arg10 = %53 to %54 step %55 iter_args(%arg11 = %52, %arg12 = %30, %arg13 = %41) -> (tensor<16x128xf32>, tensor<16x32x!tt.ptr<f32, 1>>, tensor<32x128x!tt.ptr<f32, 1>>)  : i32 {
      %76 = tt.expand_dims %5 {axis = 1 : i32} : (tensor<16xi32>) -> tensor<16x1xi32> loc(#loc37)
      %c1_i32_12 = arith.constant 1 : i32 loc(#loc38)
      %cst_13 = arith.constant dense<1> : tensor<16x1xi32> loc(#loc38)
      %77 = arith.cmpi slt, %76, %cst_13 : tensor<16x1xi32> loc(#loc38)
      %78 = tt.make_range {end = 32 : i32, start = 0 : i32} : tensor<32xi32> loc(#loc39)
      %79 = tt.expand_dims %78 {axis = 0 : i32} : (tensor<32xi32>) -> tensor<1x32xi32> loc(#loc40)
      %80 = tt.splat %arg5 : (i32) -> tensor<1x32xi32> loc(#loc41)
      %81 = arith.cmpi slt, %79, %80 : tensor<1x32xi32> loc(#loc41)
      %82 = tt.broadcast %77 : (tensor<16x1xi1>) -> tensor<16x32xi1> loc(#loc42)
      %83 = tt.broadcast %81 : (tensor<1x32xi1>) -> tensor<16x32xi1> loc(#loc42)
      %84 = arith.andi %82, %83 : tensor<16x32xi1> loc(#loc42)
      %cst_14 = arith.constant 0.000000e+00 : f32 loc(#loc43)
      %cst_15 = arith.constant dense<0.000000e+00> : tensor<16x32xf32> loc(#loc43)
      %85 = tt.load %arg12, %84, %cst_15 {cache = 1 : i32, evict = 1 : i32, isVolatile = false} : tensor<16x32xf32> loc(#loc43)
      %86 = tt.make_range {end = 32 : i32, start = 0 : i32} : tensor<32xi32> loc(#loc44)
      %87 = tt.expand_dims %86 {axis = 1 : i32} : (tensor<32xi32>) -> tensor<32x1xi32> loc(#loc45)
      %88 = tt.splat %arg5 : (i32) -> tensor<32x1xi32> loc(#loc46)
      %89 = arith.cmpi slt, %87, %88 : tensor<32x1xi32> loc(#loc46)
      %90 = tt.expand_dims %9 {axis = 0 : i32} : (tensor<128xi32>) -> tensor<1x128xi32> loc(#loc47)
      %91 = tt.splat %arg4 : (i32) -> tensor<1x128xi32> loc(#loc48)
      %92 = arith.cmpi slt, %90, %91 : tensor<1x128xi32> loc(#loc48)
      %93 = tt.broadcast %89 : (tensor<32x1xi1>) -> tensor<32x128xi1> loc(#loc49)
      %94 = tt.broadcast %92 : (tensor<1x128xi1>) -> tensor<32x128xi1> loc(#loc49)
      %95 = arith.andi %93, %94 : tensor<32x128xi1> loc(#loc49)
      %cst_16 = arith.constant 0.000000e+00 : f32 loc(#loc50)
      %cst_17 = arith.constant dense<0.000000e+00> : tensor<32x128xf32> loc(#loc50)
      %96 = tt.load %arg13, %95, %cst_17 {cache = 1 : i32, evict = 1 : i32, isVolatile = false} : tensor<32x128xf32> loc(#loc50)
      %cst_18 = arith.constant 0.000000e+00 : f32 loc(#loc51)
      %cst_19 = arith.constant dense<0.000000e+00> : tensor<16x128xf32> loc(#loc51)
      %97 = tt.dot %85, %96, %cst_19 {allowTF32 = true, maxNumImpreciseAcc = 0 : i32} : tensor<16x32xf32> * tensor<32x128xf32> -> tensor<16x128xf32> loc(#loc51)
      %98 = arith.addf %arg11, %97 : tensor<16x128xf32> loc(#loc52)
      %c32_i32_20 = arith.constant 32 : i32 loc(#loc53)
      %cst_21 = arith.constant dense<32> : tensor<16x32xi32> loc(#loc53)
      %99 = tt.addptr %arg12, %cst_21 : tensor<16x32x!tt.ptr<f32, 1>>, tensor<16x32xi32> loc(#loc53)
      %c32_i32_22 = arith.constant 32 : i32 loc(#loc54)
      %100 = arith.muli %arg8, %c32_i32_22 : i32 loc(#loc54)
      %101 = tt.splat %100 : (i32) -> tensor<32x128xi32> loc(#loc55)
      %102 = tt.addptr %arg13, %101 : tensor<32x128x!tt.ptr<f32, 1>>, tensor<32x128xi32> loc(#loc55)
      scf.yield %98, %99, %102 : tensor<16x128xf32>, tensor<16x32x!tt.ptr<f32, 1>>, tensor<32x128x!tt.ptr<f32, 1>> loc(#loc56)
    } loc(#loc36)
    %58 = tt.expand_dims %5 {axis = 1 : i32} : (tensor<16xi32>) -> tensor<16x1xi32> loc(#loc57)
    %c1_i32_6 = arith.constant 1 : i32 loc(#loc58)
    %cst_7 = arith.constant dense<1> : tensor<16x1xi32> loc(#loc58)
    %59 = arith.cmpi slt, %58, %cst_7 : tensor<16x1xi32> loc(#loc58)
    %60 = tt.expand_dims %9 {axis = 0 : i32} : (tensor<128xi32>) -> tensor<1x128xi32> loc(#loc59)
    %61 = tt.splat %arg4 : (i32) -> tensor<1x128xi32> loc(#loc60)
    %62 = arith.cmpi slt, %60, %61 : tensor<1x128xi32> loc(#loc60)
    %63 = tt.broadcast %59 : (tensor<16x1xi1>) -> tensor<16x128xi1> loc(#loc61)
    %64 = tt.broadcast %62 : (tensor<1x128xi1>) -> tensor<16x128xi1> loc(#loc61)
    %65 = arith.andi %63, %64 : tensor<16x128xi1> loc(#loc61)
    %cst_8 = arith.constant 0.000000e+00 : f32 loc(#loc62)
    %cst_9 = arith.constant dense<0.000000e+00> : tensor<16x128xf32> loc(#loc62)
    %66 = tt.load %19, %65, %cst_9 {cache = 1 : i32, evict = 1 : i32, isVolatile = false} : tensor<16x128xf32> loc(#loc62)
    %67 = arith.addf %57#0, %66 : tensor<16x128xf32> loc(#loc63)
    %68 = tt.expand_dims %5 {axis = 1 : i32} : (tensor<16xi32>) -> tensor<16x1xi32> loc(#loc64)
    %c1_i32_10 = arith.constant 1 : i32 loc(#loc65)
    %cst_11 = arith.constant dense<1> : tensor<16x1xi32> loc(#loc65)
    %69 = arith.cmpi slt, %68, %cst_11 : tensor<16x1xi32> loc(#loc65)
    %70 = tt.expand_dims %9 {axis = 0 : i32} : (tensor<128xi32>) -> tensor<1x128xi32> loc(#loc66)
    %71 = tt.splat %arg4 : (i32) -> tensor<1x128xi32> loc(#loc67)
    %72 = arith.cmpi slt, %70, %71 : tensor<1x128xi32> loc(#loc67)
    %73 = tt.broadcast %69 : (tensor<16x1xi1>) -> tensor<16x128xi1> loc(#loc68)
    %74 = tt.broadcast %72 : (tensor<1x128xi1>) -> tensor<16x128xi1> loc(#loc68)
    %75 = arith.andi %73, %74 : tensor<16x128xi1> loc(#loc68)
    tt.store %51, %67, %75 {cache = 1 : i32, evict = 1 : i32} : tensor<16x128xf32> loc(#loc69)
    tt.return loc(#loc70)
  } loc(#loc)
  tt.func private @"zeros____0cconstexpr_(constexpr_16_, constexpr_128_)__1cconstexpr_fp32_"() -> tensor<16x128xf32> attributes {noinline = false} {
    %cst = arith.constant 0.000000e+00 : f32 loc(#loc72)
    %cst_0 = arith.constant dense<0.000000e+00> : tensor<16x128xf32> loc(#loc72)
    tt.return %cst_0 : tensor<16x128xf32> loc(#loc73)
  } loc(#loc71)
} loc(#loc)
#loc1 = loc("/home/meng/torch-compiler/models/lenet/torch-compile/addmm/addmm.py":27:26)
#loc2 = loc("/home/meng/torch-compiler/models/lenet/torch-compile/addmm/addmm.py":28:26)
#loc3 = loc("/home/meng/torch-compiler/models/lenet/torch-compile/addmm/addmm.py":31:17)
#loc4 = loc("/home/meng/torch-compiler/models/lenet/torch-compile/addmm/addmm.py":31:40)
#loc5 = loc("/home/meng/torch-compiler/models/lenet/torch-compile/addmm/addmm.py":31:27)
#loc6 = loc("/home/meng/torch-compiler/models/lenet/torch-compile/addmm/addmm.py":32:17)
#loc7 = loc("/home/meng/torch-compiler/models/lenet/torch-compile/addmm/addmm.py":32:40)
#loc8 = loc("/home/meng/torch-compiler/models/lenet/torch-compile/addmm/addmm.py":32:27)
#loc9 = loc("/home/meng/torch-compiler/models/lenet/torch-compile/addmm/addmm.py":35:15)
#loc10 = loc("/home/meng/torch-compiler/models/lenet/torch-compile/addmm/addmm.py":35:26)
#loc11 = loc("/home/meng/torch-compiler/models/lenet/torch-compile/addmm/addmm.py":35:12)
#loc12 = loc("/home/meng/torch-compiler/models/lenet/torch-compile/addmm/addmm.py":35:41)
#loc13 = loc("/home/meng/torch-compiler/models/lenet/torch-compile/addmm/addmm.py":35:52)
#loc14 = loc("/home/meng/torch-compiler/models/lenet/torch-compile/addmm/addmm.py":35:38)
#loc15 = loc("/home/meng/torch-compiler/models/lenet/torch-compile/addmm/addmm.py":36:15)
#loc16 = loc("/home/meng/torch-compiler/models/lenet/torch-compile/addmm/addmm.py":36:26)
#loc17 = loc("/home/meng/torch-compiler/models/lenet/torch-compile/addmm/addmm.py":36:12)
#loc18 = loc("/home/meng/torch-compiler/models/lenet/torch-compile/addmm/addmm.py":36:51)
#loc19 = loc("/home/meng/torch-compiler/models/lenet/torch-compile/addmm/addmm.py":36:60)
#loc20 = loc("/home/meng/torch-compiler/models/lenet/torch-compile/addmm/addmm.py":36:71)
#loc21 = loc("/home/meng/torch-compiler/models/lenet/torch-compile/addmm/addmm.py":36:38)
#loc22 = loc("/home/meng/torch-compiler/models/lenet/torch-compile/addmm/addmm.py":37:25)
#loc23 = loc("/home/meng/torch-compiler/models/lenet/torch-compile/addmm/addmm.py":37:34)
#loc24 = loc("/home/meng/torch-compiler/models/lenet/torch-compile/addmm/addmm.py":37:45)
#loc25 = loc("/home/meng/torch-compiler/models/lenet/torch-compile/addmm/addmm.py":37:12)
#loc26 = loc("/home/meng/torch-compiler/models/lenet/torch-compile/addmm/addmm.py":37:60)
#loc27 = loc("/home/meng/torch-compiler/models/lenet/torch-compile/addmm/addmm.py":37:71)
#loc28 = loc("/home/meng/torch-compiler/models/lenet/torch-compile/addmm/addmm.py":37:57)
#loc29 = loc("/home/meng/torch-compiler/models/lenet/torch-compile/addmm/addmm.py":38:15)
#loc30 = loc("/home/meng/torch-compiler/models/lenet/torch-compile/addmm/addmm.py":38:26)
#loc31 = loc("/home/meng/torch-compiler/models/lenet/torch-compile/addmm/addmm.py":38:12)
#loc32 = loc("/home/meng/torch-compiler/models/lenet/torch-compile/addmm/addmm.py":38:41)
#loc33 = loc("/home/meng/torch-compiler/models/lenet/torch-compile/addmm/addmm.py":38:52)
#loc34 = loc("/home/meng/torch-compiler/models/lenet/torch-compile/addmm/addmm.py":38:38)
#loc35 = loc("/home/meng/torch-compiler/models/lenet/torch-compile/addmm/addmm.py":40:19)
#loc36 = loc("/home/meng/torch-compiler/models/lenet/torch-compile/addmm/addmm.py":43:25)
#loc37 = loc("/home/meng/torch-compiler/models/lenet/torch-compile/addmm/addmm.py":44:32)
#loc38 = loc("/home/meng/torch-compiler/models/lenet/torch-compile/addmm/addmm.py":44:43)
#loc39 = loc("/home/meng/torch-compiler/models/lenet/torch-compile/addmm/addmm.py":44:62)
#loc40 = loc("/home/meng/torch-compiler/models/lenet/torch-compile/addmm/addmm.py":44:71)
#loc41 = loc("/home/meng/torch-compiler/models/lenet/torch-compile/addmm/addmm.py":44:82)
#loc42 = loc("/home/meng/torch-compiler/models/lenet/torch-compile/addmm/addmm.py":44:49)
#loc43 = loc("/home/meng/torch-compiler/models/lenet/torch-compile/addmm/addmm.py":44:20)
#loc44 = loc("/home/meng/torch-compiler/models/lenet/torch-compile/addmm/addmm.py":45:42)
#loc45 = loc("/home/meng/torch-compiler/models/lenet/torch-compile/addmm/addmm.py":45:51)
#loc46 = loc("/home/meng/torch-compiler/models/lenet/torch-compile/addmm/addmm.py":45:62)
#loc47 = loc("/home/meng/torch-compiler/models/lenet/torch-compile/addmm/addmm.py":45:71)
#loc48 = loc("/home/meng/torch-compiler/models/lenet/torch-compile/addmm/addmm.py":45:82)
#loc49 = loc("/home/meng/torch-compiler/models/lenet/torch-compile/addmm/addmm.py":45:68)
#loc50 = loc("/home/meng/torch-compiler/models/lenet/torch-compile/addmm/addmm.py":45:20)
#loc51 = loc("/home/meng/torch-compiler/models/lenet/torch-compile/addmm/addmm.py":46:25)
#loc52 = loc("/home/meng/torch-compiler/models/lenet/torch-compile/addmm/addmm.py":46:15)
#loc53 = loc("/home/meng/torch-compiler/models/lenet/torch-compile/addmm/addmm.py":47:13)
#loc54 = loc("/home/meng/torch-compiler/models/lenet/torch-compile/addmm/addmm.py":48:23)
#loc55 = loc("/home/meng/torch-compiler/models/lenet/torch-compile/addmm/addmm.py":48:13)
#loc56 = loc("/home/meng/torch-compiler/models/lenet/torch-compile/addmm/addmm.py":48:8)
#loc57 = loc("/home/meng/torch-compiler/models/lenet/torch-compile/addmm/addmm.py":51:28)
#loc58 = loc("/home/meng/torch-compiler/models/lenet/torch-compile/addmm/addmm.py":51:39)
#loc59 = loc("/home/meng/torch-compiler/models/lenet/torch-compile/addmm/addmm.py":51:48)
#loc60 = loc("/home/meng/torch-compiler/models/lenet/torch-compile/addmm/addmm.py":51:59)
#loc61 = loc("/home/meng/torch-compiler/models/lenet/torch-compile/addmm/addmm.py":51:45)
#loc62 = loc("/home/meng/torch-compiler/models/lenet/torch-compile/addmm/addmm.py":51:16)
#loc63 = loc("/home/meng/torch-compiler/models/lenet/torch-compile/addmm/addmm.py":52:11)
#loc64 = loc("/home/meng/torch-compiler/models/lenet/torch-compile/addmm/addmm.py":55:30)
#loc65 = loc("/home/meng/torch-compiler/models/lenet/torch-compile/addmm/addmm.py":55:41)
#loc66 = loc("/home/meng/torch-compiler/models/lenet/torch-compile/addmm/addmm.py":55:50)
#loc67 = loc("/home/meng/torch-compiler/models/lenet/torch-compile/addmm/addmm.py":55:61)
#loc68 = loc("/home/meng/torch-compiler/models/lenet/torch-compile/addmm/addmm.py":55:47)
#loc69 = loc("/home/meng/torch-compiler/models/lenet/torch-compile/addmm/addmm.py":55:16)
#loc70 = loc("/home/meng/torch-compiler/models/lenet/torch-compile/addmm/addmm.py":55:4)
#loc71 = loc("/home/meng/torch-compiler/triton-community/triton/python/triton/language/standard.py":84:0)
#loc72 = loc("/home/meng/torch-compiler/triton-community/triton/python/triton/language/standard.py":93:31)
#loc73 = loc("/home/meng/torch-compiler/triton-community/triton/python/triton/language/standard.py":93:11)


// -----// IR Dump Before Canonicalizer (canonicalize) ('tt.func' operation: @zeros____0cconstexpr_(constexpr_16_, constexpr_128_)__1cconstexpr_fp32_) //----- //
#loc = loc("/home/meng/torch-compiler/models/lenet/torch-compile/addmm/addmm.py":6:0)
module {
  tt.func public @addmm_kernel_0d1d2d3d4c5678c910c1112c1314c(%arg0: !tt.ptr<f32, 1> {tt.divisibility = 16 : i32} loc("/home/meng/torch-compiler/models/lenet/torch-compile/addmm/addmm.py":6:0), %arg1: !tt.ptr<f32, 1> {tt.divisibility = 16 : i32} loc("/home/meng/torch-compiler/models/lenet/torch-compile/addmm/addmm.py":6:0), %arg2: !tt.ptr<f32, 1> {tt.divisibility = 16 : i32} loc("/home/meng/torch-compiler/models/lenet/torch-compile/addmm/addmm.py":6:0), %arg3: !tt.ptr<f32, 1> {tt.divisibility = 16 : i32} loc("/home/meng/torch-compiler/models/lenet/torch-compile/addmm/addmm.py":6:0), %arg4: i32 loc("/home/meng/torch-compiler/models/lenet/torch-compile/addmm/addmm.py":6:0), %arg5: i32 loc("/home/meng/torch-compiler/models/lenet/torch-compile/addmm/addmm.py":6:0), %arg6: i32 loc("/home/meng/torch-compiler/models/lenet/torch-compile/addmm/addmm.py":6:0), %arg7: i32 loc("/home/meng/torch-compiler/models/lenet/torch-compile/addmm/addmm.py":6:0), %arg8: i32 loc("/home/meng/torch-compiler/models/lenet/torch-compile/addmm/addmm.py":6:0), %arg9: i32 loc("/home/meng/torch-compiler/models/lenet/torch-compile/addmm/addmm.py":6:0)) attributes {noinline = false} {
    %0 = tt.get_program_id x : i32 loc(#loc1)
    %1 = tt.get_program_id y : i32 loc(#loc2)
    %c16_i32 = arith.constant 16 : i32 loc(#loc3)
    %2 = arith.muli %0, %c16_i32 : i32 loc(#loc3)
    %3 = tt.make_range {end = 16 : i32, start = 0 : i32} : tensor<16xi32> loc(#loc4)
    %4 = tt.splat %2 : (i32) -> tensor<16xi32> loc(#loc5)
    %5 = arith.addi %4, %3 : tensor<16xi32> loc(#loc5)
    %c128_i32 = arith.constant 128 : i32 loc(#loc6)
    %6 = arith.muli %1, %c128_i32 : i32 loc(#loc6)
    %7 = tt.make_range {end = 128 : i32, start = 0 : i32} : tensor<128xi32> loc(#loc7)
    %8 = tt.splat %6 : (i32) -> tensor<128xi32> loc(#loc8)
    %9 = arith.addi %8, %7 : tensor<128xi32> loc(#loc8)
    %10 = tt.expand_dims %5 {axis = 1 : i32} : (tensor<16xi32>) -> tensor<16x1xi32> loc(#loc9)
    %11 = tt.splat %arg6 : (i32) -> tensor<16x1xi32> loc(#loc10)
    %12 = arith.muli %10, %11 : tensor<16x1xi32> loc(#loc10)
    %13 = tt.splat %arg0 : (!tt.ptr<f32, 1>) -> tensor<16x1x!tt.ptr<f32, 1>> loc(#loc11)
    %14 = tt.addptr %13, %12 : tensor<16x1x!tt.ptr<f32, 1>>, tensor<16x1xi32> loc(#loc11)
    %15 = tt.expand_dims %9 {axis = 0 : i32} : (tensor<128xi32>) -> tensor<1x128xi32> loc(#loc12)
    %c1_i32 = arith.constant 1 : i32 loc(#loc13)
    %cst = arith.constant dense<1> : tensor<1x128xi32> loc(#loc13)
    %16 = arith.muli %15, %cst : tensor<1x128xi32> loc(#loc13)
    %17 = tt.broadcast %14 : (tensor<16x1x!tt.ptr<f32, 1>>) -> tensor<16x128x!tt.ptr<f32, 1>> loc(#loc14)
    %18 = tt.broadcast %16 : (tensor<1x128xi32>) -> tensor<16x128xi32> loc(#loc14)
    %19 = tt.addptr %17, %18 : tensor<16x128x!tt.ptr<f32, 1>>, tensor<16x128xi32> loc(#loc14)
    %20 = tt.expand_dims %5 {axis = 1 : i32} : (tensor<16xi32>) -> tensor<16x1xi32> loc(#loc15)
    %21 = tt.splat %arg7 : (i32) -> tensor<16x1xi32> loc(#loc16)
    %22 = arith.muli %20, %21 : tensor<16x1xi32> loc(#loc16)
    %23 = tt.splat %arg1 : (!tt.ptr<f32, 1>) -> tensor<16x1x!tt.ptr<f32, 1>> loc(#loc17)
    %24 = tt.addptr %23, %22 : tensor<16x1x!tt.ptr<f32, 1>>, tensor<16x1xi32> loc(#loc17)
    %25 = tt.make_range {end = 32 : i32, start = 0 : i32} : tensor<32xi32> loc(#loc18)
    %26 = tt.expand_dims %25 {axis = 0 : i32} : (tensor<32xi32>) -> tensor<1x32xi32> loc(#loc19)
    %c1_i32_0 = arith.constant 1 : i32 loc(#loc20)
    %cst_1 = arith.constant dense<1> : tensor<1x32xi32> loc(#loc20)
    %27 = arith.muli %26, %cst_1 : tensor<1x32xi32> loc(#loc20)
    %28 = tt.broadcast %24 : (tensor<16x1x!tt.ptr<f32, 1>>) -> tensor<16x32x!tt.ptr<f32, 1>> loc(#loc21)
    %29 = tt.broadcast %27 : (tensor<1x32xi32>) -> tensor<16x32xi32> loc(#loc21)
    %30 = tt.addptr %28, %29 : tensor<16x32x!tt.ptr<f32, 1>>, tensor<16x32xi32> loc(#loc21)
    %31 = tt.make_range {end = 32 : i32, start = 0 : i32} : tensor<32xi32> loc(#loc22)
    %32 = tt.expand_dims %31 {axis = 1 : i32} : (tensor<32xi32>) -> tensor<32x1xi32> loc(#loc23)
    %33 = tt.splat %arg8 : (i32) -> tensor<32x1xi32> loc(#loc24)
    %34 = arith.muli %32, %33 : tensor<32x1xi32> loc(#loc24)
    %35 = tt.splat %arg2 : (!tt.ptr<f32, 1>) -> tensor<32x1x!tt.ptr<f32, 1>> loc(#loc25)
    %36 = tt.addptr %35, %34 : tensor<32x1x!tt.ptr<f32, 1>>, tensor<32x1xi32> loc(#loc25)
    %37 = tt.expand_dims %9 {axis = 0 : i32} : (tensor<128xi32>) -> tensor<1x128xi32> loc(#loc26)
    %c1_i32_2 = arith.constant 1 : i32 loc(#loc27)
    %cst_3 = arith.constant dense<1> : tensor<1x128xi32> loc(#loc27)
    %38 = arith.muli %37, %cst_3 : tensor<1x128xi32> loc(#loc27)
    %39 = tt.broadcast %36 : (tensor<32x1x!tt.ptr<f32, 1>>) -> tensor<32x128x!tt.ptr<f32, 1>> loc(#loc28)
    %40 = tt.broadcast %38 : (tensor<1x128xi32>) -> tensor<32x128xi32> loc(#loc28)
    %41 = tt.addptr %39, %40 : tensor<32x128x!tt.ptr<f32, 1>>, tensor<32x128xi32> loc(#loc28)
    %42 = tt.expand_dims %5 {axis = 1 : i32} : (tensor<16xi32>) -> tensor<16x1xi32> loc(#loc29)
    %43 = tt.splat %arg9 : (i32) -> tensor<16x1xi32> loc(#loc30)
    %44 = arith.muli %42, %43 : tensor<16x1xi32> loc(#loc30)
    %45 = tt.splat %arg3 : (!tt.ptr<f32, 1>) -> tensor<16x1x!tt.ptr<f32, 1>> loc(#loc31)
    %46 = tt.addptr %45, %44 : tensor<16x1x!tt.ptr<f32, 1>>, tensor<16x1xi32> loc(#loc31)
    %47 = tt.expand_dims %9 {axis = 0 : i32} : (tensor<128xi32>) -> tensor<1x128xi32> loc(#loc32)
    %c1_i32_4 = arith.constant 1 : i32 loc(#loc33)
    %cst_5 = arith.constant dense<1> : tensor<1x128xi32> loc(#loc33)
    %48 = arith.muli %47, %cst_5 : tensor<1x128xi32> loc(#loc33)
    %49 = tt.broadcast %46 : (tensor<16x1x!tt.ptr<f32, 1>>) -> tensor<16x128x!tt.ptr<f32, 1>> loc(#loc34)
    %50 = tt.broadcast %48 : (tensor<1x128xi32>) -> tensor<16x128xi32> loc(#loc34)
    %51 = tt.addptr %49, %50 : tensor<16x128x!tt.ptr<f32, 1>>, tensor<16x128xi32> loc(#loc34)
    %52 = tt.call @"zeros____0cconstexpr_(constexpr_16_, constexpr_128_)__1cconstexpr_fp32_"() : () -> tensor<16x128xf32> loc(#loc35)
    %c0_i32 = arith.constant 0 : i32 loc(#loc36)
    %c32_i32 = arith.constant 32 : i32 loc(#loc36)
    %53 = arith.bitcast %c0_i32 : i32 to i32 loc(#loc36)
    %54 = arith.bitcast %arg5 : i32 to i32 loc(#loc36)
    %55 = arith.bitcast %c32_i32 : i32 to i32 loc(#loc36)
    %56 = llvm.mlir.undef : i32 loc(#loc36)
    %57:3 = scf.for %arg10 = %53 to %54 step %55 iter_args(%arg11 = %52, %arg12 = %30, %arg13 = %41) -> (tensor<16x128xf32>, tensor<16x32x!tt.ptr<f32, 1>>, tensor<32x128x!tt.ptr<f32, 1>>)  : i32 {
      %76 = tt.expand_dims %5 {axis = 1 : i32} : (tensor<16xi32>) -> tensor<16x1xi32> loc(#loc37)
      %c1_i32_12 = arith.constant 1 : i32 loc(#loc38)
      %cst_13 = arith.constant dense<1> : tensor<16x1xi32> loc(#loc38)
      %77 = arith.cmpi slt, %76, %cst_13 : tensor<16x1xi32> loc(#loc38)
      %78 = tt.make_range {end = 32 : i32, start = 0 : i32} : tensor<32xi32> loc(#loc39)
      %79 = tt.expand_dims %78 {axis = 0 : i32} : (tensor<32xi32>) -> tensor<1x32xi32> loc(#loc40)
      %80 = tt.splat %arg5 : (i32) -> tensor<1x32xi32> loc(#loc41)
      %81 = arith.cmpi slt, %79, %80 : tensor<1x32xi32> loc(#loc41)
      %82 = tt.broadcast %77 : (tensor<16x1xi1>) -> tensor<16x32xi1> loc(#loc42)
      %83 = tt.broadcast %81 : (tensor<1x32xi1>) -> tensor<16x32xi1> loc(#loc42)
      %84 = arith.andi %82, %83 : tensor<16x32xi1> loc(#loc42)
      %cst_14 = arith.constant 0.000000e+00 : f32 loc(#loc43)
      %cst_15 = arith.constant dense<0.000000e+00> : tensor<16x32xf32> loc(#loc43)
      %85 = tt.load %arg12, %84, %cst_15 {cache = 1 : i32, evict = 1 : i32, isVolatile = false} : tensor<16x32xf32> loc(#loc43)
      %86 = tt.make_range {end = 32 : i32, start = 0 : i32} : tensor<32xi32> loc(#loc44)
      %87 = tt.expand_dims %86 {axis = 1 : i32} : (tensor<32xi32>) -> tensor<32x1xi32> loc(#loc45)
      %88 = tt.splat %arg5 : (i32) -> tensor<32x1xi32> loc(#loc46)
      %89 = arith.cmpi slt, %87, %88 : tensor<32x1xi32> loc(#loc46)
      %90 = tt.expand_dims %9 {axis = 0 : i32} : (tensor<128xi32>) -> tensor<1x128xi32> loc(#loc47)
      %91 = tt.splat %arg4 : (i32) -> tensor<1x128xi32> loc(#loc48)
      %92 = arith.cmpi slt, %90, %91 : tensor<1x128xi32> loc(#loc48)
      %93 = tt.broadcast %89 : (tensor<32x1xi1>) -> tensor<32x128xi1> loc(#loc49)
      %94 = tt.broadcast %92 : (tensor<1x128xi1>) -> tensor<32x128xi1> loc(#loc49)
      %95 = arith.andi %93, %94 : tensor<32x128xi1> loc(#loc49)
      %cst_16 = arith.constant 0.000000e+00 : f32 loc(#loc50)
      %cst_17 = arith.constant dense<0.000000e+00> : tensor<32x128xf32> loc(#loc50)
      %96 = tt.load %arg13, %95, %cst_17 {cache = 1 : i32, evict = 1 : i32, isVolatile = false} : tensor<32x128xf32> loc(#loc50)
      %cst_18 = arith.constant 0.000000e+00 : f32 loc(#loc51)
      %cst_19 = arith.constant dense<0.000000e+00> : tensor<16x128xf32> loc(#loc51)
      %97 = tt.dot %85, %96, %cst_19 {allowTF32 = true, maxNumImpreciseAcc = 0 : i32} : tensor<16x32xf32> * tensor<32x128xf32> -> tensor<16x128xf32> loc(#loc51)
      %98 = arith.addf %arg11, %97 : tensor<16x128xf32> loc(#loc52)
      %c32_i32_20 = arith.constant 32 : i32 loc(#loc53)
      %cst_21 = arith.constant dense<32> : tensor<16x32xi32> loc(#loc53)
      %99 = tt.addptr %arg12, %cst_21 : tensor<16x32x!tt.ptr<f32, 1>>, tensor<16x32xi32> loc(#loc53)
      %c32_i32_22 = arith.constant 32 : i32 loc(#loc54)
      %100 = arith.muli %arg8, %c32_i32_22 : i32 loc(#loc54)
      %101 = tt.splat %100 : (i32) -> tensor<32x128xi32> loc(#loc55)
      %102 = tt.addptr %arg13, %101 : tensor<32x128x!tt.ptr<f32, 1>>, tensor<32x128xi32> loc(#loc55)
      scf.yield %98, %99, %102 : tensor<16x128xf32>, tensor<16x32x!tt.ptr<f32, 1>>, tensor<32x128x!tt.ptr<f32, 1>> loc(#loc56)
    } loc(#loc36)
    %58 = tt.expand_dims %5 {axis = 1 : i32} : (tensor<16xi32>) -> tensor<16x1xi32> loc(#loc57)
    %c1_i32_6 = arith.constant 1 : i32 loc(#loc58)
    %cst_7 = arith.constant dense<1> : tensor<16x1xi32> loc(#loc58)
    %59 = arith.cmpi slt, %58, %cst_7 : tensor<16x1xi32> loc(#loc58)
    %60 = tt.expand_dims %9 {axis = 0 : i32} : (tensor<128xi32>) -> tensor<1x128xi32> loc(#loc59)
    %61 = tt.splat %arg4 : (i32) -> tensor<1x128xi32> loc(#loc60)
    %62 = arith.cmpi slt, %60, %61 : tensor<1x128xi32> loc(#loc60)
    %63 = tt.broadcast %59 : (tensor<16x1xi1>) -> tensor<16x128xi1> loc(#loc61)
    %64 = tt.broadcast %62 : (tensor<1x128xi1>) -> tensor<16x128xi1> loc(#loc61)
    %65 = arith.andi %63, %64 : tensor<16x128xi1> loc(#loc61)
    %cst_8 = arith.constant 0.000000e+00 : f32 loc(#loc62)
    %cst_9 = arith.constant dense<0.000000e+00> : tensor<16x128xf32> loc(#loc62)
    %66 = tt.load %19, %65, %cst_9 {cache = 1 : i32, evict = 1 : i32, isVolatile = false} : tensor<16x128xf32> loc(#loc62)
    %67 = arith.addf %57#0, %66 : tensor<16x128xf32> loc(#loc63)
    %68 = tt.expand_dims %5 {axis = 1 : i32} : (tensor<16xi32>) -> tensor<16x1xi32> loc(#loc64)
    %c1_i32_10 = arith.constant 1 : i32 loc(#loc65)
    %cst_11 = arith.constant dense<1> : tensor<16x1xi32> loc(#loc65)
    %69 = arith.cmpi slt, %68, %cst_11 : tensor<16x1xi32> loc(#loc65)
    %70 = tt.expand_dims %9 {axis = 0 : i32} : (tensor<128xi32>) -> tensor<1x128xi32> loc(#loc66)
    %71 = tt.splat %arg4 : (i32) -> tensor<1x128xi32> loc(#loc67)
    %72 = arith.cmpi slt, %70, %71 : tensor<1x128xi32> loc(#loc67)
    %73 = tt.broadcast %69 : (tensor<16x1xi1>) -> tensor<16x128xi1> loc(#loc68)
    %74 = tt.broadcast %72 : (tensor<1x128xi1>) -> tensor<16x128xi1> loc(#loc68)
    %75 = arith.andi %73, %74 : tensor<16x128xi1> loc(#loc68)
    tt.store %51, %67, %75 {cache = 1 : i32, evict = 1 : i32} : tensor<16x128xf32> loc(#loc69)
    tt.return loc(#loc70)
  } loc(#loc)
  tt.func private @"zeros____0cconstexpr_(constexpr_16_, constexpr_128_)__1cconstexpr_fp32_"() -> tensor<16x128xf32> attributes {noinline = false} {
    %cst = arith.constant 0.000000e+00 : f32 loc(#loc72)
    %cst_0 = arith.constant dense<0.000000e+00> : tensor<16x128xf32> loc(#loc72)
    tt.return %cst_0 : tensor<16x128xf32> loc(#loc73)
  } loc(#loc71)
} loc(#loc)
#loc1 = loc("/home/meng/torch-compiler/models/lenet/torch-compile/addmm/addmm.py":27:26)
#loc2 = loc("/home/meng/torch-compiler/models/lenet/torch-compile/addmm/addmm.py":28:26)
#loc3 = loc("/home/meng/torch-compiler/models/lenet/torch-compile/addmm/addmm.py":31:17)
#loc4 = loc("/home/meng/torch-compiler/models/lenet/torch-compile/addmm/addmm.py":31:40)
#loc5 = loc("/home/meng/torch-compiler/models/lenet/torch-compile/addmm/addmm.py":31:27)
#loc6 = loc("/home/meng/torch-compiler/models/lenet/torch-compile/addmm/addmm.py":32:17)
#loc7 = loc("/home/meng/torch-compiler/models/lenet/torch-compile/addmm/addmm.py":32:40)
#loc8 = loc("/home/meng/torch-compiler/models/lenet/torch-compile/addmm/addmm.py":32:27)
#loc9 = loc("/home/meng/torch-compiler/models/lenet/torch-compile/addmm/addmm.py":35:15)
#loc10 = loc("/home/meng/torch-compiler/models/lenet/torch-compile/addmm/addmm.py":35:26)
#loc11 = loc("/home/meng/torch-compiler/models/lenet/torch-compile/addmm/addmm.py":35:12)
#loc12 = loc("/home/meng/torch-compiler/models/lenet/torch-compile/addmm/addmm.py":35:41)
#loc13 = loc("/home/meng/torch-compiler/models/lenet/torch-compile/addmm/addmm.py":35:52)
#loc14 = loc("/home/meng/torch-compiler/models/lenet/torch-compile/addmm/addmm.py":35:38)
#loc15 = loc("/home/meng/torch-compiler/models/lenet/torch-compile/addmm/addmm.py":36:15)
#loc16 = loc("/home/meng/torch-compiler/models/lenet/torch-compile/addmm/addmm.py":36:26)
#loc17 = loc("/home/meng/torch-compiler/models/lenet/torch-compile/addmm/addmm.py":36:12)
#loc18 = loc("/home/meng/torch-compiler/models/lenet/torch-compile/addmm/addmm.py":36:51)
#loc19 = loc("/home/meng/torch-compiler/models/lenet/torch-compile/addmm/addmm.py":36:60)
#loc20 = loc("/home/meng/torch-compiler/models/lenet/torch-compile/addmm/addmm.py":36:71)
#loc21 = loc("/home/meng/torch-compiler/models/lenet/torch-compile/addmm/addmm.py":36:38)
#loc22 = loc("/home/meng/torch-compiler/models/lenet/torch-compile/addmm/addmm.py":37:25)
#loc23 = loc("/home/meng/torch-compiler/models/lenet/torch-compile/addmm/addmm.py":37:34)
#loc24 = loc("/home/meng/torch-compiler/models/lenet/torch-compile/addmm/addmm.py":37:45)
#loc25 = loc("/home/meng/torch-compiler/models/lenet/torch-compile/addmm/addmm.py":37:12)
#loc26 = loc("/home/meng/torch-compiler/models/lenet/torch-compile/addmm/addmm.py":37:60)
#loc27 = loc("/home/meng/torch-compiler/models/lenet/torch-compile/addmm/addmm.py":37:71)
#loc28 = loc("/home/meng/torch-compiler/models/lenet/torch-compile/addmm/addmm.py":37:57)
#loc29 = loc("/home/meng/torch-compiler/models/lenet/torch-compile/addmm/addmm.py":38:15)
#loc30 = loc("/home/meng/torch-compiler/models/lenet/torch-compile/addmm/addmm.py":38:26)
#loc31 = loc("/home/meng/torch-compiler/models/lenet/torch-compile/addmm/addmm.py":38:12)
#loc32 = loc("/home/meng/torch-compiler/models/lenet/torch-compile/addmm/addmm.py":38:41)
#loc33 = loc("/home/meng/torch-compiler/models/lenet/torch-compile/addmm/addmm.py":38:52)
#loc34 = loc("/home/meng/torch-compiler/models/lenet/torch-compile/addmm/addmm.py":38:38)
#loc35 = loc("/home/meng/torch-compiler/models/lenet/torch-compile/addmm/addmm.py":40:19)
#loc36 = loc("/home/meng/torch-compiler/models/lenet/torch-compile/addmm/addmm.py":43:25)
#loc37 = loc("/home/meng/torch-compiler/models/lenet/torch-compile/addmm/addmm.py":44:32)
#loc38 = loc("/home/meng/torch-compiler/models/lenet/torch-compile/addmm/addmm.py":44:43)
#loc39 = loc("/home/meng/torch-compiler/models/lenet/torch-compile/addmm/addmm.py":44:62)
#loc40 = loc("/home/meng/torch-compiler/models/lenet/torch-compile/addmm/addmm.py":44:71)
#loc41 = loc("/home/meng/torch-compiler/models/lenet/torch-compile/addmm/addmm.py":44:82)
#loc42 = loc("/home/meng/torch-compiler/models/lenet/torch-compile/addmm/addmm.py":44:49)
#loc43 = loc("/home/meng/torch-compiler/models/lenet/torch-compile/addmm/addmm.py":44:20)
#loc44 = loc("/home/meng/torch-compiler/models/lenet/torch-compile/addmm/addmm.py":45:42)
#loc45 = loc("/home/meng/torch-compiler/models/lenet/torch-compile/addmm/addmm.py":45:51)
#loc46 = loc("/home/meng/torch-compiler/models/lenet/torch-compile/addmm/addmm.py":45:62)
#loc47 = loc("/home/meng/torch-compiler/models/lenet/torch-compile/addmm/addmm.py":45:71)
#loc48 = loc("/home/meng/torch-compiler/models/lenet/torch-compile/addmm/addmm.py":45:82)
#loc49 = loc("/home/meng/torch-compiler/models/lenet/torch-compile/addmm/addmm.py":45:68)
#loc50 = loc("/home/meng/torch-compiler/models/lenet/torch-compile/addmm/addmm.py":45:20)
#loc51 = loc("/home/meng/torch-compiler/models/lenet/torch-compile/addmm/addmm.py":46:25)
#loc52 = loc("/home/meng/torch-compiler/models/lenet/torch-compile/addmm/addmm.py":46:15)
#loc53 = loc("/home/meng/torch-compiler/models/lenet/torch-compile/addmm/addmm.py":47:13)
#loc54 = loc("/home/meng/torch-compiler/models/lenet/torch-compile/addmm/addmm.py":48:23)
#loc55 = loc("/home/meng/torch-compiler/models/lenet/torch-compile/addmm/addmm.py":48:13)
#loc56 = loc("/home/meng/torch-compiler/models/lenet/torch-compile/addmm/addmm.py":48:8)
#loc57 = loc("/home/meng/torch-compiler/models/lenet/torch-compile/addmm/addmm.py":51:28)
#loc58 = loc("/home/meng/torch-compiler/models/lenet/torch-compile/addmm/addmm.py":51:39)
#loc59 = loc("/home/meng/torch-compiler/models/lenet/torch-compile/addmm/addmm.py":51:48)
#loc60 = loc("/home/meng/torch-compiler/models/lenet/torch-compile/addmm/addmm.py":51:59)
#loc61 = loc("/home/meng/torch-compiler/models/lenet/torch-compile/addmm/addmm.py":51:45)
#loc62 = loc("/home/meng/torch-compiler/models/lenet/torch-compile/addmm/addmm.py":51:16)
#loc63 = loc("/home/meng/torch-compiler/models/lenet/torch-compile/addmm/addmm.py":52:11)
#loc64 = loc("/home/meng/torch-compiler/models/lenet/torch-compile/addmm/addmm.py":55:30)
#loc65 = loc("/home/meng/torch-compiler/models/lenet/torch-compile/addmm/addmm.py":55:41)
#loc66 = loc("/home/meng/torch-compiler/models/lenet/torch-compile/addmm/addmm.py":55:50)
#loc67 = loc("/home/meng/torch-compiler/models/lenet/torch-compile/addmm/addmm.py":55:61)
#loc68 = loc("/home/meng/torch-compiler/models/lenet/torch-compile/addmm/addmm.py":55:47)
#loc69 = loc("/home/meng/torch-compiler/models/lenet/torch-compile/addmm/addmm.py":55:16)
#loc70 = loc("/home/meng/torch-compiler/models/lenet/torch-compile/addmm/addmm.py":55:4)
#loc71 = loc("/home/meng/torch-compiler/triton-community/triton/python/triton/language/standard.py":84:0)
#loc72 = loc("/home/meng/torch-compiler/triton-community/triton/python/triton/language/standard.py":93:31)
#loc73 = loc("/home/meng/torch-compiler/triton-community/triton/python/triton/language/standard.py":93:11)


// -----// IR Dump Before Canonicalizer (canonicalize) ('tt.func' operation: @addmm_kernel_0d1d2d3d4c5678c910c1112c1314c) //----- //
#loc = loc("/home/meng/torch-compiler/models/lenet/torch-compile/addmm/addmm.py":6:0)
module {
  tt.func public @addmm_kernel_0d1d2d3d4c5678c910c1112c1314c(%arg0: !tt.ptr<f32, 1> {tt.divisibility = 16 : i32} loc("/home/meng/torch-compiler/models/lenet/torch-compile/addmm/addmm.py":6:0), %arg1: !tt.ptr<f32, 1> {tt.divisibility = 16 : i32} loc("/home/meng/torch-compiler/models/lenet/torch-compile/addmm/addmm.py":6:0), %arg2: !tt.ptr<f32, 1> {tt.divisibility = 16 : i32} loc("/home/meng/torch-compiler/models/lenet/torch-compile/addmm/addmm.py":6:0), %arg3: !tt.ptr<f32, 1> {tt.divisibility = 16 : i32} loc("/home/meng/torch-compiler/models/lenet/torch-compile/addmm/addmm.py":6:0), %arg4: i32 loc("/home/meng/torch-compiler/models/lenet/torch-compile/addmm/addmm.py":6:0), %arg5: i32 loc("/home/meng/torch-compiler/models/lenet/torch-compile/addmm/addmm.py":6:0), %arg6: i32 loc("/home/meng/torch-compiler/models/lenet/torch-compile/addmm/addmm.py":6:0), %arg7: i32 loc("/home/meng/torch-compiler/models/lenet/torch-compile/addmm/addmm.py":6:0), %arg8: i32 loc("/home/meng/torch-compiler/models/lenet/torch-compile/addmm/addmm.py":6:0), %arg9: i32 loc("/home/meng/torch-compiler/models/lenet/torch-compile/addmm/addmm.py":6:0)) attributes {noinline = false} {
    %0 = tt.get_program_id x : i32 loc(#loc1)
    %1 = tt.get_program_id y : i32 loc(#loc2)
    %c16_i32 = arith.constant 16 : i32 loc(#loc3)
    %2 = arith.muli %0, %c16_i32 : i32 loc(#loc3)
    %3 = tt.make_range {end = 16 : i32, start = 0 : i32} : tensor<16xi32> loc(#loc4)
    %4 = tt.splat %2 : (i32) -> tensor<16xi32> loc(#loc5)
    %5 = arith.addi %4, %3 : tensor<16xi32> loc(#loc5)
    %c128_i32 = arith.constant 128 : i32 loc(#loc6)
    %6 = arith.muli %1, %c128_i32 : i32 loc(#loc6)
    %7 = tt.make_range {end = 128 : i32, start = 0 : i32} : tensor<128xi32> loc(#loc7)
    %8 = tt.splat %6 : (i32) -> tensor<128xi32> loc(#loc8)
    %9 = arith.addi %8, %7 : tensor<128xi32> loc(#loc8)
    %10 = tt.expand_dims %5 {axis = 1 : i32} : (tensor<16xi32>) -> tensor<16x1xi32> loc(#loc9)
    %11 = tt.splat %arg6 : (i32) -> tensor<16x1xi32> loc(#loc10)
    %12 = arith.muli %10, %11 : tensor<16x1xi32> loc(#loc10)
    %13 = tt.splat %arg0 : (!tt.ptr<f32, 1>) -> tensor<16x1x!tt.ptr<f32, 1>> loc(#loc11)
    %14 = tt.addptr %13, %12 : tensor<16x1x!tt.ptr<f32, 1>>, tensor<16x1xi32> loc(#loc11)
    %15 = tt.expand_dims %9 {axis = 0 : i32} : (tensor<128xi32>) -> tensor<1x128xi32> loc(#loc12)
    %c1_i32 = arith.constant 1 : i32 loc(#loc13)
    %cst = arith.constant dense<1> : tensor<1x128xi32> loc(#loc13)
    %16 = arith.muli %15, %cst : tensor<1x128xi32> loc(#loc13)
    %17 = tt.broadcast %14 : (tensor<16x1x!tt.ptr<f32, 1>>) -> tensor<16x128x!tt.ptr<f32, 1>> loc(#loc14)
    %18 = tt.broadcast %16 : (tensor<1x128xi32>) -> tensor<16x128xi32> loc(#loc14)
    %19 = tt.addptr %17, %18 : tensor<16x128x!tt.ptr<f32, 1>>, tensor<16x128xi32> loc(#loc14)
    %20 = tt.expand_dims %5 {axis = 1 : i32} : (tensor<16xi32>) -> tensor<16x1xi32> loc(#loc15)
    %21 = tt.splat %arg7 : (i32) -> tensor<16x1xi32> loc(#loc16)
    %22 = arith.muli %20, %21 : tensor<16x1xi32> loc(#loc16)
    %23 = tt.splat %arg1 : (!tt.ptr<f32, 1>) -> tensor<16x1x!tt.ptr<f32, 1>> loc(#loc17)
    %24 = tt.addptr %23, %22 : tensor<16x1x!tt.ptr<f32, 1>>, tensor<16x1xi32> loc(#loc17)
    %25 = tt.make_range {end = 32 : i32, start = 0 : i32} : tensor<32xi32> loc(#loc18)
    %26 = tt.expand_dims %25 {axis = 0 : i32} : (tensor<32xi32>) -> tensor<1x32xi32> loc(#loc19)
    %c1_i32_0 = arith.constant 1 : i32 loc(#loc20)
    %cst_1 = arith.constant dense<1> : tensor<1x32xi32> loc(#loc20)
    %27 = arith.muli %26, %cst_1 : tensor<1x32xi32> loc(#loc20)
    %28 = tt.broadcast %24 : (tensor<16x1x!tt.ptr<f32, 1>>) -> tensor<16x32x!tt.ptr<f32, 1>> loc(#loc21)
    %29 = tt.broadcast %27 : (tensor<1x32xi32>) -> tensor<16x32xi32> loc(#loc21)
    %30 = tt.addptr %28, %29 : tensor<16x32x!tt.ptr<f32, 1>>, tensor<16x32xi32> loc(#loc21)
    %31 = tt.make_range {end = 32 : i32, start = 0 : i32} : tensor<32xi32> loc(#loc22)
    %32 = tt.expand_dims %31 {axis = 1 : i32} : (tensor<32xi32>) -> tensor<32x1xi32> loc(#loc23)
    %33 = tt.splat %arg8 : (i32) -> tensor<32x1xi32> loc(#loc24)
    %34 = arith.muli %32, %33 : tensor<32x1xi32> loc(#loc24)
    %35 = tt.splat %arg2 : (!tt.ptr<f32, 1>) -> tensor<32x1x!tt.ptr<f32, 1>> loc(#loc25)
    %36 = tt.addptr %35, %34 : tensor<32x1x!tt.ptr<f32, 1>>, tensor<32x1xi32> loc(#loc25)
    %37 = tt.expand_dims %9 {axis = 0 : i32} : (tensor<128xi32>) -> tensor<1x128xi32> loc(#loc26)
    %c1_i32_2 = arith.constant 1 : i32 loc(#loc27)
    %cst_3 = arith.constant dense<1> : tensor<1x128xi32> loc(#loc27)
    %38 = arith.muli %37, %cst_3 : tensor<1x128xi32> loc(#loc27)
    %39 = tt.broadcast %36 : (tensor<32x1x!tt.ptr<f32, 1>>) -> tensor<32x128x!tt.ptr<f32, 1>> loc(#loc28)
    %40 = tt.broadcast %38 : (tensor<1x128xi32>) -> tensor<32x128xi32> loc(#loc28)
    %41 = tt.addptr %39, %40 : tensor<32x128x!tt.ptr<f32, 1>>, tensor<32x128xi32> loc(#loc28)
    %42 = tt.expand_dims %5 {axis = 1 : i32} : (tensor<16xi32>) -> tensor<16x1xi32> loc(#loc29)
    %43 = tt.splat %arg9 : (i32) -> tensor<16x1xi32> loc(#loc30)
    %44 = arith.muli %42, %43 : tensor<16x1xi32> loc(#loc30)
    %45 = tt.splat %arg3 : (!tt.ptr<f32, 1>) -> tensor<16x1x!tt.ptr<f32, 1>> loc(#loc31)
    %46 = tt.addptr %45, %44 : tensor<16x1x!tt.ptr<f32, 1>>, tensor<16x1xi32> loc(#loc31)
    %47 = tt.expand_dims %9 {axis = 0 : i32} : (tensor<128xi32>) -> tensor<1x128xi32> loc(#loc32)
    %c1_i32_4 = arith.constant 1 : i32 loc(#loc33)
    %cst_5 = arith.constant dense<1> : tensor<1x128xi32> loc(#loc33)
    %48 = arith.muli %47, %cst_5 : tensor<1x128xi32> loc(#loc33)
    %49 = tt.broadcast %46 : (tensor<16x1x!tt.ptr<f32, 1>>) -> tensor<16x128x!tt.ptr<f32, 1>> loc(#loc34)
    %50 = tt.broadcast %48 : (tensor<1x128xi32>) -> tensor<16x128xi32> loc(#loc34)
    %51 = tt.addptr %49, %50 : tensor<16x128x!tt.ptr<f32, 1>>, tensor<16x128xi32> loc(#loc34)
    %52 = tt.call @"zeros____0cconstexpr_(constexpr_16_, constexpr_128_)__1cconstexpr_fp32_"() : () -> tensor<16x128xf32> loc(#loc35)
    %c0_i32 = arith.constant 0 : i32 loc(#loc36)
    %c32_i32 = arith.constant 32 : i32 loc(#loc36)
    %53 = arith.bitcast %c0_i32 : i32 to i32 loc(#loc36)
    %54 = arith.bitcast %arg5 : i32 to i32 loc(#loc36)
    %55 = arith.bitcast %c32_i32 : i32 to i32 loc(#loc36)
    %56 = llvm.mlir.undef : i32 loc(#loc36)
    %57:3 = scf.for %arg10 = %53 to %54 step %55 iter_args(%arg11 = %52, %arg12 = %30, %arg13 = %41) -> (tensor<16x128xf32>, tensor<16x32x!tt.ptr<f32, 1>>, tensor<32x128x!tt.ptr<f32, 1>>)  : i32 {
      %76 = tt.expand_dims %5 {axis = 1 : i32} : (tensor<16xi32>) -> tensor<16x1xi32> loc(#loc37)
      %c1_i32_12 = arith.constant 1 : i32 loc(#loc38)
      %cst_13 = arith.constant dense<1> : tensor<16x1xi32> loc(#loc38)
      %77 = arith.cmpi slt, %76, %cst_13 : tensor<16x1xi32> loc(#loc38)
      %78 = tt.make_range {end = 32 : i32, start = 0 : i32} : tensor<32xi32> loc(#loc39)
      %79 = tt.expand_dims %78 {axis = 0 : i32} : (tensor<32xi32>) -> tensor<1x32xi32> loc(#loc40)
      %80 = tt.splat %arg5 : (i32) -> tensor<1x32xi32> loc(#loc41)
      %81 = arith.cmpi slt, %79, %80 : tensor<1x32xi32> loc(#loc41)
      %82 = tt.broadcast %77 : (tensor<16x1xi1>) -> tensor<16x32xi1> loc(#loc42)
      %83 = tt.broadcast %81 : (tensor<1x32xi1>) -> tensor<16x32xi1> loc(#loc42)
      %84 = arith.andi %82, %83 : tensor<16x32xi1> loc(#loc42)
      %cst_14 = arith.constant 0.000000e+00 : f32 loc(#loc43)
      %cst_15 = arith.constant dense<0.000000e+00> : tensor<16x32xf32> loc(#loc43)
      %85 = tt.load %arg12, %84, %cst_15 {cache = 1 : i32, evict = 1 : i32, isVolatile = false} : tensor<16x32xf32> loc(#loc43)
      %86 = tt.make_range {end = 32 : i32, start = 0 : i32} : tensor<32xi32> loc(#loc44)
      %87 = tt.expand_dims %86 {axis = 1 : i32} : (tensor<32xi32>) -> tensor<32x1xi32> loc(#loc45)
      %88 = tt.splat %arg5 : (i32) -> tensor<32x1xi32> loc(#loc46)
      %89 = arith.cmpi slt, %87, %88 : tensor<32x1xi32> loc(#loc46)
      %90 = tt.expand_dims %9 {axis = 0 : i32} : (tensor<128xi32>) -> tensor<1x128xi32> loc(#loc47)
      %91 = tt.splat %arg4 : (i32) -> tensor<1x128xi32> loc(#loc48)
      %92 = arith.cmpi slt, %90, %91 : tensor<1x128xi32> loc(#loc48)
      %93 = tt.broadcast %89 : (tensor<32x1xi1>) -> tensor<32x128xi1> loc(#loc49)
      %94 = tt.broadcast %92 : (tensor<1x128xi1>) -> tensor<32x128xi1> loc(#loc49)
      %95 = arith.andi %93, %94 : tensor<32x128xi1> loc(#loc49)
      %cst_16 = arith.constant 0.000000e+00 : f32 loc(#loc50)
      %cst_17 = arith.constant dense<0.000000e+00> : tensor<32x128xf32> loc(#loc50)
      %96 = tt.load %arg13, %95, %cst_17 {cache = 1 : i32, evict = 1 : i32, isVolatile = false} : tensor<32x128xf32> loc(#loc50)
      %cst_18 = arith.constant 0.000000e+00 : f32 loc(#loc51)
      %cst_19 = arith.constant dense<0.000000e+00> : tensor<16x128xf32> loc(#loc51)
      %97 = tt.dot %85, %96, %cst_19 {allowTF32 = true, maxNumImpreciseAcc = 0 : i32} : tensor<16x32xf32> * tensor<32x128xf32> -> tensor<16x128xf32> loc(#loc51)
      %98 = arith.addf %arg11, %97 : tensor<16x128xf32> loc(#loc52)
      %c32_i32_20 = arith.constant 32 : i32 loc(#loc53)
      %cst_21 = arith.constant dense<32> : tensor<16x32xi32> loc(#loc53)
      %99 = tt.addptr %arg12, %cst_21 : tensor<16x32x!tt.ptr<f32, 1>>, tensor<16x32xi32> loc(#loc53)
      %c32_i32_22 = arith.constant 32 : i32 loc(#loc54)
      %100 = arith.muli %arg8, %c32_i32_22 : i32 loc(#loc54)
      %101 = tt.splat %100 : (i32) -> tensor<32x128xi32> loc(#loc55)
      %102 = tt.addptr %arg13, %101 : tensor<32x128x!tt.ptr<f32, 1>>, tensor<32x128xi32> loc(#loc55)
      scf.yield %98, %99, %102 : tensor<16x128xf32>, tensor<16x32x!tt.ptr<f32, 1>>, tensor<32x128x!tt.ptr<f32, 1>> loc(#loc56)
    } loc(#loc36)
    %58 = tt.expand_dims %5 {axis = 1 : i32} : (tensor<16xi32>) -> tensor<16x1xi32> loc(#loc57)
    %c1_i32_6 = arith.constant 1 : i32 loc(#loc58)
    %cst_7 = arith.constant dense<1> : tensor<16x1xi32> loc(#loc58)
    %59 = arith.cmpi slt, %58, %cst_7 : tensor<16x1xi32> loc(#loc58)
    %60 = tt.expand_dims %9 {axis = 0 : i32} : (tensor<128xi32>) -> tensor<1x128xi32> loc(#loc59)
    %61 = tt.splat %arg4 : (i32) -> tensor<1x128xi32> loc(#loc60)
    %62 = arith.cmpi slt, %60, %61 : tensor<1x128xi32> loc(#loc60)
    %63 = tt.broadcast %59 : (tensor<16x1xi1>) -> tensor<16x128xi1> loc(#loc61)
    %64 = tt.broadcast %62 : (tensor<1x128xi1>) -> tensor<16x128xi1> loc(#loc61)
    %65 = arith.andi %63, %64 : tensor<16x128xi1> loc(#loc61)
    %cst_8 = arith.constant 0.000000e+00 : f32 loc(#loc62)
    %cst_9 = arith.constant dense<0.000000e+00> : tensor<16x128xf32> loc(#loc62)
    %66 = tt.load %19, %65, %cst_9 {cache = 1 : i32, evict = 1 : i32, isVolatile = false} : tensor<16x128xf32> loc(#loc62)
    %67 = arith.addf %57#0, %66 : tensor<16x128xf32> loc(#loc63)
    %68 = tt.expand_dims %5 {axis = 1 : i32} : (tensor<16xi32>) -> tensor<16x1xi32> loc(#loc64)
    %c1_i32_10 = arith.constant 1 : i32 loc(#loc65)
    %cst_11 = arith.constant dense<1> : tensor<16x1xi32> loc(#loc65)
    %69 = arith.cmpi slt, %68, %cst_11 : tensor<16x1xi32> loc(#loc65)
    %70 = tt.expand_dims %9 {axis = 0 : i32} : (tensor<128xi32>) -> tensor<1x128xi32> loc(#loc66)
    %71 = tt.splat %arg4 : (i32) -> tensor<1x128xi32> loc(#loc67)
    %72 = arith.cmpi slt, %70, %71 : tensor<1x128xi32> loc(#loc67)
    %73 = tt.broadcast %69 : (tensor<16x1xi1>) -> tensor<16x128xi1> loc(#loc68)
    %74 = tt.broadcast %72 : (tensor<1x128xi1>) -> tensor<16x128xi1> loc(#loc68)
    %75 = arith.andi %73, %74 : tensor<16x128xi1> loc(#loc68)
    tt.store %51, %67, %75 {cache = 1 : i32, evict = 1 : i32} : tensor<16x128xf32> loc(#loc69)
    tt.return loc(#loc70)
  } loc(#loc)
  tt.func private @"zeros____0cconstexpr_(constexpr_16_, constexpr_128_)__1cconstexpr_fp32_"() -> tensor<16x128xf32> attributes {noinline = false} {
    %cst = arith.constant dense<0.000000e+00> : tensor<16x128xf32> loc(#loc72)
    tt.return %cst : tensor<16x128xf32> loc(#loc73)
  } loc(#loc71)
} loc(#loc)
#loc1 = loc("/home/meng/torch-compiler/models/lenet/torch-compile/addmm/addmm.py":27:26)
#loc2 = loc("/home/meng/torch-compiler/models/lenet/torch-compile/addmm/addmm.py":28:26)
#loc3 = loc("/home/meng/torch-compiler/models/lenet/torch-compile/addmm/addmm.py":31:17)
#loc4 = loc("/home/meng/torch-compiler/models/lenet/torch-compile/addmm/addmm.py":31:40)
#loc5 = loc("/home/meng/torch-compiler/models/lenet/torch-compile/addmm/addmm.py":31:27)
#loc6 = loc("/home/meng/torch-compiler/models/lenet/torch-compile/addmm/addmm.py":32:17)
#loc7 = loc("/home/meng/torch-compiler/models/lenet/torch-compile/addmm/addmm.py":32:40)
#loc8 = loc("/home/meng/torch-compiler/models/lenet/torch-compile/addmm/addmm.py":32:27)
#loc9 = loc("/home/meng/torch-compiler/models/lenet/torch-compile/addmm/addmm.py":35:15)
#loc10 = loc("/home/meng/torch-compiler/models/lenet/torch-compile/addmm/addmm.py":35:26)
#loc11 = loc("/home/meng/torch-compiler/models/lenet/torch-compile/addmm/addmm.py":35:12)
#loc12 = loc("/home/meng/torch-compiler/models/lenet/torch-compile/addmm/addmm.py":35:41)
#loc13 = loc("/home/meng/torch-compiler/models/lenet/torch-compile/addmm/addmm.py":35:52)
#loc14 = loc("/home/meng/torch-compiler/models/lenet/torch-compile/addmm/addmm.py":35:38)
#loc15 = loc("/home/meng/torch-compiler/models/lenet/torch-compile/addmm/addmm.py":36:15)
#loc16 = loc("/home/meng/torch-compiler/models/lenet/torch-compile/addmm/addmm.py":36:26)
#loc17 = loc("/home/meng/torch-compiler/models/lenet/torch-compile/addmm/addmm.py":36:12)
#loc18 = loc("/home/meng/torch-compiler/models/lenet/torch-compile/addmm/addmm.py":36:51)
#loc19 = loc("/home/meng/torch-compiler/models/lenet/torch-compile/addmm/addmm.py":36:60)
#loc20 = loc("/home/meng/torch-compiler/models/lenet/torch-compile/addmm/addmm.py":36:71)
#loc21 = loc("/home/meng/torch-compiler/models/lenet/torch-compile/addmm/addmm.py":36:38)
#loc22 = loc("/home/meng/torch-compiler/models/lenet/torch-compile/addmm/addmm.py":37:25)
#loc23 = loc("/home/meng/torch-compiler/models/lenet/torch-compile/addmm/addmm.py":37:34)
#loc24 = loc("/home/meng/torch-compiler/models/lenet/torch-compile/addmm/addmm.py":37:45)
#loc25 = loc("/home/meng/torch-compiler/models/lenet/torch-compile/addmm/addmm.py":37:12)
#loc26 = loc("/home/meng/torch-compiler/models/lenet/torch-compile/addmm/addmm.py":37:60)
#loc27 = loc("/home/meng/torch-compiler/models/lenet/torch-compile/addmm/addmm.py":37:71)
#loc28 = loc("/home/meng/torch-compiler/models/lenet/torch-compile/addmm/addmm.py":37:57)
#loc29 = loc("/home/meng/torch-compiler/models/lenet/torch-compile/addmm/addmm.py":38:15)
#loc30 = loc("/home/meng/torch-compiler/models/lenet/torch-compile/addmm/addmm.py":38:26)
#loc31 = loc("/home/meng/torch-compiler/models/lenet/torch-compile/addmm/addmm.py":38:12)
#loc32 = loc("/home/meng/torch-compiler/models/lenet/torch-compile/addmm/addmm.py":38:41)
#loc33 = loc("/home/meng/torch-compiler/models/lenet/torch-compile/addmm/addmm.py":38:52)
#loc34 = loc("/home/meng/torch-compiler/models/lenet/torch-compile/addmm/addmm.py":38:38)
#loc35 = loc("/home/meng/torch-compiler/models/lenet/torch-compile/addmm/addmm.py":40:19)
#loc36 = loc("/home/meng/torch-compiler/models/lenet/torch-compile/addmm/addmm.py":43:25)
#loc37 = loc("/home/meng/torch-compiler/models/lenet/torch-compile/addmm/addmm.py":44:32)
#loc38 = loc("/home/meng/torch-compiler/models/lenet/torch-compile/addmm/addmm.py":44:43)
#loc39 = loc("/home/meng/torch-compiler/models/lenet/torch-compile/addmm/addmm.py":44:62)
#loc40 = loc("/home/meng/torch-compiler/models/lenet/torch-compile/addmm/addmm.py":44:71)
#loc41 = loc("/home/meng/torch-compiler/models/lenet/torch-compile/addmm/addmm.py":44:82)
#loc42 = loc("/home/meng/torch-compiler/models/lenet/torch-compile/addmm/addmm.py":44:49)
#loc43 = loc("/home/meng/torch-compiler/models/lenet/torch-compile/addmm/addmm.py":44:20)
#loc44 = loc("/home/meng/torch-compiler/models/lenet/torch-compile/addmm/addmm.py":45:42)
#loc45 = loc("/home/meng/torch-compiler/models/lenet/torch-compile/addmm/addmm.py":45:51)
#loc46 = loc("/home/meng/torch-compiler/models/lenet/torch-compile/addmm/addmm.py":45:62)
#loc47 = loc("/home/meng/torch-compiler/models/lenet/torch-compile/addmm/addmm.py":45:71)
#loc48 = loc("/home/meng/torch-compiler/models/lenet/torch-compile/addmm/addmm.py":45:82)
#loc49 = loc("/home/meng/torch-compiler/models/lenet/torch-compile/addmm/addmm.py":45:68)
#loc50 = loc("/home/meng/torch-compiler/models/lenet/torch-compile/addmm/addmm.py":45:20)
#loc51 = loc("/home/meng/torch-compiler/models/lenet/torch-compile/addmm/addmm.py":46:25)
#loc52 = loc("/home/meng/torch-compiler/models/lenet/torch-compile/addmm/addmm.py":46:15)
#loc53 = loc("/home/meng/torch-compiler/models/lenet/torch-compile/addmm/addmm.py":47:13)
#loc54 = loc("/home/meng/torch-compiler/models/lenet/torch-compile/addmm/addmm.py":48:23)
#loc55 = loc("/home/meng/torch-compiler/models/lenet/torch-compile/addmm/addmm.py":48:13)
#loc56 = loc("/home/meng/torch-compiler/models/lenet/torch-compile/addmm/addmm.py":48:8)
#loc57 = loc("/home/meng/torch-compiler/models/lenet/torch-compile/addmm/addmm.py":51:28)
#loc58 = loc("/home/meng/torch-compiler/models/lenet/torch-compile/addmm/addmm.py":51:39)
#loc59 = loc("/home/meng/torch-compiler/models/lenet/torch-compile/addmm/addmm.py":51:48)
#loc60 = loc("/home/meng/torch-compiler/models/lenet/torch-compile/addmm/addmm.py":51:59)
#loc61 = loc("/home/meng/torch-compiler/models/lenet/torch-compile/addmm/addmm.py":51:45)
#loc62 = loc("/home/meng/torch-compiler/models/lenet/torch-compile/addmm/addmm.py":51:16)
#loc63 = loc("/home/meng/torch-compiler/models/lenet/torch-compile/addmm/addmm.py":52:11)
#loc64 = loc("/home/meng/torch-compiler/models/lenet/torch-compile/addmm/addmm.py":55:30)
#loc65 = loc("/home/meng/torch-compiler/models/lenet/torch-compile/addmm/addmm.py":55:41)
#loc66 = loc("/home/meng/torch-compiler/models/lenet/torch-compile/addmm/addmm.py":55:50)
#loc67 = loc("/home/meng/torch-compiler/models/lenet/torch-compile/addmm/addmm.py":55:61)
#loc68 = loc("/home/meng/torch-compiler/models/lenet/torch-compile/addmm/addmm.py":55:47)
#loc69 = loc("/home/meng/torch-compiler/models/lenet/torch-compile/addmm/addmm.py":55:16)
#loc70 = loc("/home/meng/torch-compiler/models/lenet/torch-compile/addmm/addmm.py":55:4)
#loc71 = loc("/home/meng/torch-compiler/triton-community/triton/python/triton/language/standard.py":84:0)
#loc72 = loc("/home/meng/torch-compiler/triton-community/triton/python/triton/language/standard.py":93:31)
#loc73 = loc("/home/meng/torch-compiler/triton-community/triton/python/triton/language/standard.py":93:11)


// -----// IR Dump Before Canonicalizer (canonicalize) ('tt.func' operation: @addmm_kernel_0d1d2d3d4c5678c910c1112c1314c) //----- //
#loc = loc("/home/meng/torch-compiler/models/lenet/torch-compile/addmm/addmm.py":6:0)
module {
  tt.func public @addmm_kernel_0d1d2d3d4c5678c910c1112c1314c(%arg0: !tt.ptr<f32, 1> {tt.divisibility = 16 : i32} loc("/home/meng/torch-compiler/models/lenet/torch-compile/addmm/addmm.py":6:0), %arg1: !tt.ptr<f32, 1> {tt.divisibility = 16 : i32} loc("/home/meng/torch-compiler/models/lenet/torch-compile/addmm/addmm.py":6:0), %arg2: !tt.ptr<f32, 1> {tt.divisibility = 16 : i32} loc("/home/meng/torch-compiler/models/lenet/torch-compile/addmm/addmm.py":6:0), %arg3: !tt.ptr<f32, 1> {tt.divisibility = 16 : i32} loc("/home/meng/torch-compiler/models/lenet/torch-compile/addmm/addmm.py":6:0), %arg4: i32 loc("/home/meng/torch-compiler/models/lenet/torch-compile/addmm/addmm.py":6:0), %arg5: i32 loc("/home/meng/torch-compiler/models/lenet/torch-compile/addmm/addmm.py":6:0), %arg6: i32 loc("/home/meng/torch-compiler/models/lenet/torch-compile/addmm/addmm.py":6:0), %arg7: i32 loc("/home/meng/torch-compiler/models/lenet/torch-compile/addmm/addmm.py":6:0), %arg8: i32 loc("/home/meng/torch-compiler/models/lenet/torch-compile/addmm/addmm.py":6:0), %arg9: i32 loc("/home/meng/torch-compiler/models/lenet/torch-compile/addmm/addmm.py":6:0)) attributes {noinline = false} {
    %c32_i32 = arith.constant 32 : i32 loc(#loc1)
    %c0_i32 = arith.constant 0 : i32 loc(#loc1)
    %cst = arith.constant dense<32> : tensor<16x32xi32> loc(#loc2)
    %cst_0 = arith.constant dense<0.000000e+00> : tensor<16x128xf32> loc(#loc3)
    %cst_1 = arith.constant dense<0.000000e+00> : tensor<32x128xf32> loc(#loc4)
    %cst_2 = arith.constant dense<0.000000e+00> : tensor<16x32xf32> loc(#loc5)
    %cst_3 = arith.constant dense<1> : tensor<16x1xi32> loc(#loc6)
    %c128_i32 = arith.constant 128 : i32 loc(#loc7)
    %c16_i32 = arith.constant 16 : i32 loc(#loc8)
    %0 = tt.get_program_id x : i32 loc(#loc9)
    %1 = tt.get_program_id y : i32 loc(#loc10)
    %2 = arith.muli %0, %c16_i32 : i32 loc(#loc8)
    %3 = tt.make_range {end = 16 : i32, start = 0 : i32} : tensor<16xi32> loc(#loc11)
    %4 = tt.splat %2 : (i32) -> tensor<16xi32> loc(#loc12)
    %5 = arith.addi %4, %3 : tensor<16xi32> loc(#loc12)
    %6 = arith.muli %1, %c128_i32 : i32 loc(#loc7)
    %7 = tt.make_range {end = 128 : i32, start = 0 : i32} : tensor<128xi32> loc(#loc13)
    %8 = tt.splat %6 : (i32) -> tensor<128xi32> loc(#loc14)
    %9 = arith.addi %8, %7 : tensor<128xi32> loc(#loc14)
    %10 = tt.expand_dims %5 {axis = 1 : i32} : (tensor<16xi32>) -> tensor<16x1xi32> loc(#loc15)
    %11 = tt.splat %arg6 : (i32) -> tensor<16x1xi32> loc(#loc16)
    %12 = arith.muli %10, %11 : tensor<16x1xi32> loc(#loc16)
    %13 = tt.splat %arg0 : (!tt.ptr<f32, 1>) -> tensor<16x1x!tt.ptr<f32, 1>> loc(#loc17)
    %14 = tt.addptr %13, %12 : tensor<16x1x!tt.ptr<f32, 1>>, tensor<16x1xi32> loc(#loc17)
    %15 = tt.expand_dims %9 {axis = 0 : i32} : (tensor<128xi32>) -> tensor<1x128xi32> loc(#loc18)
    %16 = tt.broadcast %14 : (tensor<16x1x!tt.ptr<f32, 1>>) -> tensor<16x128x!tt.ptr<f32, 1>> loc(#loc19)
    %17 = tt.broadcast %15 : (tensor<1x128xi32>) -> tensor<16x128xi32> loc(#loc19)
    %18 = tt.addptr %16, %17 : tensor<16x128x!tt.ptr<f32, 1>>, tensor<16x128xi32> loc(#loc19)
    %19 = tt.expand_dims %5 {axis = 1 : i32} : (tensor<16xi32>) -> tensor<16x1xi32> loc(#loc20)
    %20 = tt.splat %arg7 : (i32) -> tensor<16x1xi32> loc(#loc21)
    %21 = arith.muli %19, %20 : tensor<16x1xi32> loc(#loc21)
    %22 = tt.splat %arg1 : (!tt.ptr<f32, 1>) -> tensor<16x1x!tt.ptr<f32, 1>> loc(#loc22)
    %23 = tt.addptr %22, %21 : tensor<16x1x!tt.ptr<f32, 1>>, tensor<16x1xi32> loc(#loc22)
    %24 = tt.make_range {end = 32 : i32, start = 0 : i32} : tensor<32xi32> loc(#loc23)
    %25 = tt.expand_dims %24 {axis = 0 : i32} : (tensor<32xi32>) -> tensor<1x32xi32> loc(#loc24)
    %26 = tt.broadcast %23 : (tensor<16x1x!tt.ptr<f32, 1>>) -> tensor<16x32x!tt.ptr<f32, 1>> loc(#loc25)
    %27 = tt.broadcast %25 : (tensor<1x32xi32>) -> tensor<16x32xi32> loc(#loc25)
    %28 = tt.addptr %26, %27 : tensor<16x32x!tt.ptr<f32, 1>>, tensor<16x32xi32> loc(#loc25)
    %29 = tt.make_range {end = 32 : i32, start = 0 : i32} : tensor<32xi32> loc(#loc26)
    %30 = tt.expand_dims %29 {axis = 1 : i32} : (tensor<32xi32>) -> tensor<32x1xi32> loc(#loc27)
    %31 = tt.splat %arg8 : (i32) -> tensor<32x1xi32> loc(#loc28)
    %32 = arith.muli %30, %31 : tensor<32x1xi32> loc(#loc28)
    %33 = tt.splat %arg2 : (!tt.ptr<f32, 1>) -> tensor<32x1x!tt.ptr<f32, 1>> loc(#loc29)
    %34 = tt.addptr %33, %32 : tensor<32x1x!tt.ptr<f32, 1>>, tensor<32x1xi32> loc(#loc29)
    %35 = tt.expand_dims %9 {axis = 0 : i32} : (tensor<128xi32>) -> tensor<1x128xi32> loc(#loc30)
    %36 = tt.broadcast %34 : (tensor<32x1x!tt.ptr<f32, 1>>) -> tensor<32x128x!tt.ptr<f32, 1>> loc(#loc31)
    %37 = tt.broadcast %35 : (tensor<1x128xi32>) -> tensor<32x128xi32> loc(#loc31)
    %38 = tt.addptr %36, %37 : tensor<32x128x!tt.ptr<f32, 1>>, tensor<32x128xi32> loc(#loc31)
    %39 = tt.expand_dims %5 {axis = 1 : i32} : (tensor<16xi32>) -> tensor<16x1xi32> loc(#loc32)
    %40 = tt.splat %arg9 : (i32) -> tensor<16x1xi32> loc(#loc33)
    %41 = arith.muli %39, %40 : tensor<16x1xi32> loc(#loc33)
    %42 = tt.splat %arg3 : (!tt.ptr<f32, 1>) -> tensor<16x1x!tt.ptr<f32, 1>> loc(#loc34)
    %43 = tt.addptr %42, %41 : tensor<16x1x!tt.ptr<f32, 1>>, tensor<16x1xi32> loc(#loc34)
    %44 = tt.expand_dims %9 {axis = 0 : i32} : (tensor<128xi32>) -> tensor<1x128xi32> loc(#loc35)
    %45 = tt.broadcast %43 : (tensor<16x1x!tt.ptr<f32, 1>>) -> tensor<16x128x!tt.ptr<f32, 1>> loc(#loc36)
    %46 = tt.broadcast %44 : (tensor<1x128xi32>) -> tensor<16x128xi32> loc(#loc36)
    %47 = tt.addptr %45, %46 : tensor<16x128x!tt.ptr<f32, 1>>, tensor<16x128xi32> loc(#loc36)
    %cst_4 = arith.constant dense<0.000000e+00> : tensor<16x128xf32> loc(#loc69)
    %48:3 = scf.for %arg10 = %c0_i32 to %arg5 step %c32_i32 iter_args(%arg11 = %cst_4, %arg12 = %28, %arg13 = %38) -> (tensor<16x128xf32>, tensor<16x32x!tt.ptr<f32, 1>>, tensor<32x128x!tt.ptr<f32, 1>>)  : i32 {
      %67 = tt.expand_dims %5 {axis = 1 : i32} : (tensor<16xi32>) -> tensor<16x1xi32> loc(#loc39)
      %68 = arith.cmpi slt, %67, %cst_3 : tensor<16x1xi32> loc(#loc6)
      %69 = tt.make_range {end = 32 : i32, start = 0 : i32} : tensor<32xi32> loc(#loc40)
      %70 = tt.expand_dims %69 {axis = 0 : i32} : (tensor<32xi32>) -> tensor<1x32xi32> loc(#loc41)
      %71 = tt.splat %arg5 : (i32) -> tensor<1x32xi32> loc(#loc42)
      %72 = arith.cmpi slt, %70, %71 : tensor<1x32xi32> loc(#loc42)
      %73 = tt.broadcast %68 : (tensor<16x1xi1>) -> tensor<16x32xi1> loc(#loc43)
      %74 = tt.broadcast %72 : (tensor<1x32xi1>) -> tensor<16x32xi1> loc(#loc43)
      %75 = arith.andi %73, %74 : tensor<16x32xi1> loc(#loc43)
      %76 = tt.load %arg12, %75, %cst_2 {cache = 1 : i32, evict = 1 : i32, isVolatile = false} : tensor<16x32xf32> loc(#loc5)
      %77 = tt.make_range {end = 32 : i32, start = 0 : i32} : tensor<32xi32> loc(#loc44)
      %78 = tt.expand_dims %77 {axis = 1 : i32} : (tensor<32xi32>) -> tensor<32x1xi32> loc(#loc45)
      %79 = tt.splat %arg5 : (i32) -> tensor<32x1xi32> loc(#loc46)
      %80 = arith.cmpi slt, %78, %79 : tensor<32x1xi32> loc(#loc46)
      %81 = tt.expand_dims %9 {axis = 0 : i32} : (tensor<128xi32>) -> tensor<1x128xi32> loc(#loc47)
      %82 = tt.splat %arg4 : (i32) -> tensor<1x128xi32> loc(#loc48)
      %83 = arith.cmpi slt, %81, %82 : tensor<1x128xi32> loc(#loc48)
      %84 = tt.broadcast %80 : (tensor<32x1xi1>) -> tensor<32x128xi1> loc(#loc49)
      %85 = tt.broadcast %83 : (tensor<1x128xi1>) -> tensor<32x128xi1> loc(#loc49)
      %86 = arith.andi %84, %85 : tensor<32x128xi1> loc(#loc49)
      %87 = tt.load %arg13, %86, %cst_1 {cache = 1 : i32, evict = 1 : i32, isVolatile = false} : tensor<32x128xf32> loc(#loc4)
      %88 = tt.dot %76, %87, %cst_0 {allowTF32 = true, maxNumImpreciseAcc = 0 : i32} : tensor<16x32xf32> * tensor<32x128xf32> -> tensor<16x128xf32> loc(#loc3)
      %89 = arith.addf %arg11, %88 : tensor<16x128xf32> loc(#loc50)
      %90 = tt.addptr %arg12, %cst : tensor<16x32x!tt.ptr<f32, 1>>, tensor<16x32xi32> loc(#loc2)
      %91 = arith.muli %arg8, %c32_i32 : i32 loc(#loc51)
      %92 = tt.splat %91 : (i32) -> tensor<32x128xi32> loc(#loc52)
      %93 = tt.addptr %arg13, %92 : tensor<32x128x!tt.ptr<f32, 1>>, tensor<32x128xi32> loc(#loc52)
      scf.yield %89, %90, %93 : tensor<16x128xf32>, tensor<16x32x!tt.ptr<f32, 1>>, tensor<32x128x!tt.ptr<f32, 1>> loc(#loc53)
    } loc(#loc1)
    %49 = tt.expand_dims %5 {axis = 1 : i32} : (tensor<16xi32>) -> tensor<16x1xi32> loc(#loc54)
    %50 = arith.cmpi slt, %49, %cst_3 : tensor<16x1xi32> loc(#loc55)
    %51 = tt.expand_dims %9 {axis = 0 : i32} : (tensor<128xi32>) -> tensor<1x128xi32> loc(#loc56)
    %52 = tt.splat %arg4 : (i32) -> tensor<1x128xi32> loc(#loc57)
    %53 = arith.cmpi slt, %51, %52 : tensor<1x128xi32> loc(#loc57)
    %54 = tt.broadcast %50 : (tensor<16x1xi1>) -> tensor<16x128xi1> loc(#loc58)
    %55 = tt.broadcast %53 : (tensor<1x128xi1>) -> tensor<16x128xi1> loc(#loc58)
    %56 = arith.andi %54, %55 : tensor<16x128xi1> loc(#loc58)
    %57 = tt.load %18, %56, %cst_0 {cache = 1 : i32, evict = 1 : i32, isVolatile = false} : tensor<16x128xf32> loc(#loc59)
    %58 = arith.addf %48#0, %57 : tensor<16x128xf32> loc(#loc60)
    %59 = tt.expand_dims %5 {axis = 1 : i32} : (tensor<16xi32>) -> tensor<16x1xi32> loc(#loc61)
    %60 = arith.cmpi slt, %59, %cst_3 : tensor<16x1xi32> loc(#loc62)
    %61 = tt.expand_dims %9 {axis = 0 : i32} : (tensor<128xi32>) -> tensor<1x128xi32> loc(#loc63)
    %62 = tt.splat %arg4 : (i32) -> tensor<1x128xi32> loc(#loc64)
    %63 = arith.cmpi slt, %61, %62 : tensor<1x128xi32> loc(#loc64)
    %64 = tt.broadcast %60 : (tensor<16x1xi1>) -> tensor<16x128xi1> loc(#loc65)
    %65 = tt.broadcast %63 : (tensor<1x128xi1>) -> tensor<16x128xi1> loc(#loc65)
    %66 = arith.andi %64, %65 : tensor<16x128xi1> loc(#loc65)
    tt.store %47, %58, %66 {cache = 1 : i32, evict = 1 : i32} : tensor<16x128xf32> loc(#loc66)
    tt.return loc(#loc67)
  } loc(#loc)
  tt.func private @"zeros____0cconstexpr_(constexpr_16_, constexpr_128_)__1cconstexpr_fp32_"() -> tensor<16x128xf32> attributes {noinline = false} loc(#loc68)
} loc(#loc)
#loc1 = loc("/home/meng/torch-compiler/models/lenet/torch-compile/addmm/addmm.py":43:25)
#loc2 = loc("/home/meng/torch-compiler/models/lenet/torch-compile/addmm/addmm.py":47:13)
#loc3 = loc("/home/meng/torch-compiler/models/lenet/torch-compile/addmm/addmm.py":46:25)
#loc4 = loc("/home/meng/torch-compiler/models/lenet/torch-compile/addmm/addmm.py":45:20)
#loc5 = loc("/home/meng/torch-compiler/models/lenet/torch-compile/addmm/addmm.py":44:20)
#loc6 = loc("/home/meng/torch-compiler/models/lenet/torch-compile/addmm/addmm.py":44:43)
#loc7 = loc("/home/meng/torch-compiler/models/lenet/torch-compile/addmm/addmm.py":32:17)
#loc8 = loc("/home/meng/torch-compiler/models/lenet/torch-compile/addmm/addmm.py":31:17)
#loc9 = loc("/home/meng/torch-compiler/models/lenet/torch-compile/addmm/addmm.py":27:26)
#loc10 = loc("/home/meng/torch-compiler/models/lenet/torch-compile/addmm/addmm.py":28:26)
#loc11 = loc("/home/meng/torch-compiler/models/lenet/torch-compile/addmm/addmm.py":31:40)
#loc12 = loc("/home/meng/torch-compiler/models/lenet/torch-compile/addmm/addmm.py":31:27)
#loc13 = loc("/home/meng/torch-compiler/models/lenet/torch-compile/addmm/addmm.py":32:40)
#loc14 = loc("/home/meng/torch-compiler/models/lenet/torch-compile/addmm/addmm.py":32:27)
#loc15 = loc("/home/meng/torch-compiler/models/lenet/torch-compile/addmm/addmm.py":35:15)
#loc16 = loc("/home/meng/torch-compiler/models/lenet/torch-compile/addmm/addmm.py":35:26)
#loc17 = loc("/home/meng/torch-compiler/models/lenet/torch-compile/addmm/addmm.py":35:12)
#loc18 = loc("/home/meng/torch-compiler/models/lenet/torch-compile/addmm/addmm.py":35:41)
#loc19 = loc("/home/meng/torch-compiler/models/lenet/torch-compile/addmm/addmm.py":35:38)
#loc20 = loc("/home/meng/torch-compiler/models/lenet/torch-compile/addmm/addmm.py":36:15)
#loc21 = loc("/home/meng/torch-compiler/models/lenet/torch-compile/addmm/addmm.py":36:26)
#loc22 = loc("/home/meng/torch-compiler/models/lenet/torch-compile/addmm/addmm.py":36:12)
#loc23 = loc("/home/meng/torch-compiler/models/lenet/torch-compile/addmm/addmm.py":36:51)
#loc24 = loc("/home/meng/torch-compiler/models/lenet/torch-compile/addmm/addmm.py":36:60)
#loc25 = loc("/home/meng/torch-compiler/models/lenet/torch-compile/addmm/addmm.py":36:38)
#loc26 = loc("/home/meng/torch-compiler/models/lenet/torch-compile/addmm/addmm.py":37:25)
#loc27 = loc("/home/meng/torch-compiler/models/lenet/torch-compile/addmm/addmm.py":37:34)
#loc28 = loc("/home/meng/torch-compiler/models/lenet/torch-compile/addmm/addmm.py":37:45)
#loc29 = loc("/home/meng/torch-compiler/models/lenet/torch-compile/addmm/addmm.py":37:12)
#loc30 = loc("/home/meng/torch-compiler/models/lenet/torch-compile/addmm/addmm.py":37:60)
#loc31 = loc("/home/meng/torch-compiler/models/lenet/torch-compile/addmm/addmm.py":37:57)
#loc32 = loc("/home/meng/torch-compiler/models/lenet/torch-compile/addmm/addmm.py":38:15)
#loc33 = loc("/home/meng/torch-compiler/models/lenet/torch-compile/addmm/addmm.py":38:26)
#loc34 = loc("/home/meng/torch-compiler/models/lenet/torch-compile/addmm/addmm.py":38:12)
#loc35 = loc("/home/meng/torch-compiler/models/lenet/torch-compile/addmm/addmm.py":38:41)
#loc36 = loc("/home/meng/torch-compiler/models/lenet/torch-compile/addmm/addmm.py":38:38)
#loc37 = loc("/home/meng/torch-compiler/triton-community/triton/python/triton/language/standard.py":93:31)
#loc38 = loc("/home/meng/torch-compiler/models/lenet/torch-compile/addmm/addmm.py":40:19)
#loc39 = loc("/home/meng/torch-compiler/models/lenet/torch-compile/addmm/addmm.py":44:32)
#loc40 = loc("/home/meng/torch-compiler/models/lenet/torch-compile/addmm/addmm.py":44:62)
#loc41 = loc("/home/meng/torch-compiler/models/lenet/torch-compile/addmm/addmm.py":44:71)
#loc42 = loc("/home/meng/torch-compiler/models/lenet/torch-compile/addmm/addmm.py":44:82)
#loc43 = loc("/home/meng/torch-compiler/models/lenet/torch-compile/addmm/addmm.py":44:49)
#loc44 = loc("/home/meng/torch-compiler/models/lenet/torch-compile/addmm/addmm.py":45:42)
#loc45 = loc("/home/meng/torch-compiler/models/lenet/torch-compile/addmm/addmm.py":45:51)
#loc46 = loc("/home/meng/torch-compiler/models/lenet/torch-compile/addmm/addmm.py":45:62)
#loc47 = loc("/home/meng/torch-compiler/models/lenet/torch-compile/addmm/addmm.py":45:71)
#loc48 = loc("/home/meng/torch-compiler/models/lenet/torch-compile/addmm/addmm.py":45:82)
#loc49 = loc("/home/meng/torch-compiler/models/lenet/torch-compile/addmm/addmm.py":45:68)
#loc50 = loc("/home/meng/torch-compiler/models/lenet/torch-compile/addmm/addmm.py":46:15)
#loc51 = loc("/home/meng/torch-compiler/models/lenet/torch-compile/addmm/addmm.py":48:23)
#loc52 = loc("/home/meng/torch-compiler/models/lenet/torch-compile/addmm/addmm.py":48:13)
#loc53 = loc("/home/meng/torch-compiler/models/lenet/torch-compile/addmm/addmm.py":48:8)
#loc54 = loc("/home/meng/torch-compiler/models/lenet/torch-compile/addmm/addmm.py":51:28)
#loc55 = loc("/home/meng/torch-compiler/models/lenet/torch-compile/addmm/addmm.py":51:39)
#loc56 = loc("/home/meng/torch-compiler/models/lenet/torch-compile/addmm/addmm.py":51:48)
#loc57 = loc("/home/meng/torch-compiler/models/lenet/torch-compile/addmm/addmm.py":51:59)
#loc58 = loc("/home/meng/torch-compiler/models/lenet/torch-compile/addmm/addmm.py":51:45)
#loc59 = loc("/home/meng/torch-compiler/models/lenet/torch-compile/addmm/addmm.py":51:16)
#loc60 = loc("/home/meng/torch-compiler/models/lenet/torch-compile/addmm/addmm.py":52:11)
#loc61 = loc("/home/meng/torch-compiler/models/lenet/torch-compile/addmm/addmm.py":55:30)
#loc62 = loc("/home/meng/torch-compiler/models/lenet/torch-compile/addmm/addmm.py":55:41)
#loc63 = loc("/home/meng/torch-compiler/models/lenet/torch-compile/addmm/addmm.py":55:50)
#loc64 = loc("/home/meng/torch-compiler/models/lenet/torch-compile/addmm/addmm.py":55:61)
#loc65 = loc("/home/meng/torch-compiler/models/lenet/torch-compile/addmm/addmm.py":55:47)
#loc66 = loc("/home/meng/torch-compiler/models/lenet/torch-compile/addmm/addmm.py":55:16)
#loc67 = loc("/home/meng/torch-compiler/models/lenet/torch-compile/addmm/addmm.py":55:4)
#loc68 = loc("/home/meng/torch-compiler/triton-community/triton/python/triton/language/standard.py":84:0)
#loc69 = loc(callsite(#loc37 at #loc38))


// -----// IR Dump Before TritonRewriteTensorPointer (triton-rewrite-tensor-pointer) ('builtin.module' operation) //----- //
#loc = loc("/home/meng/torch-compiler/models/lenet/torch-compile/addmm/addmm.py":6:0)
module {
  tt.func public @addmm_kernel_0d1d2d3d4c5678c910c1112c1314c(%arg0: !tt.ptr<f32, 1> {tt.divisibility = 16 : i32} loc("/home/meng/torch-compiler/models/lenet/torch-compile/addmm/addmm.py":6:0), %arg1: !tt.ptr<f32, 1> {tt.divisibility = 16 : i32} loc("/home/meng/torch-compiler/models/lenet/torch-compile/addmm/addmm.py":6:0), %arg2: !tt.ptr<f32, 1> {tt.divisibility = 16 : i32} loc("/home/meng/torch-compiler/models/lenet/torch-compile/addmm/addmm.py":6:0), %arg3: !tt.ptr<f32, 1> {tt.divisibility = 16 : i32} loc("/home/meng/torch-compiler/models/lenet/torch-compile/addmm/addmm.py":6:0), %arg4: i32 loc("/home/meng/torch-compiler/models/lenet/torch-compile/addmm/addmm.py":6:0), %arg5: i32 loc("/home/meng/torch-compiler/models/lenet/torch-compile/addmm/addmm.py":6:0), %arg6: i32 loc("/home/meng/torch-compiler/models/lenet/torch-compile/addmm/addmm.py":6:0), %arg7: i32 loc("/home/meng/torch-compiler/models/lenet/torch-compile/addmm/addmm.py":6:0), %arg8: i32 loc("/home/meng/torch-compiler/models/lenet/torch-compile/addmm/addmm.py":6:0), %arg9: i32 loc("/home/meng/torch-compiler/models/lenet/torch-compile/addmm/addmm.py":6:0)) attributes {noinline = false} {
    %c32_i32 = arith.constant 32 : i32 loc(#loc1)
    %c0_i32 = arith.constant 0 : i32 loc(#loc1)
    %cst = arith.constant dense<32> : tensor<16x32xi32> loc(#loc2)
    %cst_0 = arith.constant dense<0.000000e+00> : tensor<16x128xf32> loc(#loc3)
    %cst_1 = arith.constant dense<0.000000e+00> : tensor<32x128xf32> loc(#loc4)
    %cst_2 = arith.constant dense<0.000000e+00> : tensor<16x32xf32> loc(#loc5)
    %cst_3 = arith.constant dense<1> : tensor<16x1xi32> loc(#loc6)
    %c128_i32 = arith.constant 128 : i32 loc(#loc7)
    %c16_i32 = arith.constant 16 : i32 loc(#loc8)
    %0 = tt.get_program_id x : i32 loc(#loc9)
    %1 = tt.get_program_id y : i32 loc(#loc10)
    %2 = arith.muli %0, %c16_i32 : i32 loc(#loc8)
    %3 = tt.make_range {end = 16 : i32, start = 0 : i32} : tensor<16xi32> loc(#loc11)
    %4 = tt.splat %2 : (i32) -> tensor<16xi32> loc(#loc12)
    %5 = arith.addi %4, %3 : tensor<16xi32> loc(#loc12)
    %6 = arith.muli %1, %c128_i32 : i32 loc(#loc7)
    %7 = tt.make_range {end = 128 : i32, start = 0 : i32} : tensor<128xi32> loc(#loc13)
    %8 = tt.splat %6 : (i32) -> tensor<128xi32> loc(#loc14)
    %9 = arith.addi %8, %7 : tensor<128xi32> loc(#loc14)
    %10 = tt.expand_dims %5 {axis = 1 : i32} : (tensor<16xi32>) -> tensor<16x1xi32> loc(#loc15)
    %11 = tt.splat %arg6 : (i32) -> tensor<16x1xi32> loc(#loc16)
    %12 = arith.muli %10, %11 : tensor<16x1xi32> loc(#loc16)
    %13 = tt.splat %arg0 : (!tt.ptr<f32, 1>) -> tensor<16x1x!tt.ptr<f32, 1>> loc(#loc17)
    %14 = tt.addptr %13, %12 : tensor<16x1x!tt.ptr<f32, 1>>, tensor<16x1xi32> loc(#loc17)
    %15 = tt.expand_dims %9 {axis = 0 : i32} : (tensor<128xi32>) -> tensor<1x128xi32> loc(#loc18)
    %16 = tt.broadcast %14 : (tensor<16x1x!tt.ptr<f32, 1>>) -> tensor<16x128x!tt.ptr<f32, 1>> loc(#loc19)
    %17 = tt.broadcast %15 : (tensor<1x128xi32>) -> tensor<16x128xi32> loc(#loc19)
    %18 = tt.addptr %16, %17 : tensor<16x128x!tt.ptr<f32, 1>>, tensor<16x128xi32> loc(#loc19)
    %19 = tt.expand_dims %5 {axis = 1 : i32} : (tensor<16xi32>) -> tensor<16x1xi32> loc(#loc20)
    %20 = tt.splat %arg7 : (i32) -> tensor<16x1xi32> loc(#loc21)
    %21 = arith.muli %19, %20 : tensor<16x1xi32> loc(#loc21)
    %22 = tt.splat %arg1 : (!tt.ptr<f32, 1>) -> tensor<16x1x!tt.ptr<f32, 1>> loc(#loc22)
    %23 = tt.addptr %22, %21 : tensor<16x1x!tt.ptr<f32, 1>>, tensor<16x1xi32> loc(#loc22)
    %24 = tt.make_range {end = 32 : i32, start = 0 : i32} : tensor<32xi32> loc(#loc23)
    %25 = tt.expand_dims %24 {axis = 0 : i32} : (tensor<32xi32>) -> tensor<1x32xi32> loc(#loc24)
    %26 = tt.broadcast %23 : (tensor<16x1x!tt.ptr<f32, 1>>) -> tensor<16x32x!tt.ptr<f32, 1>> loc(#loc25)
    %27 = tt.broadcast %25 : (tensor<1x32xi32>) -> tensor<16x32xi32> loc(#loc25)
    %28 = tt.addptr %26, %27 : tensor<16x32x!tt.ptr<f32, 1>>, tensor<16x32xi32> loc(#loc25)
    %29 = tt.make_range {end = 32 : i32, start = 0 : i32} : tensor<32xi32> loc(#loc26)
    %30 = tt.expand_dims %29 {axis = 1 : i32} : (tensor<32xi32>) -> tensor<32x1xi32> loc(#loc27)
    %31 = tt.splat %arg8 : (i32) -> tensor<32x1xi32> loc(#loc28)
    %32 = arith.muli %30, %31 : tensor<32x1xi32> loc(#loc28)
    %33 = tt.splat %arg2 : (!tt.ptr<f32, 1>) -> tensor<32x1x!tt.ptr<f32, 1>> loc(#loc29)
    %34 = tt.addptr %33, %32 : tensor<32x1x!tt.ptr<f32, 1>>, tensor<32x1xi32> loc(#loc29)
    %35 = tt.expand_dims %9 {axis = 0 : i32} : (tensor<128xi32>) -> tensor<1x128xi32> loc(#loc30)
    %36 = tt.broadcast %34 : (tensor<32x1x!tt.ptr<f32, 1>>) -> tensor<32x128x!tt.ptr<f32, 1>> loc(#loc31)
    %37 = tt.broadcast %35 : (tensor<1x128xi32>) -> tensor<32x128xi32> loc(#loc31)
    %38 = tt.addptr %36, %37 : tensor<32x128x!tt.ptr<f32, 1>>, tensor<32x128xi32> loc(#loc31)
    %39 = tt.expand_dims %5 {axis = 1 : i32} : (tensor<16xi32>) -> tensor<16x1xi32> loc(#loc32)
    %40 = tt.splat %arg9 : (i32) -> tensor<16x1xi32> loc(#loc33)
    %41 = arith.muli %39, %40 : tensor<16x1xi32> loc(#loc33)
    %42 = tt.splat %arg3 : (!tt.ptr<f32, 1>) -> tensor<16x1x!tt.ptr<f32, 1>> loc(#loc34)
    %43 = tt.addptr %42, %41 : tensor<16x1x!tt.ptr<f32, 1>>, tensor<16x1xi32> loc(#loc34)
    %44 = tt.expand_dims %9 {axis = 0 : i32} : (tensor<128xi32>) -> tensor<1x128xi32> loc(#loc35)
    %45 = tt.broadcast %43 : (tensor<16x1x!tt.ptr<f32, 1>>) -> tensor<16x128x!tt.ptr<f32, 1>> loc(#loc36)
    %46 = tt.broadcast %44 : (tensor<1x128xi32>) -> tensor<16x128xi32> loc(#loc36)
    %47 = tt.addptr %45, %46 : tensor<16x128x!tt.ptr<f32, 1>>, tensor<16x128xi32> loc(#loc36)
    %48:3 = scf.for %arg10 = %c0_i32 to %arg5 step %c32_i32 iter_args(%arg11 = %cst_0, %arg12 = %28, %arg13 = %38) -> (tensor<16x128xf32>, tensor<16x32x!tt.ptr<f32, 1>>, tensor<32x128x!tt.ptr<f32, 1>>)  : i32 {
      %67 = tt.expand_dims %5 {axis = 1 : i32} : (tensor<16xi32>) -> tensor<16x1xi32> loc(#loc37)
      %68 = arith.cmpi slt, %67, %cst_3 : tensor<16x1xi32> loc(#loc6)
      %69 = tt.make_range {end = 32 : i32, start = 0 : i32} : tensor<32xi32> loc(#loc38)
      %70 = tt.expand_dims %69 {axis = 0 : i32} : (tensor<32xi32>) -> tensor<1x32xi32> loc(#loc39)
      %71 = tt.splat %arg5 : (i32) -> tensor<1x32xi32> loc(#loc40)
      %72 = arith.cmpi slt, %70, %71 : tensor<1x32xi32> loc(#loc40)
      %73 = tt.broadcast %68 : (tensor<16x1xi1>) -> tensor<16x32xi1> loc(#loc41)
      %74 = tt.broadcast %72 : (tensor<1x32xi1>) -> tensor<16x32xi1> loc(#loc41)
      %75 = arith.andi %73, %74 : tensor<16x32xi1> loc(#loc41)
      %76 = tt.load %arg12, %75, %cst_2 {cache = 1 : i32, evict = 1 : i32, isVolatile = false} : tensor<16x32xf32> loc(#loc5)
      %77 = tt.make_range {end = 32 : i32, start = 0 : i32} : tensor<32xi32> loc(#loc42)
      %78 = tt.expand_dims %77 {axis = 1 : i32} : (tensor<32xi32>) -> tensor<32x1xi32> loc(#loc43)
      %79 = tt.splat %arg5 : (i32) -> tensor<32x1xi32> loc(#loc44)
      %80 = arith.cmpi slt, %78, %79 : tensor<32x1xi32> loc(#loc44)
      %81 = tt.expand_dims %9 {axis = 0 : i32} : (tensor<128xi32>) -> tensor<1x128xi32> loc(#loc45)
      %82 = tt.splat %arg4 : (i32) -> tensor<1x128xi32> loc(#loc46)
      %83 = arith.cmpi slt, %81, %82 : tensor<1x128xi32> loc(#loc46)
      %84 = tt.broadcast %80 : (tensor<32x1xi1>) -> tensor<32x128xi1> loc(#loc47)
      %85 = tt.broadcast %83 : (tensor<1x128xi1>) -> tensor<32x128xi1> loc(#loc47)
      %86 = arith.andi %84, %85 : tensor<32x128xi1> loc(#loc47)
      %87 = tt.load %arg13, %86, %cst_1 {cache = 1 : i32, evict = 1 : i32, isVolatile = false} : tensor<32x128xf32> loc(#loc4)
      %88 = tt.dot %76, %87, %cst_0 {allowTF32 = true, maxNumImpreciseAcc = 0 : i32} : tensor<16x32xf32> * tensor<32x128xf32> -> tensor<16x128xf32> loc(#loc3)
      %89 = arith.addf %arg11, %88 : tensor<16x128xf32> loc(#loc48)
      %90 = tt.addptr %arg12, %cst : tensor<16x32x!tt.ptr<f32, 1>>, tensor<16x32xi32> loc(#loc2)
      %91 = arith.muli %arg8, %c32_i32 : i32 loc(#loc49)
      %92 = tt.splat %91 : (i32) -> tensor<32x128xi32> loc(#loc50)
      %93 = tt.addptr %arg13, %92 : tensor<32x128x!tt.ptr<f32, 1>>, tensor<32x128xi32> loc(#loc50)
      scf.yield %89, %90, %93 : tensor<16x128xf32>, tensor<16x32x!tt.ptr<f32, 1>>, tensor<32x128x!tt.ptr<f32, 1>> loc(#loc51)
    } loc(#loc1)
    %49 = tt.expand_dims %5 {axis = 1 : i32} : (tensor<16xi32>) -> tensor<16x1xi32> loc(#loc52)
    %50 = arith.cmpi slt, %49, %cst_3 : tensor<16x1xi32> loc(#loc53)
    %51 = tt.expand_dims %9 {axis = 0 : i32} : (tensor<128xi32>) -> tensor<1x128xi32> loc(#loc54)
    %52 = tt.splat %arg4 : (i32) -> tensor<1x128xi32> loc(#loc55)
    %53 = arith.cmpi slt, %51, %52 : tensor<1x128xi32> loc(#loc55)
    %54 = tt.broadcast %50 : (tensor<16x1xi1>) -> tensor<16x128xi1> loc(#loc56)
    %55 = tt.broadcast %53 : (tensor<1x128xi1>) -> tensor<16x128xi1> loc(#loc56)
    %56 = arith.andi %54, %55 : tensor<16x128xi1> loc(#loc56)
    %57 = tt.load %18, %56, %cst_0 {cache = 1 : i32, evict = 1 : i32, isVolatile = false} : tensor<16x128xf32> loc(#loc57)
    %58 = arith.addf %48#0, %57 : tensor<16x128xf32> loc(#loc58)
    %59 = tt.expand_dims %5 {axis = 1 : i32} : (tensor<16xi32>) -> tensor<16x1xi32> loc(#loc59)
    %60 = arith.cmpi slt, %59, %cst_3 : tensor<16x1xi32> loc(#loc60)
    %61 = tt.expand_dims %9 {axis = 0 : i32} : (tensor<128xi32>) -> tensor<1x128xi32> loc(#loc61)
    %62 = tt.splat %arg4 : (i32) -> tensor<1x128xi32> loc(#loc62)
    %63 = arith.cmpi slt, %61, %62 : tensor<1x128xi32> loc(#loc62)
    %64 = tt.broadcast %60 : (tensor<16x1xi1>) -> tensor<16x128xi1> loc(#loc63)
    %65 = tt.broadcast %63 : (tensor<1x128xi1>) -> tensor<16x128xi1> loc(#loc63)
    %66 = arith.andi %64, %65 : tensor<16x128xi1> loc(#loc63)
    tt.store %47, %58, %66 {cache = 1 : i32, evict = 1 : i32} : tensor<16x128xf32> loc(#loc64)
    tt.return loc(#loc65)
  } loc(#loc)
} loc(#loc)
#loc1 = loc("/home/meng/torch-compiler/models/lenet/torch-compile/addmm/addmm.py":43:25)
#loc2 = loc("/home/meng/torch-compiler/models/lenet/torch-compile/addmm/addmm.py":47:13)
#loc3 = loc("/home/meng/torch-compiler/models/lenet/torch-compile/addmm/addmm.py":46:25)
#loc4 = loc("/home/meng/torch-compiler/models/lenet/torch-compile/addmm/addmm.py":45:20)
#loc5 = loc("/home/meng/torch-compiler/models/lenet/torch-compile/addmm/addmm.py":44:20)
#loc6 = loc("/home/meng/torch-compiler/models/lenet/torch-compile/addmm/addmm.py":44:43)
#loc7 = loc("/home/meng/torch-compiler/models/lenet/torch-compile/addmm/addmm.py":32:17)
#loc8 = loc("/home/meng/torch-compiler/models/lenet/torch-compile/addmm/addmm.py":31:17)
#loc9 = loc("/home/meng/torch-compiler/models/lenet/torch-compile/addmm/addmm.py":27:26)
#loc10 = loc("/home/meng/torch-compiler/models/lenet/torch-compile/addmm/addmm.py":28:26)
#loc11 = loc("/home/meng/torch-compiler/models/lenet/torch-compile/addmm/addmm.py":31:40)
#loc12 = loc("/home/meng/torch-compiler/models/lenet/torch-compile/addmm/addmm.py":31:27)
#loc13 = loc("/home/meng/torch-compiler/models/lenet/torch-compile/addmm/addmm.py":32:40)
#loc14 = loc("/home/meng/torch-compiler/models/lenet/torch-compile/addmm/addmm.py":32:27)
#loc15 = loc("/home/meng/torch-compiler/models/lenet/torch-compile/addmm/addmm.py":35:15)
#loc16 = loc("/home/meng/torch-compiler/models/lenet/torch-compile/addmm/addmm.py":35:26)
#loc17 = loc("/home/meng/torch-compiler/models/lenet/torch-compile/addmm/addmm.py":35:12)
#loc18 = loc("/home/meng/torch-compiler/models/lenet/torch-compile/addmm/addmm.py":35:41)
#loc19 = loc("/home/meng/torch-compiler/models/lenet/torch-compile/addmm/addmm.py":35:38)
#loc20 = loc("/home/meng/torch-compiler/models/lenet/torch-compile/addmm/addmm.py":36:15)
#loc21 = loc("/home/meng/torch-compiler/models/lenet/torch-compile/addmm/addmm.py":36:26)
#loc22 = loc("/home/meng/torch-compiler/models/lenet/torch-compile/addmm/addmm.py":36:12)
#loc23 = loc("/home/meng/torch-compiler/models/lenet/torch-compile/addmm/addmm.py":36:51)
#loc24 = loc("/home/meng/torch-compiler/models/lenet/torch-compile/addmm/addmm.py":36:60)
#loc25 = loc("/home/meng/torch-compiler/models/lenet/torch-compile/addmm/addmm.py":36:38)
#loc26 = loc("/home/meng/torch-compiler/models/lenet/torch-compile/addmm/addmm.py":37:25)
#loc27 = loc("/home/meng/torch-compiler/models/lenet/torch-compile/addmm/addmm.py":37:34)
#loc28 = loc("/home/meng/torch-compiler/models/lenet/torch-compile/addmm/addmm.py":37:45)
#loc29 = loc("/home/meng/torch-compiler/models/lenet/torch-compile/addmm/addmm.py":37:12)
#loc30 = loc("/home/meng/torch-compiler/models/lenet/torch-compile/addmm/addmm.py":37:60)
#loc31 = loc("/home/meng/torch-compiler/models/lenet/torch-compile/addmm/addmm.py":37:57)
#loc32 = loc("/home/meng/torch-compiler/models/lenet/torch-compile/addmm/addmm.py":38:15)
#loc33 = loc("/home/meng/torch-compiler/models/lenet/torch-compile/addmm/addmm.py":38:26)
#loc34 = loc("/home/meng/torch-compiler/models/lenet/torch-compile/addmm/addmm.py":38:12)
#loc35 = loc("/home/meng/torch-compiler/models/lenet/torch-compile/addmm/addmm.py":38:41)
#loc36 = loc("/home/meng/torch-compiler/models/lenet/torch-compile/addmm/addmm.py":38:38)
#loc37 = loc("/home/meng/torch-compiler/models/lenet/torch-compile/addmm/addmm.py":44:32)
#loc38 = loc("/home/meng/torch-compiler/models/lenet/torch-compile/addmm/addmm.py":44:62)
#loc39 = loc("/home/meng/torch-compiler/models/lenet/torch-compile/addmm/addmm.py":44:71)
#loc40 = loc("/home/meng/torch-compiler/models/lenet/torch-compile/addmm/addmm.py":44:82)
#loc41 = loc("/home/meng/torch-compiler/models/lenet/torch-compile/addmm/addmm.py":44:49)
#loc42 = loc("/home/meng/torch-compiler/models/lenet/torch-compile/addmm/addmm.py":45:42)
#loc43 = loc("/home/meng/torch-compiler/models/lenet/torch-compile/addmm/addmm.py":45:51)
#loc44 = loc("/home/meng/torch-compiler/models/lenet/torch-compile/addmm/addmm.py":45:62)
#loc45 = loc("/home/meng/torch-compiler/models/lenet/torch-compile/addmm/addmm.py":45:71)
#loc46 = loc("/home/meng/torch-compiler/models/lenet/torch-compile/addmm/addmm.py":45:82)
#loc47 = loc("/home/meng/torch-compiler/models/lenet/torch-compile/addmm/addmm.py":45:68)
#loc48 = loc("/home/meng/torch-compiler/models/lenet/torch-compile/addmm/addmm.py":46:15)
#loc49 = loc("/home/meng/torch-compiler/models/lenet/torch-compile/addmm/addmm.py":48:23)
#loc50 = loc("/home/meng/torch-compiler/models/lenet/torch-compile/addmm/addmm.py":48:13)
#loc51 = loc("/home/meng/torch-compiler/models/lenet/torch-compile/addmm/addmm.py":48:8)
#loc52 = loc("/home/meng/torch-compiler/models/lenet/torch-compile/addmm/addmm.py":51:28)
#loc53 = loc("/home/meng/torch-compiler/models/lenet/torch-compile/addmm/addmm.py":51:39)
#loc54 = loc("/home/meng/torch-compiler/models/lenet/torch-compile/addmm/addmm.py":51:48)
#loc55 = loc("/home/meng/torch-compiler/models/lenet/torch-compile/addmm/addmm.py":51:59)
#loc56 = loc("/home/meng/torch-compiler/models/lenet/torch-compile/addmm/addmm.py":51:45)
#loc57 = loc("/home/meng/torch-compiler/models/lenet/torch-compile/addmm/addmm.py":51:16)
#loc58 = loc("/home/meng/torch-compiler/models/lenet/torch-compile/addmm/addmm.py":52:11)
#loc59 = loc("/home/meng/torch-compiler/models/lenet/torch-compile/addmm/addmm.py":55:30)
#loc60 = loc("/home/meng/torch-compiler/models/lenet/torch-compile/addmm/addmm.py":55:41)
#loc61 = loc("/home/meng/torch-compiler/models/lenet/torch-compile/addmm/addmm.py":55:50)
#loc62 = loc("/home/meng/torch-compiler/models/lenet/torch-compile/addmm/addmm.py":55:61)
#loc63 = loc("/home/meng/torch-compiler/models/lenet/torch-compile/addmm/addmm.py":55:47)
#loc64 = loc("/home/meng/torch-compiler/models/lenet/torch-compile/addmm/addmm.py":55:16)
#loc65 = loc("/home/meng/torch-compiler/models/lenet/torch-compile/addmm/addmm.py":55:4)


// -----// IR Dump Before Inliner (inline) ('builtin.module' operation) //----- //
#loc = loc("/home/meng/torch-compiler/models/lenet/torch-compile/addmm/addmm.py":6:0)
module {
  tt.func public @addmm_kernel_0d1d2d3d4c5678c910c1112c1314c(%arg0: !tt.ptr<f32, 1> {tt.divisibility = 16 : i32} loc("/home/meng/torch-compiler/models/lenet/torch-compile/addmm/addmm.py":6:0), %arg1: !tt.ptr<f32, 1> {tt.divisibility = 16 : i32} loc("/home/meng/torch-compiler/models/lenet/torch-compile/addmm/addmm.py":6:0), %arg2: !tt.ptr<f32, 1> {tt.divisibility = 16 : i32} loc("/home/meng/torch-compiler/models/lenet/torch-compile/addmm/addmm.py":6:0), %arg3: !tt.ptr<f32, 1> {tt.divisibility = 16 : i32} loc("/home/meng/torch-compiler/models/lenet/torch-compile/addmm/addmm.py":6:0), %arg4: i32 loc("/home/meng/torch-compiler/models/lenet/torch-compile/addmm/addmm.py":6:0), %arg5: i32 loc("/home/meng/torch-compiler/models/lenet/torch-compile/addmm/addmm.py":6:0), %arg6: i32 loc("/home/meng/torch-compiler/models/lenet/torch-compile/addmm/addmm.py":6:0), %arg7: i32 loc("/home/meng/torch-compiler/models/lenet/torch-compile/addmm/addmm.py":6:0), %arg8: i32 loc("/home/meng/torch-compiler/models/lenet/torch-compile/addmm/addmm.py":6:0), %arg9: i32 loc("/home/meng/torch-compiler/models/lenet/torch-compile/addmm/addmm.py":6:0)) attributes {noinline = false} {
    %c32_i32 = arith.constant 32 : i32 loc(#loc1)
    %c0_i32 = arith.constant 0 : i32 loc(#loc1)
    %cst = arith.constant dense<32> : tensor<16x32xi32> loc(#loc2)
    %cst_0 = arith.constant dense<0.000000e+00> : tensor<16x128xf32> loc(#loc3)
    %cst_1 = arith.constant dense<0.000000e+00> : tensor<32x128xf32> loc(#loc4)
    %cst_2 = arith.constant dense<0.000000e+00> : tensor<16x32xf32> loc(#loc5)
    %cst_3 = arith.constant dense<1> : tensor<16x1xi32> loc(#loc6)
    %c128_i32 = arith.constant 128 : i32 loc(#loc7)
    %c16_i32 = arith.constant 16 : i32 loc(#loc8)
    %0 = tt.get_program_id x : i32 loc(#loc9)
    %1 = tt.get_program_id y : i32 loc(#loc10)
    %2 = arith.muli %0, %c16_i32 : i32 loc(#loc8)
    %3 = tt.make_range {end = 16 : i32, start = 0 : i32} : tensor<16xi32> loc(#loc11)
    %4 = tt.splat %2 : (i32) -> tensor<16xi32> loc(#loc12)
    %5 = arith.addi %4, %3 : tensor<16xi32> loc(#loc12)
    %6 = arith.muli %1, %c128_i32 : i32 loc(#loc7)
    %7 = tt.make_range {end = 128 : i32, start = 0 : i32} : tensor<128xi32> loc(#loc13)
    %8 = tt.splat %6 : (i32) -> tensor<128xi32> loc(#loc14)
    %9 = arith.addi %8, %7 : tensor<128xi32> loc(#loc14)
    %10 = tt.expand_dims %5 {axis = 1 : i32} : (tensor<16xi32>) -> tensor<16x1xi32> loc(#loc15)
    %11 = tt.splat %arg6 : (i32) -> tensor<16x1xi32> loc(#loc16)
    %12 = arith.muli %10, %11 : tensor<16x1xi32> loc(#loc16)
    %13 = tt.splat %arg0 : (!tt.ptr<f32, 1>) -> tensor<16x1x!tt.ptr<f32, 1>> loc(#loc17)
    %14 = tt.addptr %13, %12 : tensor<16x1x!tt.ptr<f32, 1>>, tensor<16x1xi32> loc(#loc17)
    %15 = tt.expand_dims %9 {axis = 0 : i32} : (tensor<128xi32>) -> tensor<1x128xi32> loc(#loc18)
    %16 = tt.broadcast %14 : (tensor<16x1x!tt.ptr<f32, 1>>) -> tensor<16x128x!tt.ptr<f32, 1>> loc(#loc19)
    %17 = tt.broadcast %15 : (tensor<1x128xi32>) -> tensor<16x128xi32> loc(#loc19)
    %18 = tt.addptr %16, %17 : tensor<16x128x!tt.ptr<f32, 1>>, tensor<16x128xi32> loc(#loc19)
    %19 = tt.expand_dims %5 {axis = 1 : i32} : (tensor<16xi32>) -> tensor<16x1xi32> loc(#loc20)
    %20 = tt.splat %arg7 : (i32) -> tensor<16x1xi32> loc(#loc21)
    %21 = arith.muli %19, %20 : tensor<16x1xi32> loc(#loc21)
    %22 = tt.splat %arg1 : (!tt.ptr<f32, 1>) -> tensor<16x1x!tt.ptr<f32, 1>> loc(#loc22)
    %23 = tt.addptr %22, %21 : tensor<16x1x!tt.ptr<f32, 1>>, tensor<16x1xi32> loc(#loc22)
    %24 = tt.make_range {end = 32 : i32, start = 0 : i32} : tensor<32xi32> loc(#loc23)
    %25 = tt.expand_dims %24 {axis = 0 : i32} : (tensor<32xi32>) -> tensor<1x32xi32> loc(#loc24)
    %26 = tt.broadcast %23 : (tensor<16x1x!tt.ptr<f32, 1>>) -> tensor<16x32x!tt.ptr<f32, 1>> loc(#loc25)
    %27 = tt.broadcast %25 : (tensor<1x32xi32>) -> tensor<16x32xi32> loc(#loc25)
    %28 = tt.addptr %26, %27 : tensor<16x32x!tt.ptr<f32, 1>>, tensor<16x32xi32> loc(#loc25)
    %29 = tt.make_range {end = 32 : i32, start = 0 : i32} : tensor<32xi32> loc(#loc26)
    %30 = tt.expand_dims %29 {axis = 1 : i32} : (tensor<32xi32>) -> tensor<32x1xi32> loc(#loc27)
    %31 = tt.splat %arg8 : (i32) -> tensor<32x1xi32> loc(#loc28)
    %32 = arith.muli %30, %31 : tensor<32x1xi32> loc(#loc28)
    %33 = tt.splat %arg2 : (!tt.ptr<f32, 1>) -> tensor<32x1x!tt.ptr<f32, 1>> loc(#loc29)
    %34 = tt.addptr %33, %32 : tensor<32x1x!tt.ptr<f32, 1>>, tensor<32x1xi32> loc(#loc29)
    %35 = tt.expand_dims %9 {axis = 0 : i32} : (tensor<128xi32>) -> tensor<1x128xi32> loc(#loc30)
    %36 = tt.broadcast %34 : (tensor<32x1x!tt.ptr<f32, 1>>) -> tensor<32x128x!tt.ptr<f32, 1>> loc(#loc31)
    %37 = tt.broadcast %35 : (tensor<1x128xi32>) -> tensor<32x128xi32> loc(#loc31)
    %38 = tt.addptr %36, %37 : tensor<32x128x!tt.ptr<f32, 1>>, tensor<32x128xi32> loc(#loc31)
    %39 = tt.expand_dims %5 {axis = 1 : i32} : (tensor<16xi32>) -> tensor<16x1xi32> loc(#loc32)
    %40 = tt.splat %arg9 : (i32) -> tensor<16x1xi32> loc(#loc33)
    %41 = arith.muli %39, %40 : tensor<16x1xi32> loc(#loc33)
    %42 = tt.splat %arg3 : (!tt.ptr<f32, 1>) -> tensor<16x1x!tt.ptr<f32, 1>> loc(#loc34)
    %43 = tt.addptr %42, %41 : tensor<16x1x!tt.ptr<f32, 1>>, tensor<16x1xi32> loc(#loc34)
    %44 = tt.expand_dims %9 {axis = 0 : i32} : (tensor<128xi32>) -> tensor<1x128xi32> loc(#loc35)
    %45 = tt.broadcast %43 : (tensor<16x1x!tt.ptr<f32, 1>>) -> tensor<16x128x!tt.ptr<f32, 1>> loc(#loc36)
    %46 = tt.broadcast %44 : (tensor<1x128xi32>) -> tensor<16x128xi32> loc(#loc36)
    %47 = tt.addptr %45, %46 : tensor<16x128x!tt.ptr<f32, 1>>, tensor<16x128xi32> loc(#loc36)
    %48:3 = scf.for %arg10 = %c0_i32 to %arg5 step %c32_i32 iter_args(%arg11 = %cst_0, %arg12 = %28, %arg13 = %38) -> (tensor<16x128xf32>, tensor<16x32x!tt.ptr<f32, 1>>, tensor<32x128x!tt.ptr<f32, 1>>)  : i32 {
      %67 = tt.expand_dims %5 {axis = 1 : i32} : (tensor<16xi32>) -> tensor<16x1xi32> loc(#loc37)
      %68 = arith.cmpi slt, %67, %cst_3 : tensor<16x1xi32> loc(#loc6)
      %69 = tt.make_range {end = 32 : i32, start = 0 : i32} : tensor<32xi32> loc(#loc38)
      %70 = tt.expand_dims %69 {axis = 0 : i32} : (tensor<32xi32>) -> tensor<1x32xi32> loc(#loc39)
      %71 = tt.splat %arg5 : (i32) -> tensor<1x32xi32> loc(#loc40)
      %72 = arith.cmpi slt, %70, %71 : tensor<1x32xi32> loc(#loc40)
      %73 = tt.broadcast %68 : (tensor<16x1xi1>) -> tensor<16x32xi1> loc(#loc41)
      %74 = tt.broadcast %72 : (tensor<1x32xi1>) -> tensor<16x32xi1> loc(#loc41)
      %75 = arith.andi %73, %74 : tensor<16x32xi1> loc(#loc41)
      %76 = tt.load %arg12, %75, %cst_2 {cache = 1 : i32, evict = 1 : i32, isVolatile = false} : tensor<16x32xf32> loc(#loc5)
      %77 = tt.make_range {end = 32 : i32, start = 0 : i32} : tensor<32xi32> loc(#loc42)
      %78 = tt.expand_dims %77 {axis = 1 : i32} : (tensor<32xi32>) -> tensor<32x1xi32> loc(#loc43)
      %79 = tt.splat %arg5 : (i32) -> tensor<32x1xi32> loc(#loc44)
      %80 = arith.cmpi slt, %78, %79 : tensor<32x1xi32> loc(#loc44)
      %81 = tt.expand_dims %9 {axis = 0 : i32} : (tensor<128xi32>) -> tensor<1x128xi32> loc(#loc45)
      %82 = tt.splat %arg4 : (i32) -> tensor<1x128xi32> loc(#loc46)
      %83 = arith.cmpi slt, %81, %82 : tensor<1x128xi32> loc(#loc46)
      %84 = tt.broadcast %80 : (tensor<32x1xi1>) -> tensor<32x128xi1> loc(#loc47)
      %85 = tt.broadcast %83 : (tensor<1x128xi1>) -> tensor<32x128xi1> loc(#loc47)
      %86 = arith.andi %84, %85 : tensor<32x128xi1> loc(#loc47)
      %87 = tt.load %arg13, %86, %cst_1 {cache = 1 : i32, evict = 1 : i32, isVolatile = false} : tensor<32x128xf32> loc(#loc4)
      %88 = tt.dot %76, %87, %cst_0 {allowTF32 = true, maxNumImpreciseAcc = 0 : i32} : tensor<16x32xf32> * tensor<32x128xf32> -> tensor<16x128xf32> loc(#loc3)
      %89 = arith.addf %arg11, %88 : tensor<16x128xf32> loc(#loc48)
      %90 = tt.addptr %arg12, %cst : tensor<16x32x!tt.ptr<f32, 1>>, tensor<16x32xi32> loc(#loc2)
      %91 = arith.muli %arg8, %c32_i32 : i32 loc(#loc49)
      %92 = tt.splat %91 : (i32) -> tensor<32x128xi32> loc(#loc50)
      %93 = tt.addptr %arg13, %92 : tensor<32x128x!tt.ptr<f32, 1>>, tensor<32x128xi32> loc(#loc50)
      scf.yield %89, %90, %93 : tensor<16x128xf32>, tensor<16x32x!tt.ptr<f32, 1>>, tensor<32x128x!tt.ptr<f32, 1>> loc(#loc51)
    } loc(#loc1)
    %49 = tt.expand_dims %5 {axis = 1 : i32} : (tensor<16xi32>) -> tensor<16x1xi32> loc(#loc52)
    %50 = arith.cmpi slt, %49, %cst_3 : tensor<16x1xi32> loc(#loc53)
    %51 = tt.expand_dims %9 {axis = 0 : i32} : (tensor<128xi32>) -> tensor<1x128xi32> loc(#loc54)
    %52 = tt.splat %arg4 : (i32) -> tensor<1x128xi32> loc(#loc55)
    %53 = arith.cmpi slt, %51, %52 : tensor<1x128xi32> loc(#loc55)
    %54 = tt.broadcast %50 : (tensor<16x1xi1>) -> tensor<16x128xi1> loc(#loc56)
    %55 = tt.broadcast %53 : (tensor<1x128xi1>) -> tensor<16x128xi1> loc(#loc56)
    %56 = arith.andi %54, %55 : tensor<16x128xi1> loc(#loc56)
    %57 = tt.load %18, %56, %cst_0 {cache = 1 : i32, evict = 1 : i32, isVolatile = false} : tensor<16x128xf32> loc(#loc57)
    %58 = arith.addf %48#0, %57 : tensor<16x128xf32> loc(#loc58)
    %59 = tt.expand_dims %5 {axis = 1 : i32} : (tensor<16xi32>) -> tensor<16x1xi32> loc(#loc59)
    %60 = arith.cmpi slt, %59, %cst_3 : tensor<16x1xi32> loc(#loc60)
    %61 = tt.expand_dims %9 {axis = 0 : i32} : (tensor<128xi32>) -> tensor<1x128xi32> loc(#loc61)
    %62 = tt.splat %arg4 : (i32) -> tensor<1x128xi32> loc(#loc62)
    %63 = arith.cmpi slt, %61, %62 : tensor<1x128xi32> loc(#loc62)
    %64 = tt.broadcast %60 : (tensor<16x1xi1>) -> tensor<16x128xi1> loc(#loc63)
    %65 = tt.broadcast %63 : (tensor<1x128xi1>) -> tensor<16x128xi1> loc(#loc63)
    %66 = arith.andi %64, %65 : tensor<16x128xi1> loc(#loc63)
    tt.store %47, %58, %66 {cache = 1 : i32, evict = 1 : i32} : tensor<16x128xf32> loc(#loc64)
    tt.return loc(#loc65)
  } loc(#loc)
} loc(#loc)
#loc1 = loc("/home/meng/torch-compiler/models/lenet/torch-compile/addmm/addmm.py":43:25)
#loc2 = loc("/home/meng/torch-compiler/models/lenet/torch-compile/addmm/addmm.py":47:13)
#loc3 = loc("/home/meng/torch-compiler/models/lenet/torch-compile/addmm/addmm.py":46:25)
#loc4 = loc("/home/meng/torch-compiler/models/lenet/torch-compile/addmm/addmm.py":45:20)
#loc5 = loc("/home/meng/torch-compiler/models/lenet/torch-compile/addmm/addmm.py":44:20)
#loc6 = loc("/home/meng/torch-compiler/models/lenet/torch-compile/addmm/addmm.py":44:43)
#loc7 = loc("/home/meng/torch-compiler/models/lenet/torch-compile/addmm/addmm.py":32:17)
#loc8 = loc("/home/meng/torch-compiler/models/lenet/torch-compile/addmm/addmm.py":31:17)
#loc9 = loc("/home/meng/torch-compiler/models/lenet/torch-compile/addmm/addmm.py":27:26)
#loc10 = loc("/home/meng/torch-compiler/models/lenet/torch-compile/addmm/addmm.py":28:26)
#loc11 = loc("/home/meng/torch-compiler/models/lenet/torch-compile/addmm/addmm.py":31:40)
#loc12 = loc("/home/meng/torch-compiler/models/lenet/torch-compile/addmm/addmm.py":31:27)
#loc13 = loc("/home/meng/torch-compiler/models/lenet/torch-compile/addmm/addmm.py":32:40)
#loc14 = loc("/home/meng/torch-compiler/models/lenet/torch-compile/addmm/addmm.py":32:27)
#loc15 = loc("/home/meng/torch-compiler/models/lenet/torch-compile/addmm/addmm.py":35:15)
#loc16 = loc("/home/meng/torch-compiler/models/lenet/torch-compile/addmm/addmm.py":35:26)
#loc17 = loc("/home/meng/torch-compiler/models/lenet/torch-compile/addmm/addmm.py":35:12)
#loc18 = loc("/home/meng/torch-compiler/models/lenet/torch-compile/addmm/addmm.py":35:41)
#loc19 = loc("/home/meng/torch-compiler/models/lenet/torch-compile/addmm/addmm.py":35:38)
#loc20 = loc("/home/meng/torch-compiler/models/lenet/torch-compile/addmm/addmm.py":36:15)
#loc21 = loc("/home/meng/torch-compiler/models/lenet/torch-compile/addmm/addmm.py":36:26)
#loc22 = loc("/home/meng/torch-compiler/models/lenet/torch-compile/addmm/addmm.py":36:12)
#loc23 = loc("/home/meng/torch-compiler/models/lenet/torch-compile/addmm/addmm.py":36:51)
#loc24 = loc("/home/meng/torch-compiler/models/lenet/torch-compile/addmm/addmm.py":36:60)
#loc25 = loc("/home/meng/torch-compiler/models/lenet/torch-compile/addmm/addmm.py":36:38)
#loc26 = loc("/home/meng/torch-compiler/models/lenet/torch-compile/addmm/addmm.py":37:25)
#loc27 = loc("/home/meng/torch-compiler/models/lenet/torch-compile/addmm/addmm.py":37:34)
#loc28 = loc("/home/meng/torch-compiler/models/lenet/torch-compile/addmm/addmm.py":37:45)
#loc29 = loc("/home/meng/torch-compiler/models/lenet/torch-compile/addmm/addmm.py":37:12)
#loc30 = loc("/home/meng/torch-compiler/models/lenet/torch-compile/addmm/addmm.py":37:60)
#loc31 = loc("/home/meng/torch-compiler/models/lenet/torch-compile/addmm/addmm.py":37:57)
#loc32 = loc("/home/meng/torch-compiler/models/lenet/torch-compile/addmm/addmm.py":38:15)
#loc33 = loc("/home/meng/torch-compiler/models/lenet/torch-compile/addmm/addmm.py":38:26)
#loc34 = loc("/home/meng/torch-compiler/models/lenet/torch-compile/addmm/addmm.py":38:12)
#loc35 = loc("/home/meng/torch-compiler/models/lenet/torch-compile/addmm/addmm.py":38:41)
#loc36 = loc("/home/meng/torch-compiler/models/lenet/torch-compile/addmm/addmm.py":38:38)
#loc37 = loc("/home/meng/torch-compiler/models/lenet/torch-compile/addmm/addmm.py":44:32)
#loc38 = loc("/home/meng/torch-compiler/models/lenet/torch-compile/addmm/addmm.py":44:62)
#loc39 = loc("/home/meng/torch-compiler/models/lenet/torch-compile/addmm/addmm.py":44:71)
#loc40 = loc("/home/meng/torch-compiler/models/lenet/torch-compile/addmm/addmm.py":44:82)
#loc41 = loc("/home/meng/torch-compiler/models/lenet/torch-compile/addmm/addmm.py":44:49)
#loc42 = loc("/home/meng/torch-compiler/models/lenet/torch-compile/addmm/addmm.py":45:42)
#loc43 = loc("/home/meng/torch-compiler/models/lenet/torch-compile/addmm/addmm.py":45:51)
#loc44 = loc("/home/meng/torch-compiler/models/lenet/torch-compile/addmm/addmm.py":45:62)
#loc45 = loc("/home/meng/torch-compiler/models/lenet/torch-compile/addmm/addmm.py":45:71)
#loc46 = loc("/home/meng/torch-compiler/models/lenet/torch-compile/addmm/addmm.py":45:82)
#loc47 = loc("/home/meng/torch-compiler/models/lenet/torch-compile/addmm/addmm.py":45:68)
#loc48 = loc("/home/meng/torch-compiler/models/lenet/torch-compile/addmm/addmm.py":46:15)
#loc49 = loc("/home/meng/torch-compiler/models/lenet/torch-compile/addmm/addmm.py":48:23)
#loc50 = loc("/home/meng/torch-compiler/models/lenet/torch-compile/addmm/addmm.py":48:13)
#loc51 = loc("/home/meng/torch-compiler/models/lenet/torch-compile/addmm/addmm.py":48:8)
#loc52 = loc("/home/meng/torch-compiler/models/lenet/torch-compile/addmm/addmm.py":51:28)
#loc53 = loc("/home/meng/torch-compiler/models/lenet/torch-compile/addmm/addmm.py":51:39)
#loc54 = loc("/home/meng/torch-compiler/models/lenet/torch-compile/addmm/addmm.py":51:48)
#loc55 = loc("/home/meng/torch-compiler/models/lenet/torch-compile/addmm/addmm.py":51:59)
#loc56 = loc("/home/meng/torch-compiler/models/lenet/torch-compile/addmm/addmm.py":51:45)
#loc57 = loc("/home/meng/torch-compiler/models/lenet/torch-compile/addmm/addmm.py":51:16)
#loc58 = loc("/home/meng/torch-compiler/models/lenet/torch-compile/addmm/addmm.py":52:11)
#loc59 = loc("/home/meng/torch-compiler/models/lenet/torch-compile/addmm/addmm.py":55:30)
#loc60 = loc("/home/meng/torch-compiler/models/lenet/torch-compile/addmm/addmm.py":55:41)
#loc61 = loc("/home/meng/torch-compiler/models/lenet/torch-compile/addmm/addmm.py":55:50)
#loc62 = loc("/home/meng/torch-compiler/models/lenet/torch-compile/addmm/addmm.py":55:61)
#loc63 = loc("/home/meng/torch-compiler/models/lenet/torch-compile/addmm/addmm.py":55:47)
#loc64 = loc("/home/meng/torch-compiler/models/lenet/torch-compile/addmm/addmm.py":55:16)
#loc65 = loc("/home/meng/torch-compiler/models/lenet/torch-compile/addmm/addmm.py":55:4)


// -----// IR Dump Before Canonicalizer (canonicalize) ('tt.func' operation: @addmm_kernel_0d1d2d3d4c5678c910c1112c1314c) //----- //
#loc = loc("/home/meng/torch-compiler/models/lenet/torch-compile/addmm/addmm.py":6:0)
module {
  tt.func public @addmm_kernel_0d1d2d3d4c5678c910c1112c1314c(%arg0: !tt.ptr<f32, 1> {tt.divisibility = 16 : i32} loc("/home/meng/torch-compiler/models/lenet/torch-compile/addmm/addmm.py":6:0), %arg1: !tt.ptr<f32, 1> {tt.divisibility = 16 : i32} loc("/home/meng/torch-compiler/models/lenet/torch-compile/addmm/addmm.py":6:0), %arg2: !tt.ptr<f32, 1> {tt.divisibility = 16 : i32} loc("/home/meng/torch-compiler/models/lenet/torch-compile/addmm/addmm.py":6:0), %arg3: !tt.ptr<f32, 1> {tt.divisibility = 16 : i32} loc("/home/meng/torch-compiler/models/lenet/torch-compile/addmm/addmm.py":6:0), %arg4: i32 loc("/home/meng/torch-compiler/models/lenet/torch-compile/addmm/addmm.py":6:0), %arg5: i32 loc("/home/meng/torch-compiler/models/lenet/torch-compile/addmm/addmm.py":6:0), %arg6: i32 loc("/home/meng/torch-compiler/models/lenet/torch-compile/addmm/addmm.py":6:0), %arg7: i32 loc("/home/meng/torch-compiler/models/lenet/torch-compile/addmm/addmm.py":6:0), %arg8: i32 loc("/home/meng/torch-compiler/models/lenet/torch-compile/addmm/addmm.py":6:0), %arg9: i32 loc("/home/meng/torch-compiler/models/lenet/torch-compile/addmm/addmm.py":6:0)) attributes {noinline = false} {
    %c32_i32 = arith.constant 32 : i32 loc(#loc1)
    %c0_i32 = arith.constant 0 : i32 loc(#loc1)
    %cst = arith.constant dense<32> : tensor<16x32xi32> loc(#loc2)
    %cst_0 = arith.constant dense<0.000000e+00> : tensor<16x128xf32> loc(#loc3)
    %cst_1 = arith.constant dense<0.000000e+00> : tensor<32x128xf32> loc(#loc4)
    %cst_2 = arith.constant dense<0.000000e+00> : tensor<16x32xf32> loc(#loc5)
    %cst_3 = arith.constant dense<1> : tensor<16x1xi32> loc(#loc6)
    %c128_i32 = arith.constant 128 : i32 loc(#loc7)
    %c16_i32 = arith.constant 16 : i32 loc(#loc8)
    %0 = tt.get_program_id x : i32 loc(#loc9)
    %1 = tt.get_program_id y : i32 loc(#loc10)
    %2 = arith.muli %0, %c16_i32 : i32 loc(#loc8)
    %3 = tt.make_range {end = 16 : i32, start = 0 : i32} : tensor<16xi32> loc(#loc11)
    %4 = tt.splat %2 : (i32) -> tensor<16xi32> loc(#loc12)
    %5 = arith.addi %4, %3 : tensor<16xi32> loc(#loc12)
    %6 = arith.muli %1, %c128_i32 : i32 loc(#loc7)
    %7 = tt.make_range {end = 128 : i32, start = 0 : i32} : tensor<128xi32> loc(#loc13)
    %8 = tt.splat %6 : (i32) -> tensor<128xi32> loc(#loc14)
    %9 = arith.addi %8, %7 : tensor<128xi32> loc(#loc14)
    %10 = tt.expand_dims %5 {axis = 1 : i32} : (tensor<16xi32>) -> tensor<16x1xi32> loc(#loc15)
    %11 = tt.splat %arg6 : (i32) -> tensor<16x1xi32> loc(#loc16)
    %12 = arith.muli %10, %11 : tensor<16x1xi32> loc(#loc16)
    %13 = tt.splat %arg0 : (!tt.ptr<f32, 1>) -> tensor<16x1x!tt.ptr<f32, 1>> loc(#loc17)
    %14 = tt.addptr %13, %12 : tensor<16x1x!tt.ptr<f32, 1>>, tensor<16x1xi32> loc(#loc17)
    %15 = tt.expand_dims %9 {axis = 0 : i32} : (tensor<128xi32>) -> tensor<1x128xi32> loc(#loc18)
    %16 = tt.broadcast %14 : (tensor<16x1x!tt.ptr<f32, 1>>) -> tensor<16x128x!tt.ptr<f32, 1>> loc(#loc19)
    %17 = tt.broadcast %15 : (tensor<1x128xi32>) -> tensor<16x128xi32> loc(#loc19)
    %18 = tt.addptr %16, %17 : tensor<16x128x!tt.ptr<f32, 1>>, tensor<16x128xi32> loc(#loc19)
    %19 = tt.expand_dims %5 {axis = 1 : i32} : (tensor<16xi32>) -> tensor<16x1xi32> loc(#loc20)
    %20 = tt.splat %arg7 : (i32) -> tensor<16x1xi32> loc(#loc21)
    %21 = arith.muli %19, %20 : tensor<16x1xi32> loc(#loc21)
    %22 = tt.splat %arg1 : (!tt.ptr<f32, 1>) -> tensor<16x1x!tt.ptr<f32, 1>> loc(#loc22)
    %23 = tt.addptr %22, %21 : tensor<16x1x!tt.ptr<f32, 1>>, tensor<16x1xi32> loc(#loc22)
    %24 = tt.make_range {end = 32 : i32, start = 0 : i32} : tensor<32xi32> loc(#loc23)
    %25 = tt.expand_dims %24 {axis = 0 : i32} : (tensor<32xi32>) -> tensor<1x32xi32> loc(#loc24)
    %26 = tt.broadcast %23 : (tensor<16x1x!tt.ptr<f32, 1>>) -> tensor<16x32x!tt.ptr<f32, 1>> loc(#loc25)
    %27 = tt.broadcast %25 : (tensor<1x32xi32>) -> tensor<16x32xi32> loc(#loc25)
    %28 = tt.addptr %26, %27 : tensor<16x32x!tt.ptr<f32, 1>>, tensor<16x32xi32> loc(#loc25)
    %29 = tt.make_range {end = 32 : i32, start = 0 : i32} : tensor<32xi32> loc(#loc26)
    %30 = tt.expand_dims %29 {axis = 1 : i32} : (tensor<32xi32>) -> tensor<32x1xi32> loc(#loc27)
    %31 = tt.splat %arg8 : (i32) -> tensor<32x1xi32> loc(#loc28)
    %32 = arith.muli %30, %31 : tensor<32x1xi32> loc(#loc28)
    %33 = tt.splat %arg2 : (!tt.ptr<f32, 1>) -> tensor<32x1x!tt.ptr<f32, 1>> loc(#loc29)
    %34 = tt.addptr %33, %32 : tensor<32x1x!tt.ptr<f32, 1>>, tensor<32x1xi32> loc(#loc29)
    %35 = tt.expand_dims %9 {axis = 0 : i32} : (tensor<128xi32>) -> tensor<1x128xi32> loc(#loc30)
    %36 = tt.broadcast %34 : (tensor<32x1x!tt.ptr<f32, 1>>) -> tensor<32x128x!tt.ptr<f32, 1>> loc(#loc31)
    %37 = tt.broadcast %35 : (tensor<1x128xi32>) -> tensor<32x128xi32> loc(#loc31)
    %38 = tt.addptr %36, %37 : tensor<32x128x!tt.ptr<f32, 1>>, tensor<32x128xi32> loc(#loc31)
    %39 = tt.expand_dims %5 {axis = 1 : i32} : (tensor<16xi32>) -> tensor<16x1xi32> loc(#loc32)
    %40 = tt.splat %arg9 : (i32) -> tensor<16x1xi32> loc(#loc33)
    %41 = arith.muli %39, %40 : tensor<16x1xi32> loc(#loc33)
    %42 = tt.splat %arg3 : (!tt.ptr<f32, 1>) -> tensor<16x1x!tt.ptr<f32, 1>> loc(#loc34)
    %43 = tt.addptr %42, %41 : tensor<16x1x!tt.ptr<f32, 1>>, tensor<16x1xi32> loc(#loc34)
    %44 = tt.expand_dims %9 {axis = 0 : i32} : (tensor<128xi32>) -> tensor<1x128xi32> loc(#loc35)
    %45 = tt.broadcast %43 : (tensor<16x1x!tt.ptr<f32, 1>>) -> tensor<16x128x!tt.ptr<f32, 1>> loc(#loc36)
    %46 = tt.broadcast %44 : (tensor<1x128xi32>) -> tensor<16x128xi32> loc(#loc36)
    %47 = tt.addptr %45, %46 : tensor<16x128x!tt.ptr<f32, 1>>, tensor<16x128xi32> loc(#loc36)
    %48:3 = scf.for %arg10 = %c0_i32 to %arg5 step %c32_i32 iter_args(%arg11 = %cst_0, %arg12 = %28, %arg13 = %38) -> (tensor<16x128xf32>, tensor<16x32x!tt.ptr<f32, 1>>, tensor<32x128x!tt.ptr<f32, 1>>)  : i32 {
      %67 = tt.expand_dims %5 {axis = 1 : i32} : (tensor<16xi32>) -> tensor<16x1xi32> loc(#loc37)
      %68 = arith.cmpi slt, %67, %cst_3 : tensor<16x1xi32> loc(#loc6)
      %69 = tt.make_range {end = 32 : i32, start = 0 : i32} : tensor<32xi32> loc(#loc38)
      %70 = tt.expand_dims %69 {axis = 0 : i32} : (tensor<32xi32>) -> tensor<1x32xi32> loc(#loc39)
      %71 = tt.splat %arg5 : (i32) -> tensor<1x32xi32> loc(#loc40)
      %72 = arith.cmpi slt, %70, %71 : tensor<1x32xi32> loc(#loc40)
      %73 = tt.broadcast %68 : (tensor<16x1xi1>) -> tensor<16x32xi1> loc(#loc41)
      %74 = tt.broadcast %72 : (tensor<1x32xi1>) -> tensor<16x32xi1> loc(#loc41)
      %75 = arith.andi %73, %74 : tensor<16x32xi1> loc(#loc41)
      %76 = tt.load %arg12, %75, %cst_2 {cache = 1 : i32, evict = 1 : i32, isVolatile = false} : tensor<16x32xf32> loc(#loc5)
      %77 = tt.make_range {end = 32 : i32, start = 0 : i32} : tensor<32xi32> loc(#loc42)
      %78 = tt.expand_dims %77 {axis = 1 : i32} : (tensor<32xi32>) -> tensor<32x1xi32> loc(#loc43)
      %79 = tt.splat %arg5 : (i32) -> tensor<32x1xi32> loc(#loc44)
      %80 = arith.cmpi slt, %78, %79 : tensor<32x1xi32> loc(#loc44)
      %81 = tt.expand_dims %9 {axis = 0 : i32} : (tensor<128xi32>) -> tensor<1x128xi32> loc(#loc45)
      %82 = tt.splat %arg4 : (i32) -> tensor<1x128xi32> loc(#loc46)
      %83 = arith.cmpi slt, %81, %82 : tensor<1x128xi32> loc(#loc46)
      %84 = tt.broadcast %80 : (tensor<32x1xi1>) -> tensor<32x128xi1> loc(#loc47)
      %85 = tt.broadcast %83 : (tensor<1x128xi1>) -> tensor<32x128xi1> loc(#loc47)
      %86 = arith.andi %84, %85 : tensor<32x128xi1> loc(#loc47)
      %87 = tt.load %arg13, %86, %cst_1 {cache = 1 : i32, evict = 1 : i32, isVolatile = false} : tensor<32x128xf32> loc(#loc4)
      %88 = tt.dot %76, %87, %cst_0 {allowTF32 = true, maxNumImpreciseAcc = 0 : i32} : tensor<16x32xf32> * tensor<32x128xf32> -> tensor<16x128xf32> loc(#loc3)
      %89 = arith.addf %arg11, %88 : tensor<16x128xf32> loc(#loc48)
      %90 = tt.addptr %arg12, %cst : tensor<16x32x!tt.ptr<f32, 1>>, tensor<16x32xi32> loc(#loc2)
      %91 = arith.muli %arg8, %c32_i32 : i32 loc(#loc49)
      %92 = tt.splat %91 : (i32) -> tensor<32x128xi32> loc(#loc50)
      %93 = tt.addptr %arg13, %92 : tensor<32x128x!tt.ptr<f32, 1>>, tensor<32x128xi32> loc(#loc50)
      scf.yield %89, %90, %93 : tensor<16x128xf32>, tensor<16x32x!tt.ptr<f32, 1>>, tensor<32x128x!tt.ptr<f32, 1>> loc(#loc51)
    } loc(#loc1)
    %49 = tt.expand_dims %5 {axis = 1 : i32} : (tensor<16xi32>) -> tensor<16x1xi32> loc(#loc52)
    %50 = arith.cmpi slt, %49, %cst_3 : tensor<16x1xi32> loc(#loc53)
    %51 = tt.expand_dims %9 {axis = 0 : i32} : (tensor<128xi32>) -> tensor<1x128xi32> loc(#loc54)
    %52 = tt.splat %arg4 : (i32) -> tensor<1x128xi32> loc(#loc55)
    %53 = arith.cmpi slt, %51, %52 : tensor<1x128xi32> loc(#loc55)
    %54 = tt.broadcast %50 : (tensor<16x1xi1>) -> tensor<16x128xi1> loc(#loc56)
    %55 = tt.broadcast %53 : (tensor<1x128xi1>) -> tensor<16x128xi1> loc(#loc56)
    %56 = arith.andi %54, %55 : tensor<16x128xi1> loc(#loc56)
    %57 = tt.load %18, %56, %cst_0 {cache = 1 : i32, evict = 1 : i32, isVolatile = false} : tensor<16x128xf32> loc(#loc57)
    %58 = arith.addf %48#0, %57 : tensor<16x128xf32> loc(#loc58)
    %59 = tt.expand_dims %5 {axis = 1 : i32} : (tensor<16xi32>) -> tensor<16x1xi32> loc(#loc59)
    %60 = arith.cmpi slt, %59, %cst_3 : tensor<16x1xi32> loc(#loc60)
    %61 = tt.expand_dims %9 {axis = 0 : i32} : (tensor<128xi32>) -> tensor<1x128xi32> loc(#loc61)
    %62 = tt.splat %arg4 : (i32) -> tensor<1x128xi32> loc(#loc62)
    %63 = arith.cmpi slt, %61, %62 : tensor<1x128xi32> loc(#loc62)
    %64 = tt.broadcast %60 : (tensor<16x1xi1>) -> tensor<16x128xi1> loc(#loc63)
    %65 = tt.broadcast %63 : (tensor<1x128xi1>) -> tensor<16x128xi1> loc(#loc63)
    %66 = arith.andi %64, %65 : tensor<16x128xi1> loc(#loc63)
    tt.store %47, %58, %66 {cache = 1 : i32, evict = 1 : i32} : tensor<16x128xf32> loc(#loc64)
    tt.return loc(#loc65)
  } loc(#loc)
} loc(#loc)
#loc1 = loc("/home/meng/torch-compiler/models/lenet/torch-compile/addmm/addmm.py":43:25)
#loc2 = loc("/home/meng/torch-compiler/models/lenet/torch-compile/addmm/addmm.py":47:13)
#loc3 = loc("/home/meng/torch-compiler/models/lenet/torch-compile/addmm/addmm.py":46:25)
#loc4 = loc("/home/meng/torch-compiler/models/lenet/torch-compile/addmm/addmm.py":45:20)
#loc5 = loc("/home/meng/torch-compiler/models/lenet/torch-compile/addmm/addmm.py":44:20)
#loc6 = loc("/home/meng/torch-compiler/models/lenet/torch-compile/addmm/addmm.py":44:43)
#loc7 = loc("/home/meng/torch-compiler/models/lenet/torch-compile/addmm/addmm.py":32:17)
#loc8 = loc("/home/meng/torch-compiler/models/lenet/torch-compile/addmm/addmm.py":31:17)
#loc9 = loc("/home/meng/torch-compiler/models/lenet/torch-compile/addmm/addmm.py":27:26)
#loc10 = loc("/home/meng/torch-compiler/models/lenet/torch-compile/addmm/addmm.py":28:26)
#loc11 = loc("/home/meng/torch-compiler/models/lenet/torch-compile/addmm/addmm.py":31:40)
#loc12 = loc("/home/meng/torch-compiler/models/lenet/torch-compile/addmm/addmm.py":31:27)
#loc13 = loc("/home/meng/torch-compiler/models/lenet/torch-compile/addmm/addmm.py":32:40)
#loc14 = loc("/home/meng/torch-compiler/models/lenet/torch-compile/addmm/addmm.py":32:27)
#loc15 = loc("/home/meng/torch-compiler/models/lenet/torch-compile/addmm/addmm.py":35:15)
#loc16 = loc("/home/meng/torch-compiler/models/lenet/torch-compile/addmm/addmm.py":35:26)
#loc17 = loc("/home/meng/torch-compiler/models/lenet/torch-compile/addmm/addmm.py":35:12)
#loc18 = loc("/home/meng/torch-compiler/models/lenet/torch-compile/addmm/addmm.py":35:41)
#loc19 = loc("/home/meng/torch-compiler/models/lenet/torch-compile/addmm/addmm.py":35:38)
#loc20 = loc("/home/meng/torch-compiler/models/lenet/torch-compile/addmm/addmm.py":36:15)
#loc21 = loc("/home/meng/torch-compiler/models/lenet/torch-compile/addmm/addmm.py":36:26)
#loc22 = loc("/home/meng/torch-compiler/models/lenet/torch-compile/addmm/addmm.py":36:12)
#loc23 = loc("/home/meng/torch-compiler/models/lenet/torch-compile/addmm/addmm.py":36:51)
#loc24 = loc("/home/meng/torch-compiler/models/lenet/torch-compile/addmm/addmm.py":36:60)
#loc25 = loc("/home/meng/torch-compiler/models/lenet/torch-compile/addmm/addmm.py":36:38)
#loc26 = loc("/home/meng/torch-compiler/models/lenet/torch-compile/addmm/addmm.py":37:25)
#loc27 = loc("/home/meng/torch-compiler/models/lenet/torch-compile/addmm/addmm.py":37:34)
#loc28 = loc("/home/meng/torch-compiler/models/lenet/torch-compile/addmm/addmm.py":37:45)
#loc29 = loc("/home/meng/torch-compiler/models/lenet/torch-compile/addmm/addmm.py":37:12)
#loc30 = loc("/home/meng/torch-compiler/models/lenet/torch-compile/addmm/addmm.py":37:60)
#loc31 = loc("/home/meng/torch-compiler/models/lenet/torch-compile/addmm/addmm.py":37:57)
#loc32 = loc("/home/meng/torch-compiler/models/lenet/torch-compile/addmm/addmm.py":38:15)
#loc33 = loc("/home/meng/torch-compiler/models/lenet/torch-compile/addmm/addmm.py":38:26)
#loc34 = loc("/home/meng/torch-compiler/models/lenet/torch-compile/addmm/addmm.py":38:12)
#loc35 = loc("/home/meng/torch-compiler/models/lenet/torch-compile/addmm/addmm.py":38:41)
#loc36 = loc("/home/meng/torch-compiler/models/lenet/torch-compile/addmm/addmm.py":38:38)
#loc37 = loc("/home/meng/torch-compiler/models/lenet/torch-compile/addmm/addmm.py":44:32)
#loc38 = loc("/home/meng/torch-compiler/models/lenet/torch-compile/addmm/addmm.py":44:62)
#loc39 = loc("/home/meng/torch-compiler/models/lenet/torch-compile/addmm/addmm.py":44:71)
#loc40 = loc("/home/meng/torch-compiler/models/lenet/torch-compile/addmm/addmm.py":44:82)
#loc41 = loc("/home/meng/torch-compiler/models/lenet/torch-compile/addmm/addmm.py":44:49)
#loc42 = loc("/home/meng/torch-compiler/models/lenet/torch-compile/addmm/addmm.py":45:42)
#loc43 = loc("/home/meng/torch-compiler/models/lenet/torch-compile/addmm/addmm.py":45:51)
#loc44 = loc("/home/meng/torch-compiler/models/lenet/torch-compile/addmm/addmm.py":45:62)
#loc45 = loc("/home/meng/torch-compiler/models/lenet/torch-compile/addmm/addmm.py":45:71)
#loc46 = loc("/home/meng/torch-compiler/models/lenet/torch-compile/addmm/addmm.py":45:82)
#loc47 = loc("/home/meng/torch-compiler/models/lenet/torch-compile/addmm/addmm.py":45:68)
#loc48 = loc("/home/meng/torch-compiler/models/lenet/torch-compile/addmm/addmm.py":46:15)
#loc49 = loc("/home/meng/torch-compiler/models/lenet/torch-compile/addmm/addmm.py":48:23)
#loc50 = loc("/home/meng/torch-compiler/models/lenet/torch-compile/addmm/addmm.py":48:13)
#loc51 = loc("/home/meng/torch-compiler/models/lenet/torch-compile/addmm/addmm.py":48:8)
#loc52 = loc("/home/meng/torch-compiler/models/lenet/torch-compile/addmm/addmm.py":51:28)
#loc53 = loc("/home/meng/torch-compiler/models/lenet/torch-compile/addmm/addmm.py":51:39)
#loc54 = loc("/home/meng/torch-compiler/models/lenet/torch-compile/addmm/addmm.py":51:48)
#loc55 = loc("/home/meng/torch-compiler/models/lenet/torch-compile/addmm/addmm.py":51:59)
#loc56 = loc("/home/meng/torch-compiler/models/lenet/torch-compile/addmm/addmm.py":51:45)
#loc57 = loc("/home/meng/torch-compiler/models/lenet/torch-compile/addmm/addmm.py":51:16)
#loc58 = loc("/home/meng/torch-compiler/models/lenet/torch-compile/addmm/addmm.py":52:11)
#loc59 = loc("/home/meng/torch-compiler/models/lenet/torch-compile/addmm/addmm.py":55:30)
#loc60 = loc("/home/meng/torch-compiler/models/lenet/torch-compile/addmm/addmm.py":55:41)
#loc61 = loc("/home/meng/torch-compiler/models/lenet/torch-compile/addmm/addmm.py":55:50)
#loc62 = loc("/home/meng/torch-compiler/models/lenet/torch-compile/addmm/addmm.py":55:61)
#loc63 = loc("/home/meng/torch-compiler/models/lenet/torch-compile/addmm/addmm.py":55:47)
#loc64 = loc("/home/meng/torch-compiler/models/lenet/torch-compile/addmm/addmm.py":55:16)
#loc65 = loc("/home/meng/torch-compiler/models/lenet/torch-compile/addmm/addmm.py":55:4)


// -----// IR Dump Before TritonCombineOps (triton-combine) ('builtin.module' operation) //----- //
#loc = loc("/home/meng/torch-compiler/models/lenet/torch-compile/addmm/addmm.py":6:0)
module {
  tt.func public @addmm_kernel_0d1d2d3d4c5678c910c1112c1314c(%arg0: !tt.ptr<f32, 1> {tt.divisibility = 16 : i32} loc("/home/meng/torch-compiler/models/lenet/torch-compile/addmm/addmm.py":6:0), %arg1: !tt.ptr<f32, 1> {tt.divisibility = 16 : i32} loc("/home/meng/torch-compiler/models/lenet/torch-compile/addmm/addmm.py":6:0), %arg2: !tt.ptr<f32, 1> {tt.divisibility = 16 : i32} loc("/home/meng/torch-compiler/models/lenet/torch-compile/addmm/addmm.py":6:0), %arg3: !tt.ptr<f32, 1> {tt.divisibility = 16 : i32} loc("/home/meng/torch-compiler/models/lenet/torch-compile/addmm/addmm.py":6:0), %arg4: i32 loc("/home/meng/torch-compiler/models/lenet/torch-compile/addmm/addmm.py":6:0), %arg5: i32 loc("/home/meng/torch-compiler/models/lenet/torch-compile/addmm/addmm.py":6:0), %arg6: i32 loc("/home/meng/torch-compiler/models/lenet/torch-compile/addmm/addmm.py":6:0), %arg7: i32 loc("/home/meng/torch-compiler/models/lenet/torch-compile/addmm/addmm.py":6:0), %arg8: i32 loc("/home/meng/torch-compiler/models/lenet/torch-compile/addmm/addmm.py":6:0), %arg9: i32 loc("/home/meng/torch-compiler/models/lenet/torch-compile/addmm/addmm.py":6:0)) attributes {noinline = false} {
    %c32_i32 = arith.constant 32 : i32 loc(#loc1)
    %c0_i32 = arith.constant 0 : i32 loc(#loc1)
    %cst = arith.constant dense<32> : tensor<16x32xi32> loc(#loc2)
    %cst_0 = arith.constant dense<0.000000e+00> : tensor<16x128xf32> loc(#loc3)
    %cst_1 = arith.constant dense<0.000000e+00> : tensor<32x128xf32> loc(#loc4)
    %cst_2 = arith.constant dense<0.000000e+00> : tensor<16x32xf32> loc(#loc5)
    %cst_3 = arith.constant dense<1> : tensor<16x1xi32> loc(#loc6)
    %c128_i32 = arith.constant 128 : i32 loc(#loc7)
    %c16_i32 = arith.constant 16 : i32 loc(#loc8)
    %0 = tt.get_program_id x : i32 loc(#loc9)
    %1 = tt.get_program_id y : i32 loc(#loc10)
    %2 = arith.muli %0, %c16_i32 : i32 loc(#loc8)
    %3 = tt.make_range {end = 16 : i32, start = 0 : i32} : tensor<16xi32> loc(#loc11)
    %4 = tt.splat %2 : (i32) -> tensor<16xi32> loc(#loc12)
    %5 = arith.addi %4, %3 : tensor<16xi32> loc(#loc12)
    %6 = arith.muli %1, %c128_i32 : i32 loc(#loc7)
    %7 = tt.make_range {end = 128 : i32, start = 0 : i32} : tensor<128xi32> loc(#loc13)
    %8 = tt.splat %6 : (i32) -> tensor<128xi32> loc(#loc14)
    %9 = arith.addi %8, %7 : tensor<128xi32> loc(#loc14)
    %10 = tt.expand_dims %5 {axis = 1 : i32} : (tensor<16xi32>) -> tensor<16x1xi32> loc(#loc15)
    %11 = tt.splat %arg6 : (i32) -> tensor<16x1xi32> loc(#loc16)
    %12 = arith.muli %10, %11 : tensor<16x1xi32> loc(#loc16)
    %13 = tt.splat %arg0 : (!tt.ptr<f32, 1>) -> tensor<16x1x!tt.ptr<f32, 1>> loc(#loc17)
    %14 = tt.addptr %13, %12 : tensor<16x1x!tt.ptr<f32, 1>>, tensor<16x1xi32> loc(#loc17)
    %15 = tt.expand_dims %9 {axis = 0 : i32} : (tensor<128xi32>) -> tensor<1x128xi32> loc(#loc18)
    %16 = tt.broadcast %14 : (tensor<16x1x!tt.ptr<f32, 1>>) -> tensor<16x128x!tt.ptr<f32, 1>> loc(#loc19)
    %17 = tt.broadcast %15 : (tensor<1x128xi32>) -> tensor<16x128xi32> loc(#loc19)
    %18 = tt.addptr %16, %17 : tensor<16x128x!tt.ptr<f32, 1>>, tensor<16x128xi32> loc(#loc19)
    %19 = tt.expand_dims %5 {axis = 1 : i32} : (tensor<16xi32>) -> tensor<16x1xi32> loc(#loc20)
    %20 = tt.splat %arg7 : (i32) -> tensor<16x1xi32> loc(#loc21)
    %21 = arith.muli %19, %20 : tensor<16x1xi32> loc(#loc21)
    %22 = tt.splat %arg1 : (!tt.ptr<f32, 1>) -> tensor<16x1x!tt.ptr<f32, 1>> loc(#loc22)
    %23 = tt.addptr %22, %21 : tensor<16x1x!tt.ptr<f32, 1>>, tensor<16x1xi32> loc(#loc22)
    %24 = tt.make_range {end = 32 : i32, start = 0 : i32} : tensor<32xi32> loc(#loc23)
    %25 = tt.expand_dims %24 {axis = 0 : i32} : (tensor<32xi32>) -> tensor<1x32xi32> loc(#loc24)
    %26 = tt.broadcast %23 : (tensor<16x1x!tt.ptr<f32, 1>>) -> tensor<16x32x!tt.ptr<f32, 1>> loc(#loc25)
    %27 = tt.broadcast %25 : (tensor<1x32xi32>) -> tensor<16x32xi32> loc(#loc25)
    %28 = tt.addptr %26, %27 : tensor<16x32x!tt.ptr<f32, 1>>, tensor<16x32xi32> loc(#loc25)
    %29 = tt.make_range {end = 32 : i32, start = 0 : i32} : tensor<32xi32> loc(#loc26)
    %30 = tt.expand_dims %29 {axis = 1 : i32} : (tensor<32xi32>) -> tensor<32x1xi32> loc(#loc27)
    %31 = tt.splat %arg8 : (i32) -> tensor<32x1xi32> loc(#loc28)
    %32 = arith.muli %30, %31 : tensor<32x1xi32> loc(#loc28)
    %33 = tt.splat %arg2 : (!tt.ptr<f32, 1>) -> tensor<32x1x!tt.ptr<f32, 1>> loc(#loc29)
    %34 = tt.addptr %33, %32 : tensor<32x1x!tt.ptr<f32, 1>>, tensor<32x1xi32> loc(#loc29)
    %35 = tt.expand_dims %9 {axis = 0 : i32} : (tensor<128xi32>) -> tensor<1x128xi32> loc(#loc30)
    %36 = tt.broadcast %34 : (tensor<32x1x!tt.ptr<f32, 1>>) -> tensor<32x128x!tt.ptr<f32, 1>> loc(#loc31)
    %37 = tt.broadcast %35 : (tensor<1x128xi32>) -> tensor<32x128xi32> loc(#loc31)
    %38 = tt.addptr %36, %37 : tensor<32x128x!tt.ptr<f32, 1>>, tensor<32x128xi32> loc(#loc31)
    %39 = tt.expand_dims %5 {axis = 1 : i32} : (tensor<16xi32>) -> tensor<16x1xi32> loc(#loc32)
    %40 = tt.splat %arg9 : (i32) -> tensor<16x1xi32> loc(#loc33)
    %41 = arith.muli %39, %40 : tensor<16x1xi32> loc(#loc33)
    %42 = tt.splat %arg3 : (!tt.ptr<f32, 1>) -> tensor<16x1x!tt.ptr<f32, 1>> loc(#loc34)
    %43 = tt.addptr %42, %41 : tensor<16x1x!tt.ptr<f32, 1>>, tensor<16x1xi32> loc(#loc34)
    %44 = tt.expand_dims %9 {axis = 0 : i32} : (tensor<128xi32>) -> tensor<1x128xi32> loc(#loc35)
    %45 = tt.broadcast %43 : (tensor<16x1x!tt.ptr<f32, 1>>) -> tensor<16x128x!tt.ptr<f32, 1>> loc(#loc36)
    %46 = tt.broadcast %44 : (tensor<1x128xi32>) -> tensor<16x128xi32> loc(#loc36)
    %47 = tt.addptr %45, %46 : tensor<16x128x!tt.ptr<f32, 1>>, tensor<16x128xi32> loc(#loc36)
    %48:3 = scf.for %arg10 = %c0_i32 to %arg5 step %c32_i32 iter_args(%arg11 = %cst_0, %arg12 = %28, %arg13 = %38) -> (tensor<16x128xf32>, tensor<16x32x!tt.ptr<f32, 1>>, tensor<32x128x!tt.ptr<f32, 1>>)  : i32 {
      %67 = tt.expand_dims %5 {axis = 1 : i32} : (tensor<16xi32>) -> tensor<16x1xi32> loc(#loc37)
      %68 = arith.cmpi slt, %67, %cst_3 : tensor<16x1xi32> loc(#loc6)
      %69 = tt.make_range {end = 32 : i32, start = 0 : i32} : tensor<32xi32> loc(#loc38)
      %70 = tt.expand_dims %69 {axis = 0 : i32} : (tensor<32xi32>) -> tensor<1x32xi32> loc(#loc39)
      %71 = tt.splat %arg5 : (i32) -> tensor<1x32xi32> loc(#loc40)
      %72 = arith.cmpi slt, %70, %71 : tensor<1x32xi32> loc(#loc40)
      %73 = tt.broadcast %68 : (tensor<16x1xi1>) -> tensor<16x32xi1> loc(#loc41)
      %74 = tt.broadcast %72 : (tensor<1x32xi1>) -> tensor<16x32xi1> loc(#loc41)
      %75 = arith.andi %73, %74 : tensor<16x32xi1> loc(#loc41)
      %76 = tt.load %arg12, %75, %cst_2 {cache = 1 : i32, evict = 1 : i32, isVolatile = false} : tensor<16x32xf32> loc(#loc5)
      %77 = tt.make_range {end = 32 : i32, start = 0 : i32} : tensor<32xi32> loc(#loc42)
      %78 = tt.expand_dims %77 {axis = 1 : i32} : (tensor<32xi32>) -> tensor<32x1xi32> loc(#loc43)
      %79 = tt.splat %arg5 : (i32) -> tensor<32x1xi32> loc(#loc44)
      %80 = arith.cmpi slt, %78, %79 : tensor<32x1xi32> loc(#loc44)
      %81 = tt.expand_dims %9 {axis = 0 : i32} : (tensor<128xi32>) -> tensor<1x128xi32> loc(#loc45)
      %82 = tt.splat %arg4 : (i32) -> tensor<1x128xi32> loc(#loc46)
      %83 = arith.cmpi slt, %81, %82 : tensor<1x128xi32> loc(#loc46)
      %84 = tt.broadcast %80 : (tensor<32x1xi1>) -> tensor<32x128xi1> loc(#loc47)
      %85 = tt.broadcast %83 : (tensor<1x128xi1>) -> tensor<32x128xi1> loc(#loc47)
      %86 = arith.andi %84, %85 : tensor<32x128xi1> loc(#loc47)
      %87 = tt.load %arg13, %86, %cst_1 {cache = 1 : i32, evict = 1 : i32, isVolatile = false} : tensor<32x128xf32> loc(#loc4)
      %88 = tt.dot %76, %87, %cst_0 {allowTF32 = true, maxNumImpreciseAcc = 0 : i32} : tensor<16x32xf32> * tensor<32x128xf32> -> tensor<16x128xf32> loc(#loc3)
      %89 = arith.addf %arg11, %88 : tensor<16x128xf32> loc(#loc48)
      %90 = tt.addptr %arg12, %cst : tensor<16x32x!tt.ptr<f32, 1>>, tensor<16x32xi32> loc(#loc2)
      %91 = arith.muli %arg8, %c32_i32 : i32 loc(#loc49)
      %92 = tt.splat %91 : (i32) -> tensor<32x128xi32> loc(#loc50)
      %93 = tt.addptr %arg13, %92 : tensor<32x128x!tt.ptr<f32, 1>>, tensor<32x128xi32> loc(#loc50)
      scf.yield %89, %90, %93 : tensor<16x128xf32>, tensor<16x32x!tt.ptr<f32, 1>>, tensor<32x128x!tt.ptr<f32, 1>> loc(#loc51)
    } loc(#loc1)
    %49 = tt.expand_dims %5 {axis = 1 : i32} : (tensor<16xi32>) -> tensor<16x1xi32> loc(#loc52)
    %50 = arith.cmpi slt, %49, %cst_3 : tensor<16x1xi32> loc(#loc53)
    %51 = tt.expand_dims %9 {axis = 0 : i32} : (tensor<128xi32>) -> tensor<1x128xi32> loc(#loc54)
    %52 = tt.splat %arg4 : (i32) -> tensor<1x128xi32> loc(#loc55)
    %53 = arith.cmpi slt, %51, %52 : tensor<1x128xi32> loc(#loc55)
    %54 = tt.broadcast %50 : (tensor<16x1xi1>) -> tensor<16x128xi1> loc(#loc56)
    %55 = tt.broadcast %53 : (tensor<1x128xi1>) -> tensor<16x128xi1> loc(#loc56)
    %56 = arith.andi %54, %55 : tensor<16x128xi1> loc(#loc56)
    %57 = tt.load %18, %56, %cst_0 {cache = 1 : i32, evict = 1 : i32, isVolatile = false} : tensor<16x128xf32> loc(#loc57)
    %58 = arith.addf %48#0, %57 : tensor<16x128xf32> loc(#loc58)
    %59 = tt.expand_dims %5 {axis = 1 : i32} : (tensor<16xi32>) -> tensor<16x1xi32> loc(#loc59)
    %60 = arith.cmpi slt, %59, %cst_3 : tensor<16x1xi32> loc(#loc60)
    %61 = tt.expand_dims %9 {axis = 0 : i32} : (tensor<128xi32>) -> tensor<1x128xi32> loc(#loc61)
    %62 = tt.splat %arg4 : (i32) -> tensor<1x128xi32> loc(#loc62)
    %63 = arith.cmpi slt, %61, %62 : tensor<1x128xi32> loc(#loc62)
    %64 = tt.broadcast %60 : (tensor<16x1xi1>) -> tensor<16x128xi1> loc(#loc63)
    %65 = tt.broadcast %63 : (tensor<1x128xi1>) -> tensor<16x128xi1> loc(#loc63)
    %66 = arith.andi %64, %65 : tensor<16x128xi1> loc(#loc63)
    tt.store %47, %58, %66 {cache = 1 : i32, evict = 1 : i32} : tensor<16x128xf32> loc(#loc64)
    tt.return loc(#loc65)
  } loc(#loc)
} loc(#loc)
#loc1 = loc("/home/meng/torch-compiler/models/lenet/torch-compile/addmm/addmm.py":43:25)
#loc2 = loc("/home/meng/torch-compiler/models/lenet/torch-compile/addmm/addmm.py":47:13)
#loc3 = loc("/home/meng/torch-compiler/models/lenet/torch-compile/addmm/addmm.py":46:25)
#loc4 = loc("/home/meng/torch-compiler/models/lenet/torch-compile/addmm/addmm.py":45:20)
#loc5 = loc("/home/meng/torch-compiler/models/lenet/torch-compile/addmm/addmm.py":44:20)
#loc6 = loc("/home/meng/torch-compiler/models/lenet/torch-compile/addmm/addmm.py":44:43)
#loc7 = loc("/home/meng/torch-compiler/models/lenet/torch-compile/addmm/addmm.py":32:17)
#loc8 = loc("/home/meng/torch-compiler/models/lenet/torch-compile/addmm/addmm.py":31:17)
#loc9 = loc("/home/meng/torch-compiler/models/lenet/torch-compile/addmm/addmm.py":27:26)
#loc10 = loc("/home/meng/torch-compiler/models/lenet/torch-compile/addmm/addmm.py":28:26)
#loc11 = loc("/home/meng/torch-compiler/models/lenet/torch-compile/addmm/addmm.py":31:40)
#loc12 = loc("/home/meng/torch-compiler/models/lenet/torch-compile/addmm/addmm.py":31:27)
#loc13 = loc("/home/meng/torch-compiler/models/lenet/torch-compile/addmm/addmm.py":32:40)
#loc14 = loc("/home/meng/torch-compiler/models/lenet/torch-compile/addmm/addmm.py":32:27)
#loc15 = loc("/home/meng/torch-compiler/models/lenet/torch-compile/addmm/addmm.py":35:15)
#loc16 = loc("/home/meng/torch-compiler/models/lenet/torch-compile/addmm/addmm.py":35:26)
#loc17 = loc("/home/meng/torch-compiler/models/lenet/torch-compile/addmm/addmm.py":35:12)
#loc18 = loc("/home/meng/torch-compiler/models/lenet/torch-compile/addmm/addmm.py":35:41)
#loc19 = loc("/home/meng/torch-compiler/models/lenet/torch-compile/addmm/addmm.py":35:38)
#loc20 = loc("/home/meng/torch-compiler/models/lenet/torch-compile/addmm/addmm.py":36:15)
#loc21 = loc("/home/meng/torch-compiler/models/lenet/torch-compile/addmm/addmm.py":36:26)
#loc22 = loc("/home/meng/torch-compiler/models/lenet/torch-compile/addmm/addmm.py":36:12)
#loc23 = loc("/home/meng/torch-compiler/models/lenet/torch-compile/addmm/addmm.py":36:51)
#loc24 = loc("/home/meng/torch-compiler/models/lenet/torch-compile/addmm/addmm.py":36:60)
#loc25 = loc("/home/meng/torch-compiler/models/lenet/torch-compile/addmm/addmm.py":36:38)
#loc26 = loc("/home/meng/torch-compiler/models/lenet/torch-compile/addmm/addmm.py":37:25)
#loc27 = loc("/home/meng/torch-compiler/models/lenet/torch-compile/addmm/addmm.py":37:34)
#loc28 = loc("/home/meng/torch-compiler/models/lenet/torch-compile/addmm/addmm.py":37:45)
#loc29 = loc("/home/meng/torch-compiler/models/lenet/torch-compile/addmm/addmm.py":37:12)
#loc30 = loc("/home/meng/torch-compiler/models/lenet/torch-compile/addmm/addmm.py":37:60)
#loc31 = loc("/home/meng/torch-compiler/models/lenet/torch-compile/addmm/addmm.py":37:57)
#loc32 = loc("/home/meng/torch-compiler/models/lenet/torch-compile/addmm/addmm.py":38:15)
#loc33 = loc("/home/meng/torch-compiler/models/lenet/torch-compile/addmm/addmm.py":38:26)
#loc34 = loc("/home/meng/torch-compiler/models/lenet/torch-compile/addmm/addmm.py":38:12)
#loc35 = loc("/home/meng/torch-compiler/models/lenet/torch-compile/addmm/addmm.py":38:41)
#loc36 = loc("/home/meng/torch-compiler/models/lenet/torch-compile/addmm/addmm.py":38:38)
#loc37 = loc("/home/meng/torch-compiler/models/lenet/torch-compile/addmm/addmm.py":44:32)
#loc38 = loc("/home/meng/torch-compiler/models/lenet/torch-compile/addmm/addmm.py":44:62)
#loc39 = loc("/home/meng/torch-compiler/models/lenet/torch-compile/addmm/addmm.py":44:71)
#loc40 = loc("/home/meng/torch-compiler/models/lenet/torch-compile/addmm/addmm.py":44:82)
#loc41 = loc("/home/meng/torch-compiler/models/lenet/torch-compile/addmm/addmm.py":44:49)
#loc42 = loc("/home/meng/torch-compiler/models/lenet/torch-compile/addmm/addmm.py":45:42)
#loc43 = loc("/home/meng/torch-compiler/models/lenet/torch-compile/addmm/addmm.py":45:51)
#loc44 = loc("/home/meng/torch-compiler/models/lenet/torch-compile/addmm/addmm.py":45:62)
#loc45 = loc("/home/meng/torch-compiler/models/lenet/torch-compile/addmm/addmm.py":45:71)
#loc46 = loc("/home/meng/torch-compiler/models/lenet/torch-compile/addmm/addmm.py":45:82)
#loc47 = loc("/home/meng/torch-compiler/models/lenet/torch-compile/addmm/addmm.py":45:68)
#loc48 = loc("/home/meng/torch-compiler/models/lenet/torch-compile/addmm/addmm.py":46:15)
#loc49 = loc("/home/meng/torch-compiler/models/lenet/torch-compile/addmm/addmm.py":48:23)
#loc50 = loc("/home/meng/torch-compiler/models/lenet/torch-compile/addmm/addmm.py":48:13)
#loc51 = loc("/home/meng/torch-compiler/models/lenet/torch-compile/addmm/addmm.py":48:8)
#loc52 = loc("/home/meng/torch-compiler/models/lenet/torch-compile/addmm/addmm.py":51:28)
#loc53 = loc("/home/meng/torch-compiler/models/lenet/torch-compile/addmm/addmm.py":51:39)
#loc54 = loc("/home/meng/torch-compiler/models/lenet/torch-compile/addmm/addmm.py":51:48)
#loc55 = loc("/home/meng/torch-compiler/models/lenet/torch-compile/addmm/addmm.py":51:59)
#loc56 = loc("/home/meng/torch-compiler/models/lenet/torch-compile/addmm/addmm.py":51:45)
#loc57 = loc("/home/meng/torch-compiler/models/lenet/torch-compile/addmm/addmm.py":51:16)
#loc58 = loc("/home/meng/torch-compiler/models/lenet/torch-compile/addmm/addmm.py":52:11)
#loc59 = loc("/home/meng/torch-compiler/models/lenet/torch-compile/addmm/addmm.py":55:30)
#loc60 = loc("/home/meng/torch-compiler/models/lenet/torch-compile/addmm/addmm.py":55:41)
#loc61 = loc("/home/meng/torch-compiler/models/lenet/torch-compile/addmm/addmm.py":55:50)
#loc62 = loc("/home/meng/torch-compiler/models/lenet/torch-compile/addmm/addmm.py":55:61)
#loc63 = loc("/home/meng/torch-compiler/models/lenet/torch-compile/addmm/addmm.py":55:47)
#loc64 = loc("/home/meng/torch-compiler/models/lenet/torch-compile/addmm/addmm.py":55:16)
#loc65 = loc("/home/meng/torch-compiler/models/lenet/torch-compile/addmm/addmm.py":55:4)


// -----// IR Dump Before Canonicalizer (canonicalize) ('builtin.module' operation) //----- //
#loc = loc("/home/meng/torch-compiler/models/lenet/torch-compile/addmm/addmm.py":6:0)
module {
  tt.func public @addmm_kernel_0d1d2d3d4c5678c910c1112c1314c(%arg0: !tt.ptr<f32, 1> {tt.divisibility = 16 : i32} loc("/home/meng/torch-compiler/models/lenet/torch-compile/addmm/addmm.py":6:0), %arg1: !tt.ptr<f32, 1> {tt.divisibility = 16 : i32} loc("/home/meng/torch-compiler/models/lenet/torch-compile/addmm/addmm.py":6:0), %arg2: !tt.ptr<f32, 1> {tt.divisibility = 16 : i32} loc("/home/meng/torch-compiler/models/lenet/torch-compile/addmm/addmm.py":6:0), %arg3: !tt.ptr<f32, 1> {tt.divisibility = 16 : i32} loc("/home/meng/torch-compiler/models/lenet/torch-compile/addmm/addmm.py":6:0), %arg4: i32 loc("/home/meng/torch-compiler/models/lenet/torch-compile/addmm/addmm.py":6:0), %arg5: i32 loc("/home/meng/torch-compiler/models/lenet/torch-compile/addmm/addmm.py":6:0), %arg6: i32 loc("/home/meng/torch-compiler/models/lenet/torch-compile/addmm/addmm.py":6:0), %arg7: i32 loc("/home/meng/torch-compiler/models/lenet/torch-compile/addmm/addmm.py":6:0), %arg8: i32 loc("/home/meng/torch-compiler/models/lenet/torch-compile/addmm/addmm.py":6:0), %arg9: i32 loc("/home/meng/torch-compiler/models/lenet/torch-compile/addmm/addmm.py":6:0)) attributes {noinline = false} {
    %c32_i32 = arith.constant 32 : i32 loc(#loc1)
    %c0_i32 = arith.constant 0 : i32 loc(#loc1)
    %cst = arith.constant dense<32> : tensor<16x32xi32> loc(#loc2)
    %cst_0 = arith.constant dense<0.000000e+00> : tensor<16x128xf32> loc(#loc3)
    %cst_1 = arith.constant dense<0.000000e+00> : tensor<32x128xf32> loc(#loc4)
    %cst_2 = arith.constant dense<0.000000e+00> : tensor<16x32xf32> loc(#loc5)
    %cst_3 = arith.constant dense<1> : tensor<16x1xi32> loc(#loc6)
    %c128_i32 = arith.constant 128 : i32 loc(#loc7)
    %c16_i32 = arith.constant 16 : i32 loc(#loc8)
    %0 = tt.get_program_id x : i32 loc(#loc9)
    %1 = tt.get_program_id y : i32 loc(#loc10)
    %2 = arith.muli %0, %c16_i32 : i32 loc(#loc8)
    %3 = tt.make_range {end = 16 : i32, start = 0 : i32} : tensor<16xi32> loc(#loc11)
    %4 = tt.splat %2 : (i32) -> tensor<16xi32> loc(#loc12)
    %5 = arith.addi %4, %3 : tensor<16xi32> loc(#loc12)
    %6 = arith.muli %1, %c128_i32 : i32 loc(#loc7)
    %7 = tt.make_range {end = 128 : i32, start = 0 : i32} : tensor<128xi32> loc(#loc13)
    %8 = tt.splat %6 : (i32) -> tensor<128xi32> loc(#loc14)
    %9 = arith.addi %8, %7 : tensor<128xi32> loc(#loc14)
    %10 = tt.expand_dims %5 {axis = 1 : i32} : (tensor<16xi32>) -> tensor<16x1xi32> loc(#loc15)
    %11 = tt.splat %arg6 : (i32) -> tensor<16x1xi32> loc(#loc16)
    %12 = arith.muli %10, %11 : tensor<16x1xi32> loc(#loc16)
    %13 = tt.splat %arg0 : (!tt.ptr<f32, 1>) -> tensor<16x1x!tt.ptr<f32, 1>> loc(#loc17)
    %14 = tt.addptr %13, %12 : tensor<16x1x!tt.ptr<f32, 1>>, tensor<16x1xi32> loc(#loc17)
    %15 = tt.expand_dims %9 {axis = 0 : i32} : (tensor<128xi32>) -> tensor<1x128xi32> loc(#loc18)
    %16 = tt.broadcast %14 : (tensor<16x1x!tt.ptr<f32, 1>>) -> tensor<16x128x!tt.ptr<f32, 1>> loc(#loc19)
    %17 = tt.broadcast %15 : (tensor<1x128xi32>) -> tensor<16x128xi32> loc(#loc19)
    %18 = tt.addptr %16, %17 : tensor<16x128x!tt.ptr<f32, 1>>, tensor<16x128xi32> loc(#loc19)
    %19 = tt.expand_dims %5 {axis = 1 : i32} : (tensor<16xi32>) -> tensor<16x1xi32> loc(#loc20)
    %20 = tt.splat %arg7 : (i32) -> tensor<16x1xi32> loc(#loc21)
    %21 = arith.muli %19, %20 : tensor<16x1xi32> loc(#loc21)
    %22 = tt.splat %arg1 : (!tt.ptr<f32, 1>) -> tensor<16x1x!tt.ptr<f32, 1>> loc(#loc22)
    %23 = tt.addptr %22, %21 : tensor<16x1x!tt.ptr<f32, 1>>, tensor<16x1xi32> loc(#loc22)
    %24 = tt.make_range {end = 32 : i32, start = 0 : i32} : tensor<32xi32> loc(#loc23)
    %25 = tt.expand_dims %24 {axis = 0 : i32} : (tensor<32xi32>) -> tensor<1x32xi32> loc(#loc24)
    %26 = tt.broadcast %23 : (tensor<16x1x!tt.ptr<f32, 1>>) -> tensor<16x32x!tt.ptr<f32, 1>> loc(#loc25)
    %27 = tt.broadcast %25 : (tensor<1x32xi32>) -> tensor<16x32xi32> loc(#loc25)
    %28 = tt.addptr %26, %27 : tensor<16x32x!tt.ptr<f32, 1>>, tensor<16x32xi32> loc(#loc25)
    %29 = tt.make_range {end = 32 : i32, start = 0 : i32} : tensor<32xi32> loc(#loc26)
    %30 = tt.expand_dims %29 {axis = 1 : i32} : (tensor<32xi32>) -> tensor<32x1xi32> loc(#loc27)
    %31 = tt.splat %arg8 : (i32) -> tensor<32x1xi32> loc(#loc28)
    %32 = arith.muli %30, %31 : tensor<32x1xi32> loc(#loc28)
    %33 = tt.splat %arg2 : (!tt.ptr<f32, 1>) -> tensor<32x1x!tt.ptr<f32, 1>> loc(#loc29)
    %34 = tt.addptr %33, %32 : tensor<32x1x!tt.ptr<f32, 1>>, tensor<32x1xi32> loc(#loc29)
    %35 = tt.expand_dims %9 {axis = 0 : i32} : (tensor<128xi32>) -> tensor<1x128xi32> loc(#loc30)
    %36 = tt.broadcast %34 : (tensor<32x1x!tt.ptr<f32, 1>>) -> tensor<32x128x!tt.ptr<f32, 1>> loc(#loc31)
    %37 = tt.broadcast %35 : (tensor<1x128xi32>) -> tensor<32x128xi32> loc(#loc31)
    %38 = tt.addptr %36, %37 : tensor<32x128x!tt.ptr<f32, 1>>, tensor<32x128xi32> loc(#loc31)
    %39 = tt.expand_dims %5 {axis = 1 : i32} : (tensor<16xi32>) -> tensor<16x1xi32> loc(#loc32)
    %40 = tt.splat %arg9 : (i32) -> tensor<16x1xi32> loc(#loc33)
    %41 = arith.muli %39, %40 : tensor<16x1xi32> loc(#loc33)
    %42 = tt.splat %arg3 : (!tt.ptr<f32, 1>) -> tensor<16x1x!tt.ptr<f32, 1>> loc(#loc34)
    %43 = tt.addptr %42, %41 : tensor<16x1x!tt.ptr<f32, 1>>, tensor<16x1xi32> loc(#loc34)
    %44 = tt.expand_dims %9 {axis = 0 : i32} : (tensor<128xi32>) -> tensor<1x128xi32> loc(#loc35)
    %45 = tt.broadcast %43 : (tensor<16x1x!tt.ptr<f32, 1>>) -> tensor<16x128x!tt.ptr<f32, 1>> loc(#loc36)
    %46 = tt.broadcast %44 : (tensor<1x128xi32>) -> tensor<16x128xi32> loc(#loc36)
    %47 = tt.addptr %45, %46 : tensor<16x128x!tt.ptr<f32, 1>>, tensor<16x128xi32> loc(#loc36)
    %48:3 = scf.for %arg10 = %c0_i32 to %arg5 step %c32_i32 iter_args(%arg11 = %cst_0, %arg12 = %28, %arg13 = %38) -> (tensor<16x128xf32>, tensor<16x32x!tt.ptr<f32, 1>>, tensor<32x128x!tt.ptr<f32, 1>>)  : i32 {
      %67 = tt.expand_dims %5 {axis = 1 : i32} : (tensor<16xi32>) -> tensor<16x1xi32> loc(#loc37)
      %68 = arith.cmpi slt, %67, %cst_3 : tensor<16x1xi32> loc(#loc6)
      %69 = tt.make_range {end = 32 : i32, start = 0 : i32} : tensor<32xi32> loc(#loc38)
      %70 = tt.expand_dims %69 {axis = 0 : i32} : (tensor<32xi32>) -> tensor<1x32xi32> loc(#loc39)
      %71 = tt.splat %arg5 : (i32) -> tensor<1x32xi32> loc(#loc40)
      %72 = arith.cmpi slt, %70, %71 : tensor<1x32xi32> loc(#loc40)
      %73 = tt.broadcast %68 : (tensor<16x1xi1>) -> tensor<16x32xi1> loc(#loc41)
      %74 = tt.broadcast %72 : (tensor<1x32xi1>) -> tensor<16x32xi1> loc(#loc41)
      %75 = arith.andi %73, %74 : tensor<16x32xi1> loc(#loc41)
      %76 = tt.load %arg12, %75, %cst_2 {cache = 1 : i32, evict = 1 : i32, isVolatile = false} : tensor<16x32xf32> loc(#loc5)
      %77 = tt.make_range {end = 32 : i32, start = 0 : i32} : tensor<32xi32> loc(#loc42)
      %78 = tt.expand_dims %77 {axis = 1 : i32} : (tensor<32xi32>) -> tensor<32x1xi32> loc(#loc43)
      %79 = tt.splat %arg5 : (i32) -> tensor<32x1xi32> loc(#loc44)
      %80 = arith.cmpi slt, %78, %79 : tensor<32x1xi32> loc(#loc44)
      %81 = tt.expand_dims %9 {axis = 0 : i32} : (tensor<128xi32>) -> tensor<1x128xi32> loc(#loc45)
      %82 = tt.splat %arg4 : (i32) -> tensor<1x128xi32> loc(#loc46)
      %83 = arith.cmpi slt, %81, %82 : tensor<1x128xi32> loc(#loc46)
      %84 = tt.broadcast %80 : (tensor<32x1xi1>) -> tensor<32x128xi1> loc(#loc47)
      %85 = tt.broadcast %83 : (tensor<1x128xi1>) -> tensor<32x128xi1> loc(#loc47)
      %86 = arith.andi %84, %85 : tensor<32x128xi1> loc(#loc47)
      %87 = tt.load %arg13, %86, %cst_1 {cache = 1 : i32, evict = 1 : i32, isVolatile = false} : tensor<32x128xf32> loc(#loc4)
      %88 = tt.dot %76, %87, %arg11 {allowTF32 = true, maxNumImpreciseAcc = 0 : i32} : tensor<16x32xf32> * tensor<32x128xf32> -> tensor<16x128xf32> loc(#loc66)
      %89 = tt.addptr %arg12, %cst : tensor<16x32x!tt.ptr<f32, 1>>, tensor<16x32xi32> loc(#loc2)
      %90 = arith.muli %arg8, %c32_i32 : i32 loc(#loc49)
      %91 = tt.splat %90 : (i32) -> tensor<32x128xi32> loc(#loc50)
      %92 = tt.addptr %arg13, %91 : tensor<32x128x!tt.ptr<f32, 1>>, tensor<32x128xi32> loc(#loc50)
      scf.yield %88, %89, %92 : tensor<16x128xf32>, tensor<16x32x!tt.ptr<f32, 1>>, tensor<32x128x!tt.ptr<f32, 1>> loc(#loc51)
    } loc(#loc1)
    %49 = tt.expand_dims %5 {axis = 1 : i32} : (tensor<16xi32>) -> tensor<16x1xi32> loc(#loc52)
    %50 = arith.cmpi slt, %49, %cst_3 : tensor<16x1xi32> loc(#loc53)
    %51 = tt.expand_dims %9 {axis = 0 : i32} : (tensor<128xi32>) -> tensor<1x128xi32> loc(#loc54)
    %52 = tt.splat %arg4 : (i32) -> tensor<1x128xi32> loc(#loc55)
    %53 = arith.cmpi slt, %51, %52 : tensor<1x128xi32> loc(#loc55)
    %54 = tt.broadcast %50 : (tensor<16x1xi1>) -> tensor<16x128xi1> loc(#loc56)
    %55 = tt.broadcast %53 : (tensor<1x128xi1>) -> tensor<16x128xi1> loc(#loc56)
    %56 = arith.andi %54, %55 : tensor<16x128xi1> loc(#loc56)
    %57 = tt.load %18, %56, %cst_0 {cache = 1 : i32, evict = 1 : i32, isVolatile = false} : tensor<16x128xf32> loc(#loc57)
    %58 = arith.addf %48#0, %57 : tensor<16x128xf32> loc(#loc58)
    %59 = tt.expand_dims %5 {axis = 1 : i32} : (tensor<16xi32>) -> tensor<16x1xi32> loc(#loc59)
    %60 = arith.cmpi slt, %59, %cst_3 : tensor<16x1xi32> loc(#loc60)
    %61 = tt.expand_dims %9 {axis = 0 : i32} : (tensor<128xi32>) -> tensor<1x128xi32> loc(#loc61)
    %62 = tt.splat %arg4 : (i32) -> tensor<1x128xi32> loc(#loc62)
    %63 = arith.cmpi slt, %61, %62 : tensor<1x128xi32> loc(#loc62)
    %64 = tt.broadcast %60 : (tensor<16x1xi1>) -> tensor<16x128xi1> loc(#loc63)
    %65 = tt.broadcast %63 : (tensor<1x128xi1>) -> tensor<16x128xi1> loc(#loc63)
    %66 = arith.andi %64, %65 : tensor<16x128xi1> loc(#loc63)
    tt.store %47, %58, %66 {cache = 1 : i32, evict = 1 : i32} : tensor<16x128xf32> loc(#loc64)
    tt.return loc(#loc65)
  } loc(#loc)
} loc(#loc)
#loc1 = loc("/home/meng/torch-compiler/models/lenet/torch-compile/addmm/addmm.py":43:25)
#loc2 = loc("/home/meng/torch-compiler/models/lenet/torch-compile/addmm/addmm.py":47:13)
#loc3 = loc("/home/meng/torch-compiler/models/lenet/torch-compile/addmm/addmm.py":46:25)
#loc4 = loc("/home/meng/torch-compiler/models/lenet/torch-compile/addmm/addmm.py":45:20)
#loc5 = loc("/home/meng/torch-compiler/models/lenet/torch-compile/addmm/addmm.py":44:20)
#loc6 = loc("/home/meng/torch-compiler/models/lenet/torch-compile/addmm/addmm.py":44:43)
#loc7 = loc("/home/meng/torch-compiler/models/lenet/torch-compile/addmm/addmm.py":32:17)
#loc8 = loc("/home/meng/torch-compiler/models/lenet/torch-compile/addmm/addmm.py":31:17)
#loc9 = loc("/home/meng/torch-compiler/models/lenet/torch-compile/addmm/addmm.py":27:26)
#loc10 = loc("/home/meng/torch-compiler/models/lenet/torch-compile/addmm/addmm.py":28:26)
#loc11 = loc("/home/meng/torch-compiler/models/lenet/torch-compile/addmm/addmm.py":31:40)
#loc12 = loc("/home/meng/torch-compiler/models/lenet/torch-compile/addmm/addmm.py":31:27)
#loc13 = loc("/home/meng/torch-compiler/models/lenet/torch-compile/addmm/addmm.py":32:40)
#loc14 = loc("/home/meng/torch-compiler/models/lenet/torch-compile/addmm/addmm.py":32:27)
#loc15 = loc("/home/meng/torch-compiler/models/lenet/torch-compile/addmm/addmm.py":35:15)
#loc16 = loc("/home/meng/torch-compiler/models/lenet/torch-compile/addmm/addmm.py":35:26)
#loc17 = loc("/home/meng/torch-compiler/models/lenet/torch-compile/addmm/addmm.py":35:12)
#loc18 = loc("/home/meng/torch-compiler/models/lenet/torch-compile/addmm/addmm.py":35:41)
#loc19 = loc("/home/meng/torch-compiler/models/lenet/torch-compile/addmm/addmm.py":35:38)
#loc20 = loc("/home/meng/torch-compiler/models/lenet/torch-compile/addmm/addmm.py":36:15)
#loc21 = loc("/home/meng/torch-compiler/models/lenet/torch-compile/addmm/addmm.py":36:26)
#loc22 = loc("/home/meng/torch-compiler/models/lenet/torch-compile/addmm/addmm.py":36:12)
#loc23 = loc("/home/meng/torch-compiler/models/lenet/torch-compile/addmm/addmm.py":36:51)
#loc24 = loc("/home/meng/torch-compiler/models/lenet/torch-compile/addmm/addmm.py":36:60)
#loc25 = loc("/home/meng/torch-compiler/models/lenet/torch-compile/addmm/addmm.py":36:38)
#loc26 = loc("/home/meng/torch-compiler/models/lenet/torch-compile/addmm/addmm.py":37:25)
#loc27 = loc("/home/meng/torch-compiler/models/lenet/torch-compile/addmm/addmm.py":37:34)
#loc28 = loc("/home/meng/torch-compiler/models/lenet/torch-compile/addmm/addmm.py":37:45)
#loc29 = loc("/home/meng/torch-compiler/models/lenet/torch-compile/addmm/addmm.py":37:12)
#loc30 = loc("/home/meng/torch-compiler/models/lenet/torch-compile/addmm/addmm.py":37:60)
#loc31 = loc("/home/meng/torch-compiler/models/lenet/torch-compile/addmm/addmm.py":37:57)
#loc32 = loc("/home/meng/torch-compiler/models/lenet/torch-compile/addmm/addmm.py":38:15)
#loc33 = loc("/home/meng/torch-compiler/models/lenet/torch-compile/addmm/addmm.py":38:26)
#loc34 = loc("/home/meng/torch-compiler/models/lenet/torch-compile/addmm/addmm.py":38:12)
#loc35 = loc("/home/meng/torch-compiler/models/lenet/torch-compile/addmm/addmm.py":38:41)
…
    %2299 = llvm.inline_asm has_side_effects asm_dialect = att operand_attrs = [] "cp.async.ca.shared.global [ $0 + 0 ], [ $1 + 0 ], 0x4, $2;", "r,l,r" %2179, %1945, %2298 : (!llvm.ptr<3>, !llvm.ptr<1>, i32) -> !llvm.void loc(#loc3)
    %2300 = llvm.select %2062, %41, %38 : i1, i32 loc(#loc3)
    %2301 = llvm.inline_asm has_side_effects asm_dialect = att operand_attrs = [] "cp.async.ca.shared.global [ $0 + 0 ], [ $1 + 0 ], 0x4, $2;", "r,l,r" %2186, %1946, %2300 : (!llvm.ptr<3>, !llvm.ptr<1>, i32) -> !llvm.void loc(#loc3)
    %2302 = llvm.select %2063, %41, %38 : i1, i32 loc(#loc3)
    %2303 = llvm.inline_asm has_side_effects asm_dialect = att operand_attrs = [] "cp.async.ca.shared.global [ $0 + 0 ], [ $1 + 0 ], 0x4, $2;", "r,l,r" %2191, %1947, %2302 : (!llvm.ptr<3>, !llvm.ptr<1>, i32) -> !llvm.void loc(#loc3)
    %2304 = llvm.select %2064, %41, %38 : i1, i32 loc(#loc3)
    %2305 = llvm.inline_asm has_side_effects asm_dialect = att operand_attrs = [] "cp.async.ca.shared.global [ $0 + 0 ], [ $1 + 0 ], 0x4, $2;", "r,l,r" %2196, %1948, %2304 : (!llvm.ptr<3>, !llvm.ptr<1>, i32) -> !llvm.void loc(#loc3)
    %2306 = llvm.select %2065, %41, %38 : i1, i32 loc(#loc3)
    %2307 = llvm.inline_asm has_side_effects asm_dialect = att operand_attrs = [] "cp.async.ca.shared.global [ $0 + 0 ], [ $1 + 0 ], 0x4, $2;", "r,l,r" %2201, %1949, %2306 : (!llvm.ptr<3>, !llvm.ptr<1>, i32) -> !llvm.void loc(#loc3)
    %2308 = llvm.select %2066, %41, %38 : i1, i32 loc(#loc3)
    %2309 = llvm.inline_asm has_side_effects asm_dialect = att operand_attrs = [] "cp.async.ca.shared.global [ $0 + 0 ], [ $1 + 0 ], 0x4, $2;", "r,l,r" %2208, %1950, %2308 : (!llvm.ptr<3>, !llvm.ptr<1>, i32) -> !llvm.void loc(#loc3)
    %2310 = llvm.select %2067, %41, %38 : i1, i32 loc(#loc3)
    %2311 = llvm.inline_asm has_side_effects asm_dialect = att operand_attrs = [] "cp.async.ca.shared.global [ $0 + 0 ], [ $1 + 0 ], 0x4, $2;", "r,l,r" %2213, %1951, %2310 : (!llvm.ptr<3>, !llvm.ptr<1>, i32) -> !llvm.void loc(#loc3)
    %2312 = llvm.select %2068, %41, %38 : i1, i32 loc(#loc3)
    %2313 = llvm.inline_asm has_side_effects asm_dialect = att operand_attrs = [] "cp.async.ca.shared.global [ $0 + 0 ], [ $1 + 0 ], 0x4, $2;", "r,l,r" %2218, %1952, %2312 : (!llvm.ptr<3>, !llvm.ptr<1>, i32) -> !llvm.void loc(#loc3)
    %2314 = llvm.select %2069, %41, %38 : i1, i32 loc(#loc3)
    %2315 = llvm.inline_asm has_side_effects asm_dialect = att operand_attrs = [] "cp.async.ca.shared.global [ $0 + 0 ], [ $1 + 0 ], 0x4, $2;", "r,l,r" %2223, %1953, %2314 : (!llvm.ptr<3>, !llvm.ptr<1>, i32) -> !llvm.void loc(#loc3)
    %2316 = llvm.select %2070, %41, %38 : i1, i32 loc(#loc3)
    %2317 = llvm.inline_asm has_side_effects asm_dialect = att operand_attrs = [] "cp.async.ca.shared.global [ $0 + 0 ], [ $1 + 0 ], 0x4, $2;", "r,l,r" %2230, %1954, %2316 : (!llvm.ptr<3>, !llvm.ptr<1>, i32) -> !llvm.void loc(#loc3)
    %2318 = llvm.select %2071, %41, %38 : i1, i32 loc(#loc3)
    %2319 = llvm.inline_asm has_side_effects asm_dialect = att operand_attrs = [] "cp.async.ca.shared.global [ $0 + 0 ], [ $1 + 0 ], 0x4, $2;", "r,l,r" %2235, %1955, %2318 : (!llvm.ptr<3>, !llvm.ptr<1>, i32) -> !llvm.void loc(#loc3)
    %2320 = llvm.select %2072, %41, %38 : i1, i32 loc(#loc3)
    %2321 = llvm.inline_asm has_side_effects asm_dialect = att operand_attrs = [] "cp.async.ca.shared.global [ $0 + 0 ], [ $1 + 0 ], 0x4, $2;", "r,l,r" %2240, %1956, %2320 : (!llvm.ptr<3>, !llvm.ptr<1>, i32) -> !llvm.void loc(#loc3)
    %2322 = llvm.select %2073, %41, %38 : i1, i32 loc(#loc3)
    %2323 = llvm.inline_asm has_side_effects asm_dialect = att operand_attrs = [] "cp.async.ca.shared.global [ $0 + 0 ], [ $1 + 0 ], 0x4, $2;", "r,l,r" %2245, %1957, %2322 : (!llvm.ptr<3>, !llvm.ptr<1>, i32) -> !llvm.void loc(#loc3)
    %2324 = llvm.select %2074, %41, %38 : i1, i32 loc(#loc3)
    %2325 = llvm.inline_asm has_side_effects asm_dialect = att operand_attrs = [] "cp.async.ca.shared.global [ $0 + 0 ], [ $1 + 0 ], 0x4, $2;", "r,l,r" %2252, %1958, %2324 : (!llvm.ptr<3>, !llvm.ptr<1>, i32) -> !llvm.void loc(#loc3)
    %2326 = llvm.select %2075, %41, %38 : i1, i32 loc(#loc3)
    %2327 = llvm.inline_asm has_side_effects asm_dialect = att operand_attrs = [] "cp.async.ca.shared.global [ $0 + 0 ], [ $1 + 0 ], 0x4, $2;", "r,l,r" %2257, %1959, %2326 : (!llvm.ptr<3>, !llvm.ptr<1>, i32) -> !llvm.void loc(#loc3)
    %2328 = llvm.select %2076, %41, %38 : i1, i32 loc(#loc3)
    %2329 = llvm.inline_asm has_side_effects asm_dialect = att operand_attrs = [] "cp.async.ca.shared.global [ $0 + 0 ], [ $1 + 0 ], 0x4, $2;", "r,l,r" %2262, %1960, %2328 : (!llvm.ptr<3>, !llvm.ptr<1>, i32) -> !llvm.void loc(#loc3)
    %2330 = llvm.select %2077, %41, %38 : i1, i32 loc(#loc3)
    %2331 = llvm.inline_asm has_side_effects asm_dialect = att operand_attrs = [] "cp.async.ca.shared.global [ $0 + 0 ], [ $1 + 0 ], 0x4, $2;", "r,l,r" %2267, %1961, %2330 : (!llvm.ptr<3>, !llvm.ptr<1>, i32) -> !llvm.void loc(#loc3)
    %2332 = llvm.inline_asm has_side_effects asm_dialect = att operand_attrs = [] "cp.async.commit_group ;", ""  : () -> !llvm.void loc(#loc3)
    %2333 = llvm.add %1513, %40  : i32 loc(#loc2)
    %2334 = llvm.icmp "slt" %2333, %37 : i32 loc(#loc2)
    %2335 = llvm.select %2334, %2333, %38 : i1, i32 loc(#loc2)
    %2336 = llvm.inline_asm has_side_effects asm_dialect = att operand_attrs = [] "cp.async.wait_group 0x2;", ""  : () -> !llvm.void loc(#loc4)
    nvvm.barrier0 loc(#loc4)
    %2337 = llvm.extractvalue %1516[0] : !llvm.struct<(ptr<3>, i32, i32, i32, i32, i32, i32)>  loc(#loc4)
    %2338 = llvm.extractvalue %1516[1] : !llvm.struct<(ptr<3>, i32, i32, i32, i32, i32, i32)>  loc(#loc4)
    %2339 = llvm.extractvalue %1516[2] : !llvm.struct<(ptr<3>, i32, i32, i32, i32, i32, i32)>  loc(#loc4)
    %2340 = llvm.extractvalue %1516[3] : !llvm.struct<(ptr<3>, i32, i32, i32, i32, i32, i32)>  loc(#loc4)
    %2341 = llvm.extractvalue %1516[5] : !llvm.struct<(ptr<3>, i32, i32, i32, i32, i32, i32)>  loc(#loc4)
    %2342 = llvm.extractvalue %1516[6] : !llvm.struct<(ptr<3>, i32, i32, i32, i32, i32, i32)>  loc(#loc4)
    %2343 = llvm.add %2341, %38  : i32 loc(#loc4)
    %2344 = llvm.add %2342, %38  : i32 loc(#loc4)
    %2345 = llvm.mul %2335, %2338  : i32 loc(#loc4)
    %2346 = llvm.add %2345, %38  : i32 loc(#loc4)
    %2347 = llvm.mul %2339, %38  : i32 loc(#loc4)
    %2348 = llvm.add %2346, %2347  : i32 loc(#loc4)
    %2349 = llvm.mul %2340, %38  : i32 loc(#loc4)
    %2350 = llvm.add %2348, %2349  : i32 loc(#loc4)
    %2351 = llvm.getelementptr %2337[%2350] : (!llvm.ptr<3>, i32) -> !llvm.ptr<3>, f32 loc(#loc4)
    %2352 = llvm.insertvalue %2351, %1362[0] : !llvm.struct<(ptr<3>, i32, i32, i32, i32)>  loc(#loc4)
    %2353 = llvm.insertvalue %2339, %2352[1] : !llvm.struct<(ptr<3>, i32, i32, i32, i32)>  loc(#loc4)
    %2354 = llvm.insertvalue %2340, %2353[2] : !llvm.struct<(ptr<3>, i32, i32, i32, i32)>  loc(#loc4)
    %2355 = llvm.insertvalue %2343, %2354[3] : !llvm.struct<(ptr<3>, i32, i32, i32, i32)>  loc(#loc4)
    %2356 = llvm.insertvalue %2344, %2355[4] : !llvm.struct<(ptr<3>, i32, i32, i32, i32)>  loc(#loc4)
    %2357 = llvm.extractvalue %1517[0] : !llvm.struct<(ptr<3>, i32, i32, i32, i32, i32, i32)>  loc(#loc3)
    %2358 = llvm.extractvalue %1517[1] : !llvm.struct<(ptr<3>, i32, i32, i32, i32, i32, i32)>  loc(#loc3)
    %2359 = llvm.extractvalue %1517[2] : !llvm.struct<(ptr<3>, i32, i32, i32, i32, i32, i32)>  loc(#loc3)
    %2360 = llvm.extractvalue %1517[3] : !llvm.struct<(ptr<3>, i32, i32, i32, i32, i32, i32)>  loc(#loc3)
    %2361 = llvm.extractvalue %1517[5] : !llvm.struct<(ptr<3>, i32, i32, i32, i32, i32, i32)>  loc(#loc3)
    %2362 = llvm.extractvalue %1517[6] : !llvm.struct<(ptr<3>, i32, i32, i32, i32, i32, i32)>  loc(#loc3)
    %2363 = llvm.add %2361, %38  : i32 loc(#loc3)
    %2364 = llvm.add %2362, %38  : i32 loc(#loc3)
    %2365 = llvm.mul %2335, %2358  : i32 loc(#loc3)
    %2366 = llvm.add %2365, %38  : i32 loc(#loc3)
    %2367 = llvm.mul %2359, %38  : i32 loc(#loc3)
    %2368 = llvm.add %2366, %2367  : i32 loc(#loc3)
    %2369 = llvm.mul %2360, %38  : i32 loc(#loc3)
    %2370 = llvm.add %2368, %2369  : i32 loc(#loc3)
    %2371 = llvm.getelementptr %2357[%2370] : (!llvm.ptr<3>, i32) -> !llvm.ptr<3>, f32 loc(#loc3)
    %2372 = llvm.insertvalue %2371, %1362[0] : !llvm.struct<(ptr<3>, i32, i32, i32, i32)>  loc(#loc3)
    %2373 = llvm.insertvalue %2359, %2372[1] : !llvm.struct<(ptr<3>, i32, i32, i32, i32)>  loc(#loc3)
    %2374 = llvm.insertvalue %2360, %2373[2] : !llvm.struct<(ptr<3>, i32, i32, i32, i32)>  loc(#loc3)
    %2375 = llvm.insertvalue %2363, %2374[3] : !llvm.struct<(ptr<3>, i32, i32, i32, i32)>  loc(#loc3)
    %2376 = llvm.insertvalue %2364, %2375[4] : !llvm.struct<(ptr<3>, i32, i32, i32, i32)>  loc(#loc3)
    %2377 = llvm.add %2344, %38  : i32 loc(#loc4)
    %2378 = llvm.add %2347, %38  : i32 loc(#loc4)
    %2379 = llvm.add %2378, %2349  : i32 loc(#loc4)
    %2380 = llvm.getelementptr %2351[%2379] : (!llvm.ptr<3>, i32) -> !llvm.ptr<3>, f32 loc(#loc4)
    %2381 = llvm.udiv %2377, %41  : i32 loc(#loc4)
    %2382 = llvm.add %1391, %2381  : i32 loc(#loc4)
    %2383 = llvm.xor %2382, %1386  : i32 loc(#loc4)
    %2384 = llvm.mul %1389, %2339  : i32 loc(#loc4)
    %2385 = llvm.mul %2383, %41  : i32 loc(#loc4)
    %2386 = llvm.add %2385, %2384  : i32 loc(#loc4)
    %2387 = llvm.sub %38, %2377  : i32 loc(#loc4)
    %2388 = llvm.getelementptr %2380[%2387] : (!llvm.ptr<3>, i32) -> !llvm.ptr<3>, f32 loc(#loc4)
    %2389 = llvm.getelementptr %2388[%2386] : (!llvm.ptr<3>, i32) -> !llvm.ptr<3>, f32 loc(#loc4)
    %2390 = llvm.getelementptr %2389[%2347] : (!llvm.ptr<3>, i32) -> !llvm.ptr<3>, f32 loc(#loc4)
    %2391 = llvm.inline_asm has_side_effects asm_dialect = att operand_attrs = [] "ldmatrix.sync.aligned.m8n8.x4.shared.b16 { $0, $1, $2, $3 }, [ $4 + 0 ];", "=r,=r,=r,=r,r" %2390 : (!llvm.ptr<3>) -> !llvm.struct<(i32, i32, i32, i32)> loc(#loc4)
    %2392 = llvm.extractvalue %2391[0] : !llvm.struct<(i32, i32, i32, i32)>  loc(#loc4)
    %2393 = llvm.extractvalue %2391[1] : !llvm.struct<(i32, i32, i32, i32)>  loc(#loc4)
    %2394 = llvm.extractvalue %2391[2] : !llvm.struct<(i32, i32, i32, i32)>  loc(#loc4)
    %2395 = llvm.extractvalue %2391[3] : !llvm.struct<(i32, i32, i32, i32)>  loc(#loc4)
    %2396 = llvm.insertvalue %2392, %1406[0] : !llvm.struct<(i32, i32, i32, i32)>  loc(#loc4)
    %2397 = llvm.insertvalue %2394, %2396[1] : !llvm.struct<(i32, i32, i32, i32)>  loc(#loc4)
    %2398 = llvm.insertvalue %2393, %2397[2] : !llvm.struct<(i32, i32, i32, i32)>  loc(#loc4)
    %2399 = llvm.insertvalue %2395, %2398[3] : !llvm.struct<(i32, i32, i32, i32)>  loc(#loc4)
    %2400 = llvm.add %2364, %38  : i32 loc(#loc3)
    %2401 = llvm.add %2367, %38  : i32 loc(#loc3)
    %2402 = llvm.add %2401, %2369  : i32 loc(#loc3)
    %2403 = llvm.getelementptr %2371[%2402] : (!llvm.ptr<3>, i32) -> !llvm.ptr<3>, f32 loc(#loc3)
    %2404 = llvm.udiv %2400, %32  : i32 loc(#loc3)
    %2405 = llvm.add %1420, %2404  : i32 loc(#loc3)
    %2406 = llvm.xor %2405, %1422  : i32 loc(#loc3)
    %2407 = llvm.mul %2406, %32  : i32 loc(#loc3)
    %2408 = llvm.add %1414, %2407  : i32 loc(#loc3)
    %2409 = llvm.mul %1429, %2359  : i32 loc(#loc3)
    %2410 = llvm.add %2408, %2409  : i32 loc(#loc3)
    %2411 = llvm.add %1433, %2404  : i32 loc(#loc3)
    %2412 = llvm.xor %2411, %1422  : i32 loc(#loc3)
    %2413 = llvm.mul %2412, %32  : i32 loc(#loc3)
    %2414 = llvm.add %1414, %2413  : i32 loc(#loc3)
    %2415 = llvm.add %2414, %2409  : i32 loc(#loc3)
    %2416 = llvm.sub %38, %2400  : i32 loc(#loc3)
    %2417 = llvm.getelementptr %2403[%2416] : (!llvm.ptr<3>, i32) -> !llvm.ptr<3>, f32 loc(#loc3)
    %2418 = llvm.getelementptr %2417[%2410] : (!llvm.ptr<3>, i32) -> !llvm.ptr<3>, f32 loc(#loc3)
    %2419 = llvm.getelementptr %2417[%2415] : (!llvm.ptr<3>, i32) -> !llvm.ptr<3>, f32 loc(#loc3)
    %2420 = llvm.mul %2359, %41  : i32 loc(#loc3)
    %2421 = llvm.getelementptr %2418[%2367] : (!llvm.ptr<3>, i32) -> !llvm.ptr<3>, f32 loc(#loc3)
    %2422 = llvm.getelementptr %2418[%2420] : (!llvm.ptr<3>, i32) -> !llvm.ptr<3>, f32 loc(#loc3)
    %2423 = llvm.getelementptr %2419[%2367] : (!llvm.ptr<3>, i32) -> !llvm.ptr<3>, f32 loc(#loc3)
    %2424 = llvm.getelementptr %2419[%2420] : (!llvm.ptr<3>, i32) -> !llvm.ptr<3>, f32 loc(#loc3)
    %2425 = llvm.load %2421 : !llvm.ptr<3> -> vector<1xi32> loc(#loc3)
    %2426 = llvm.extractelement %2425[%38 : i32] : vector<1xi32> loc(#loc3)
    %2427 = llvm.insertelement %2426, %1446[%38 : i32] : vector<1xi32> loc(#loc3)
    %2428 = llvm.load %2423 : !llvm.ptr<3> -> vector<1xi32> loc(#loc3)
    %2429 = llvm.extractelement %2428[%38 : i32] : vector<1xi32> loc(#loc3)
    %2430 = llvm.insertelement %2429, %1446[%38 : i32] : vector<1xi32> loc(#loc3)
    %2431 = llvm.load %2422 : !llvm.ptr<3> -> vector<1xi32> loc(#loc3)
    %2432 = llvm.extractelement %2431[%38 : i32] : vector<1xi32> loc(#loc3)
    %2433 = llvm.insertelement %2432, %1446[%38 : i32] : vector<1xi32> loc(#loc3)
    %2434 = llvm.load %2424 : !llvm.ptr<3> -> vector<1xi32> loc(#loc3)
    %2435 = llvm.extractelement %2434[%38 : i32] : vector<1xi32> loc(#loc3)
    %2436 = llvm.insertelement %2435, %1446[%38 : i32] : vector<1xi32> loc(#loc3)
    %2437 = llvm.bitcast %2427 : vector<1xi32> to i32 loc(#loc3)
    %2438 = llvm.bitcast %2433 : vector<1xi32> to i32 loc(#loc3)
    %2439 = llvm.bitcast %2430 : vector<1xi32> to i32 loc(#loc3)
    %2440 = llvm.bitcast %2436 : vector<1xi32> to i32 loc(#loc3)
    %2441 = llvm.add %1463, %2404  : i32 loc(#loc3)
    %2442 = llvm.xor %2441, %1422  : i32 loc(#loc3)
    %2443 = llvm.mul %2442, %32  : i32 loc(#loc3)
    %2444 = llvm.add %1414, %2443  : i32 loc(#loc3)
    %2445 = llvm.add %2444, %2409  : i32 loc(#loc3)
    %2446 = llvm.add %1469, %2404  : i32 loc(#loc3)
    %2447 = llvm.xor %2446, %1422  : i32 loc(#loc3)
    %2448 = llvm.mul %2447, %32  : i32 loc(#loc3)
    %2449 = llvm.add %1414, %2448  : i32 loc(#loc3)
    %2450 = llvm.add %2449, %2409  : i32 loc(#loc3)
    %2451 = llvm.getelementptr %2417[%2445] : (!llvm.ptr<3>, i32) -> !llvm.ptr<3>, f32 loc(#loc3)
    %2452 = llvm.getelementptr %2417[%2450] : (!llvm.ptr<3>, i32) -> !llvm.ptr<3>, f32 loc(#loc3)
    %2453 = llvm.getelementptr %2451[%2367] : (!llvm.ptr<3>, i32) -> !llvm.ptr<3>, f32 loc(#loc3)
    %2454 = llvm.getelementptr %2451[%2420] : (!llvm.ptr<3>, i32) -> !llvm.ptr<3>, f32 loc(#loc3)
    %2455 = llvm.getelementptr %2452[%2367] : (!llvm.ptr<3>, i32) -> !llvm.ptr<3>, f32 loc(#loc3)
    %2456 = llvm.getelementptr %2452[%2420] : (!llvm.ptr<3>, i32) -> !llvm.ptr<3>, f32 loc(#loc3)
    %2457 = llvm.load %2453 : !llvm.ptr<3> -> vector<1xi32> loc(#loc3)
    %2458 = llvm.extractelement %2457[%38 : i32] : vector<1xi32> loc(#loc3)
    %2459 = llvm.insertelement %2458, %1446[%38 : i32] : vector<1xi32> loc(#loc3)
    %2460 = llvm.load %2455 : !llvm.ptr<3> -> vector<1xi32> loc(#loc3)
    %2461 = llvm.extractelement %2460[%38 : i32] : vector<1xi32> loc(#loc3)
    %2462 = llvm.insertelement %2461, %1446[%38 : i32] : vector<1xi32> loc(#loc3)
    %2463 = llvm.load %2454 : !llvm.ptr<3> -> vector<1xi32> loc(#loc3)
    %2464 = llvm.extractelement %2463[%38 : i32] : vector<1xi32> loc(#loc3)
    %2465 = llvm.insertelement %2464, %1446[%38 : i32] : vector<1xi32> loc(#loc3)
    %2466 = llvm.load %2456 : !llvm.ptr<3> -> vector<1xi32> loc(#loc3)
    %2467 = llvm.extractelement %2466[%38 : i32] : vector<1xi32> loc(#loc3)
    %2468 = llvm.insertelement %2467, %1446[%38 : i32] : vector<1xi32> loc(#loc3)
    %2469 = llvm.bitcast %2459 : vector<1xi32> to i32 loc(#loc3)
    %2470 = llvm.bitcast %2465 : vector<1xi32> to i32 loc(#loc3)
    %2471 = llvm.bitcast %2462 : vector<1xi32> to i32 loc(#loc3)
    %2472 = llvm.bitcast %2468 : vector<1xi32> to i32 loc(#loc3)
    %2473 = llvm.insertvalue %2437, %1497[0] : !llvm.struct<(i32, i32, i32, i32, i32, i32, i32, i32)>  loc(#loc3)
    %2474 = llvm.insertvalue %2438, %2473[1] : !llvm.struct<(i32, i32, i32, i32, i32, i32, i32, i32)>  loc(#loc3)
    %2475 = llvm.insertvalue %2439, %2474[2] : !llvm.struct<(i32, i32, i32, i32, i32, i32, i32, i32)>  loc(#loc3)
    %2476 = llvm.insertvalue %2440, %2475[3] : !llvm.struct<(i32, i32, i32, i32, i32, i32, i32, i32)>  loc(#loc3)
    %2477 = llvm.insertvalue %2469, %2476[4] : !llvm.struct<(i32, i32, i32, i32, i32, i32, i32, i32)>  loc(#loc3)
    %2478 = llvm.insertvalue %2470, %2477[5] : !llvm.struct<(i32, i32, i32, i32, i32, i32, i32, i32)>  loc(#loc3)
    %2479 = llvm.insertvalue %2471, %2478[6] : !llvm.struct<(i32, i32, i32, i32, i32, i32, i32, i32)>  loc(#loc3)
    %2480 = llvm.insertvalue %2472, %2479[7] : !llvm.struct<(i32, i32, i32, i32, i32, i32, i32, i32)>  loc(#loc3)
    %2481 = llvm.add %1506, %42  : i32 loc(#loc2)
    llvm.br ^bb1(%2481, %1885, %1897, %1993, %1510, %1511, %1996, %2335, %2356, %2376, %1510, %1511, %2399, %2480 : i32, !llvm.struct<(f32, f32, f32, f32, f32, f32, f32, f32, f32, f32, f32, f32, f32, f32, f32, f32)>, !llvm.struct<(ptr<1>, ptr<1>, ptr<1>, ptr<1>)>, !llvm.struct<(ptr<1>, ptr<1>, ptr<1>, ptr<1>, ptr<1>, ptr<1>, ptr<1>, ptr<1>, ptr<1>, ptr<1>, ptr<1>, ptr<1>, ptr<1>, ptr<1>, ptr<1>, ptr<1>, ptr<1>, ptr<1>, ptr<1>, ptr<1>, ptr<1>, ptr<1>, ptr<1>, ptr<1>, ptr<1>, ptr<1>, ptr<1>, ptr<1>, ptr<1>, ptr<1>, ptr<1>, ptr<1>)>, !llvm.struct<(ptr<3>, i32, i32, i32, i32, i32, i32)>, !llvm.struct<(ptr<3>, i32, i32, i32, i32, i32, i32)>, i32, i32, !llvm.struct<(ptr<3>, i32, i32, i32, i32)>, !llvm.struct<(ptr<3>, i32, i32, i32, i32)>, !llvm.struct<(ptr<3>, i32, i32, i32, i32, i32, i32)>, !llvm.struct<(ptr<3>, i32, i32, i32, i32, i32, i32)>, !llvm.struct<(i32, i32, i32, i32)>, !llvm.struct<(i32, i32, i32, i32, i32, i32, i32, i32)>) loc(#loc2)
  ^bb3:  // pred: ^bb1
    %2482 = llvm.inline_asm has_side_effects asm_dialect = att operand_attrs = [] "cp.async.wait_group 0x0;", ""  : () -> !llvm.void loc(#loc2)
    nvvm.barrier0 loc(#loc2)
    %2483 = llvm.extractvalue %1507[0] : !llvm.struct<(f32, f32, f32, f32, f32, f32, f32, f32, f32, f32, f32, f32, f32, f32, f32, f32)>  loc(#loc2)
    %2484 = llvm.extractvalue %1507[1] : !llvm.struct<(f32, f32, f32, f32, f32, f32, f32, f32, f32, f32, f32, f32, f32, f32, f32, f32)>  loc(#loc2)
    %2485 = llvm.extractvalue %1507[2] : !llvm.struct<(f32, f32, f32, f32, f32, f32, f32, f32, f32, f32, f32, f32, f32, f32, f32, f32)>  loc(#loc2)
    %2486 = llvm.extractvalue %1507[3] : !llvm.struct<(f32, f32, f32, f32, f32, f32, f32, f32, f32, f32, f32, f32, f32, f32, f32, f32)>  loc(#loc2)
    %2487 = llvm.extractvalue %1507[4] : !llvm.struct<(f32, f32, f32, f32, f32, f32, f32, f32, f32, f32, f32, f32, f32, f32, f32, f32)>  loc(#loc2)
    %2488 = llvm.extractvalue %1507[5] : !llvm.struct<(f32, f32, f32, f32, f32, f32, f32, f32, f32, f32, f32, f32, f32, f32, f32, f32)>  loc(#loc2)
    %2489 = llvm.extractvalue %1507[6] : !llvm.struct<(f32, f32, f32, f32, f32, f32, f32, f32, f32, f32, f32, f32, f32, f32, f32, f32)>  loc(#loc2)
    %2490 = llvm.extractvalue %1507[7] : !llvm.struct<(f32, f32, f32, f32, f32, f32, f32, f32, f32, f32, f32, f32, f32, f32, f32, f32)>  loc(#loc2)
    %2491 = llvm.extractvalue %1507[8] : !llvm.struct<(f32, f32, f32, f32, f32, f32, f32, f32, f32, f32, f32, f32, f32, f32, f32, f32)>  loc(#loc2)
    %2492 = llvm.extractvalue %1507[9] : !llvm.struct<(f32, f32, f32, f32, f32, f32, f32, f32, f32, f32, f32, f32, f32, f32, f32, f32)>  loc(#loc2)
    %2493 = llvm.extractvalue %1507[10] : !llvm.struct<(f32, f32, f32, f32, f32, f32, f32, f32, f32, f32, f32, f32, f32, f32, f32, f32)>  loc(#loc2)
    %2494 = llvm.extractvalue %1507[11] : !llvm.struct<(f32, f32, f32, f32, f32, f32, f32, f32, f32, f32, f32, f32, f32, f32, f32, f32)>  loc(#loc2)
    %2495 = llvm.extractvalue %1507[12] : !llvm.struct<(f32, f32, f32, f32, f32, f32, f32, f32, f32, f32, f32, f32, f32, f32, f32, f32)>  loc(#loc2)
    %2496 = llvm.extractvalue %1507[13] : !llvm.struct<(f32, f32, f32, f32, f32, f32, f32, f32, f32, f32, f32, f32, f32, f32, f32, f32)>  loc(#loc2)
    %2497 = llvm.extractvalue %1507[14] : !llvm.struct<(f32, f32, f32, f32, f32, f32, f32, f32, f32, f32, f32, f32, f32, f32, f32, f32)>  loc(#loc2)
    %2498 = llvm.extractvalue %1507[15] : !llvm.struct<(f32, f32, f32, f32, f32, f32, f32, f32, f32, f32, f32, f32, f32, f32, f32, f32)>  loc(#loc2)
    %2499 = llvm.mul %1415, %37  : i32 loc(#loc2)
    %2500 = llvm.mul %1376, %39  : i32 loc(#loc2)
    %2501 = llvm.add %1414, %2500  : i32 loc(#loc2)
    %2502 = llvm.mul %1413, %32  : i32 loc(#loc2)
    %2503 = llvm.add %2499, %2502  : i32 loc(#loc2)
    %2504 = llvm.add %2501, %38  : i32 loc(#loc2)
    %2505 = llvm.add %2503, %38  : i32 loc(#loc2)
    %2506 = llvm.mul %2504, %3  : i32 loc(#loc2)
    %2507 = llvm.add %2506, %2505  : i32 loc(#loc2)
    %2508 = llvm.getelementptr %185[%2507] : (!llvm.ptr<3>, i32) -> !llvm.ptr<3>, f32 loc(#loc2)
    %2509 = llvm.mlir.undef : vector<2xf32> loc(#loc2)
    %2510 = llvm.insertelement %2483, %2509[%38 : i32] : vector<2xf32> loc(#loc2)
    %2511 = llvm.insertelement %2484, %2510[%40 : i32] : vector<2xf32> loc(#loc2)
    llvm.store %2511, %2508 : vector<2xf32>, !llvm.ptr<3> loc(#loc2)
    %2512 = llvm.add %1414, %32  : i32 loc(#loc2)
    %2513 = llvm.add %2512, %2500  : i32 loc(#loc2)
    %2514 = llvm.add %2513, %38  : i32 loc(#loc2)
    %2515 = llvm.mul %2514, %3  : i32 loc(#loc2)
    %2516 = llvm.add %2515, %2505  : i32 loc(#loc2)
    %2517 = llvm.getelementptr %185[%2516] : (!llvm.ptr<3>, i32) -> !llvm.ptr<3>, f32 loc(#loc2)
    %2518 = llvm.insertelement %2485, %2509[%38 : i32] : vector<2xf32> loc(#loc2)
    %2519 = llvm.insertelement %2486, %2518[%40 : i32] : vector<2xf32> loc(#loc2)
    llvm.store %2519, %2517 : vector<2xf32>, !llvm.ptr<3> loc(#loc2)
    %2520 = llvm.add %2503, %42  : i32 loc(#loc2)
    %2521 = llvm.add %2506, %2520  : i32 loc(#loc2)
    %2522 = llvm.getelementptr %185[%2521] : (!llvm.ptr<3>, i32) -> !llvm.ptr<3>, f32 loc(#loc2)
    %2523 = llvm.insertelement %2487, %2509[%38 : i32] : vector<2xf32> loc(#loc2)
    %2524 = llvm.insertelement %2488, %2523[%40 : i32] : vector<2xf32> loc(#loc2)
    llvm.store %2524, %2522 : vector<2xf32>, !llvm.ptr<3> loc(#loc2)
    %2525 = llvm.add %2515, %2520  : i32 loc(#loc2)
    %2526 = llvm.getelementptr %185[%2525] : (!llvm.ptr<3>, i32) -> !llvm.ptr<3>, f32 loc(#loc2)
    %2527 = llvm.insertelement %2489, %2509[%38 : i32] : vector<2xf32> loc(#loc2)
    %2528 = llvm.insertelement %2490, %2527[%40 : i32] : vector<2xf32> loc(#loc2)
    llvm.store %2528, %2526 : vector<2xf32>, !llvm.ptr<3> loc(#loc2)
    %2529 = llvm.add %2503, %2  : i32 loc(#loc2)
    %2530 = llvm.add %2506, %2529  : i32 loc(#loc2)
    %2531 = llvm.getelementptr %185[%2530] : (!llvm.ptr<3>, i32) -> !llvm.ptr<3>, f32 loc(#loc2)
    %2532 = llvm.insertelement %2491, %2509[%38 : i32] : vector<2xf32> loc(#loc2)
    %2533 = llvm.insertelement %2492, %2532[%40 : i32] : vector<2xf32> loc(#loc2)
    llvm.store %2533, %2531 : vector<2xf32>, !llvm.ptr<3> loc(#loc2)
    %2534 = llvm.add %2515, %2529  : i32 loc(#loc2)
    %2535 = llvm.getelementptr %185[%2534] : (!llvm.ptr<3>, i32) -> !llvm.ptr<3>, f32 loc(#loc2)
    %2536 = llvm.insertelement %2493, %2509[%38 : i32] : vector<2xf32> loc(#loc2)
    %2537 = llvm.insertelement %2494, %2536[%40 : i32] : vector<2xf32> loc(#loc2)
    llvm.store %2537, %2535 : vector<2xf32>, !llvm.ptr<3> loc(#loc2)
    %2538 = llvm.add %2503, %1  : i32 loc(#loc2)
    %2539 = llvm.add %2506, %2538  : i32 loc(#loc2)
    %2540 = llvm.getelementptr %185[%2539] : (!llvm.ptr<3>, i32) -> !llvm.ptr<3>, f32 loc(#loc2)
    %2541 = llvm.insertelement %2495, %2509[%38 : i32] : vector<2xf32> loc(#loc2)
    %2542 = llvm.insertelement %2496, %2541[%40 : i32] : vector<2xf32> loc(#loc2)
    llvm.store %2542, %2540 : vector<2xf32>, !llvm.ptr<3> loc(#loc2)
    %2543 = llvm.add %2515, %2538  : i32 loc(#loc2)
    %2544 = llvm.getelementptr %185[%2543] : (!llvm.ptr<3>, i32) -> !llvm.ptr<3>, f32 loc(#loc2)
    %2545 = llvm.insertelement %2497, %2509[%38 : i32] : vector<2xf32> loc(#loc2)
    %2546 = llvm.insertelement %2498, %2545[%40 : i32] : vector<2xf32> loc(#loc2)
    llvm.store %2546, %2544 : vector<2xf32>, !llvm.ptr<3> loc(#loc2)
    nvvm.barrier0 loc(#loc2)
    %2547 = llvm.add %54, %38  : i32 loc(#loc2)
    %2548 = llvm.mul %2547, %3  : i32 loc(#loc2)
    %2549 = llvm.add %2548, %153  : i32 loc(#loc2)
    %2550 = llvm.getelementptr %185[%2549] : (!llvm.ptr<3>, i32) -> !llvm.ptr<3>, f32 loc(#loc2)
    %2551 = llvm.load %2550 : !llvm.ptr<3> -> vector<1xf32> loc(#loc2)
    %2552 = llvm.extractelement %2551[%38 : i32] : vector<1xf32> loc(#loc2)
    %2553 = llvm.add %54, %40  : i32 loc(#loc2)
    %2554 = llvm.mul %2553, %3  : i32 loc(#loc2)
    %2555 = llvm.add %2554, %153  : i32 loc(#loc2)
    %2556 = llvm.getelementptr %185[%2555] : (!llvm.ptr<3>, i32) -> !llvm.ptr<3>, f32 loc(#loc2)
    %2557 = llvm.load %2556 : !llvm.ptr<3> -> vector<1xf32> loc(#loc2)
    %2558 = llvm.extractelement %2557[%38 : i32] : vector<1xf32> loc(#loc2)
    %2559 = llvm.add %54, %37  : i32 loc(#loc2)
    %2560 = llvm.mul %2559, %3  : i32 loc(#loc2)
    %2561 = llvm.add %2560, %153  : i32 loc(#loc2)
    %2562 = llvm.getelementptr %185[%2561] : (!llvm.ptr<3>, i32) -> !llvm.ptr<3>, f32 loc(#loc2)
    %2563 = llvm.load %2562 : !llvm.ptr<3> -> vector<1xf32> loc(#loc2)
    %2564 = llvm.extractelement %2563[%38 : i32] : vector<1xf32> loc(#loc2)
    %2565 = llvm.add %54, %36  : i32 loc(#loc2)
    %2566 = llvm.mul %2565, %3  : i32 loc(#loc2)
    %2567 = llvm.add %2566, %153  : i32 loc(#loc2)
    %2568 = llvm.getelementptr %185[%2567] : (!llvm.ptr<3>, i32) -> !llvm.ptr<3>, f32 loc(#loc2)
    %2569 = llvm.load %2568 : !llvm.ptr<3> -> vector<1xf32> loc(#loc2)
    %2570 = llvm.extractelement %2569[%38 : i32] : vector<1xf32> loc(#loc2)
    %2571 = llvm.add %54, %41  : i32 loc(#loc2)
    %2572 = llvm.mul %2571, %3  : i32 loc(#loc2)
    %2573 = llvm.add %2572, %153  : i32 loc(#loc2)
    %2574 = llvm.getelementptr %185[%2573] : (!llvm.ptr<3>, i32) -> !llvm.ptr<3>, f32 loc(#loc2)
    %2575 = llvm.load %2574 : !llvm.ptr<3> -> vector<1xf32> loc(#loc2)
    %2576 = llvm.extractelement %2575[%38 : i32] : vector<1xf32> loc(#loc2)
    %2577 = llvm.add %54, %35  : i32 loc(#loc2)
    %2578 = llvm.mul %2577, %3  : i32 loc(#loc2)
    %2579 = llvm.add %2578, %153  : i32 loc(#loc2)
    %2580 = llvm.getelementptr %185[%2579] : (!llvm.ptr<3>, i32) -> !llvm.ptr<3>, f32 loc(#loc2)
    %2581 = llvm.load %2580 : !llvm.ptr<3> -> vector<1xf32> loc(#loc2)
    %2582 = llvm.extractelement %2581[%38 : i32] : vector<1xf32> loc(#loc2)
    %2583 = llvm.add %54, %34  : i32 loc(#loc2)
    %2584 = llvm.mul %2583, %3  : i32 loc(#loc2)
    %2585 = llvm.add %2584, %153  : i32 loc(#loc2)
    %2586 = llvm.getelementptr %185[%2585] : (!llvm.ptr<3>, i32) -> !llvm.ptr<3>, f32 loc(#loc2)
    %2587 = llvm.load %2586 : !llvm.ptr<3> -> vector<1xf32> loc(#loc2)
    %2588 = llvm.extractelement %2587[%38 : i32] : vector<1xf32> loc(#loc2)
    %2589 = llvm.add %54, %33  : i32 loc(#loc2)
    %2590 = llvm.mul %2589, %3  : i32 loc(#loc2)
    %2591 = llvm.add %2590, %153  : i32 loc(#loc2)
    %2592 = llvm.getelementptr %185[%2591] : (!llvm.ptr<3>, i32) -> !llvm.ptr<3>, f32 loc(#loc2)
    %2593 = llvm.load %2592 : !llvm.ptr<3> -> vector<1xf32> loc(#loc2)
    %2594 = llvm.extractelement %2593[%38 : i32] : vector<1xf32> loc(#loc2)
    %2595 = llvm.add %54, %32  : i32 loc(#loc2)
    %2596 = llvm.mul %2595, %3  : i32 loc(#loc2)
    %2597 = llvm.add %2596, %153  : i32 loc(#loc2)
    %2598 = llvm.getelementptr %185[%2597] : (!llvm.ptr<3>, i32) -> !llvm.ptr<3>, f32 loc(#loc2)
    %2599 = llvm.load %2598 : !llvm.ptr<3> -> vector<1xf32> loc(#loc2)
    %2600 = llvm.extractelement %2599[%38 : i32] : vector<1xf32> loc(#loc2)
    %2601 = llvm.add %54, %31  : i32 loc(#loc2)
    %2602 = llvm.mul %2601, %3  : i32 loc(#loc2)
    %2603 = llvm.add %2602, %153  : i32 loc(#loc2)
    %2604 = llvm.getelementptr %185[%2603] : (!llvm.ptr<3>, i32) -> !llvm.ptr<3>, f32 loc(#loc2)
    %2605 = llvm.load %2604 : !llvm.ptr<3> -> vector<1xf32> loc(#loc2)
    %2606 = llvm.extractelement %2605[%38 : i32] : vector<1xf32> loc(#loc2)
    %2607 = llvm.add %54, %30  : i32 loc(#loc2)
    %2608 = llvm.mul %2607, %3  : i32 loc(#loc2)
    %2609 = llvm.add %2608, %153  : i32 loc(#loc2)
    %2610 = llvm.getelementptr %185[%2609] : (!llvm.ptr<3>, i32) -> !llvm.ptr<3>, f32 loc(#loc2)
    %2611 = llvm.load %2610 : !llvm.ptr<3> -> vector<1xf32> loc(#loc2)
    %2612 = llvm.extractelement %2611[%38 : i32] : vector<1xf32> loc(#loc2)
    %2613 = llvm.add %54, %29  : i32 loc(#loc2)
    %2614 = llvm.mul %2613, %3  : i32 loc(#loc2)
    %2615 = llvm.add %2614, %153  : i32 loc(#loc2)
    %2616 = llvm.getelementptr %185[%2615] : (!llvm.ptr<3>, i32) -> !llvm.ptr<3>, f32 loc(#loc2)
    %2617 = llvm.load %2616 : !llvm.ptr<3> -> vector<1xf32> loc(#loc2)
    %2618 = llvm.extractelement %2617[%38 : i32] : vector<1xf32> loc(#loc2)
    %2619 = llvm.add %54, %28  : i32 loc(#loc2)
    %2620 = llvm.mul %2619, %3  : i32 loc(#loc2)
    %2621 = llvm.add %2620, %153  : i32 loc(#loc2)
    %2622 = llvm.getelementptr %185[%2621] : (!llvm.ptr<3>, i32) -> !llvm.ptr<3>, f32 loc(#loc2)
    %2623 = llvm.load %2622 : !llvm.ptr<3> -> vector<1xf32> loc(#loc2)
    %2624 = llvm.extractelement %2623[%38 : i32] : vector<1xf32> loc(#loc2)
    %2625 = llvm.add %54, %27  : i32 loc(#loc2)
    %2626 = llvm.mul %2625, %3  : i32 loc(#loc2)
    %2627 = llvm.add %2626, %153  : i32 loc(#loc2)
    %2628 = llvm.getelementptr %185[%2627] : (!llvm.ptr<3>, i32) -> !llvm.ptr<3>, f32 loc(#loc2)
    %2629 = llvm.load %2628 : !llvm.ptr<3> -> vector<1xf32> loc(#loc2)
    %2630 = llvm.extractelement %2629[%38 : i32] : vector<1xf32> loc(#loc2)
    %2631 = llvm.add %54, %26  : i32 loc(#loc2)
    %2632 = llvm.mul %2631, %3  : i32 loc(#loc2)
    %2633 = llvm.add %2632, %153  : i32 loc(#loc2)
    %2634 = llvm.getelementptr %185[%2633] : (!llvm.ptr<3>, i32) -> !llvm.ptr<3>, f32 loc(#loc2)
    %2635 = llvm.load %2634 : !llvm.ptr<3> -> vector<1xf32> loc(#loc2)
    %2636 = llvm.extractelement %2635[%38 : i32] : vector<1xf32> loc(#loc2)
    %2637 = llvm.add %54, %25  : i32 loc(#loc2)
    %2638 = llvm.mul %2637, %3  : i32 loc(#loc2)
    %2639 = llvm.add %2638, %153  : i32 loc(#loc2)
    %2640 = llvm.getelementptr %185[%2639] : (!llvm.ptr<3>, i32) -> !llvm.ptr<3>, f32 loc(#loc2)
    %2641 = llvm.load %2640 : !llvm.ptr<3> -> vector<1xf32> loc(#loc2)
    %2642 = llvm.extractelement %2641[%38 : i32] : vector<1xf32> loc(#loc2)
    %2643 = llvm.icmp "slt" %226, %40 : i32 loc(#loc38)
    %2644 = llvm.icmp "slt" %227, %40 : i32 loc(#loc38)
    %2645 = llvm.icmp "slt" %228, %40 : i32 loc(#loc38)
    %2646 = llvm.icmp "slt" %229, %40 : i32 loc(#loc38)
    %2647 = llvm.icmp "slt" %230, %40 : i32 loc(#loc38)
    %2648 = llvm.icmp "slt" %231, %40 : i32 loc(#loc38)
    %2649 = llvm.icmp "slt" %232, %40 : i32 loc(#loc38)
    %2650 = llvm.icmp "slt" %233, %40 : i32 loc(#loc38)
    %2651 = llvm.icmp "slt" %234, %40 : i32 loc(#loc38)
    %2652 = llvm.icmp "slt" %235, %40 : i32 loc(#loc38)
    %2653 = llvm.icmp "slt" %236, %40 : i32 loc(#loc38)
    %2654 = llvm.icmp "slt" %237, %40 : i32 loc(#loc38)
    %2655 = llvm.icmp "slt" %238, %40 : i32 loc(#loc38)
    %2656 = llvm.icmp "slt" %239, %40 : i32 loc(#loc38)
    %2657 = llvm.icmp "slt" %240, %40 : i32 loc(#loc38)
    %2658 = llvm.icmp "slt" %241, %40 : i32 loc(#loc38)
    %2659 = llvm.and %2643, %527  : i1 loc(#loc39)
    %2660 = llvm.and %2644, %527  : i1 loc(#loc39)
    %2661 = llvm.and %2645, %527  : i1 loc(#loc39)
    %2662 = llvm.and %2646, %527  : i1 loc(#loc39)
    %2663 = llvm.and %2647, %527  : i1 loc(#loc39)
    %2664 = llvm.and %2648, %527  : i1 loc(#loc39)
    %2665 = llvm.and %2649, %527  : i1 loc(#loc39)
    %2666 = llvm.and %2650, %527  : i1 loc(#loc39)
    %2667 = llvm.and %2651, %527  : i1 loc(#loc39)
    %2668 = llvm.and %2652, %527  : i1 loc(#loc39)
    %2669 = llvm.and %2653, %527  : i1 loc(#loc39)
    %2670 = llvm.and %2654, %527  : i1 loc(#loc39)
    %2671 = llvm.and %2655, %527  : i1 loc(#loc39)
    %2672 = llvm.and %2656, %527  : i1 loc(#loc39)
    %2673 = llvm.and %2657, %527  : i1 loc(#loc39)
    %2674 = llvm.and %2658, %527  : i1 loc(#loc39)
    %2675 = llvm.mlir.undef : vector<1xf32> loc(#loc40)
    %2676 = llvm.insertelement %7, %2675[%6 : i32] : vector<1xf32> loc(#loc40)
    %2677 = llvm.bitcast %2676 : vector<1xf32> to i32 loc(#loc40)
    %2678 = llvm.inline_asm has_side_effects asm_dialect = att operand_attrs = [] "mov.u32 $0, 0x0;\0A\09@$2 ld.global.b32 { $0 }, [ $1 + 0 ];\0A\09@!$4 mov.u32 $0, $3;", "=r,l,b,r,b" %281, %2659, %2677, %2659 : (!llvm.ptr<1>, i1, i32, i1) -> i32 loc(#loc40)
    %2679 = llvm.bitcast %2678 : i32 to vector<1xf32> loc(#loc40)
    %2680 = llvm.extractelement %2679[%6 : i32] : vector<1xf32> loc(#loc40)
    %2681 = llvm.inline_asm has_side_effects asm_dialect = att operand_attrs = [] "mov.u32 $0, 0x0;\0A\09@$2 ld.global.b32 { $0 }, [ $1 + 0 ];\0A\09@!$4 mov.u32 $0, $3;", "=r,l,b,r,b" %282, %2660, %2677, %2660 : (!llvm.ptr<1>, i1, i32, i1) -> i32 loc(#loc40)
    %2682 = llvm.bitcast %2681 : i32 to vector<1xf32> loc(#loc40)
    %2683 = llvm.extractelement %2682[%6 : i32] : vector<1xf32> loc(#loc40)
    %2684 = llvm.inline_asm has_side_effects asm_dialect = att operand_attrs = [] "mov.u32 $0, 0x0;\0A\09@$2 ld.global.b32 { $0 }, [ $1 + 0 ];\0A\09@!$4 mov.u32 $0, $3;", "=r,l,b,r,b" %283, %2661, %2677, %2661 : (!llvm.ptr<1>, i1, i32, i1) -> i32 loc(#loc40)
    %2685 = llvm.bitcast %2684 : i32 to vector<1xf32> loc(#loc40)
    %2686 = llvm.extractelement %2685[%6 : i32] : vector<1xf32> loc(#loc40)
    %2687 = llvm.inline_asm has_side_effects asm_dialect = att operand_attrs = [] "mov.u32 $0, 0x0;\0A\09@$2 ld.global.b32 { $0 }, [ $1 + 0 ];\0A\09@!$4 mov.u32 $0, $3;", "=r,l,b,r,b" %284, %2662, %2677, %2662 : (!llvm.ptr<1>, i1, i32, i1) -> i32 loc(#loc40)
    %2688 = llvm.bitcast %2687 : i32 to vector<1xf32> loc(#loc40)
    %2689 = llvm.extractelement %2688[%6 : i32] : vector<1xf32> loc(#loc40)
    %2690 = llvm.inline_asm has_side_effects asm_dialect = att operand_attrs = [] "mov.u32 $0, 0x0;\0A\09@$2 ld.global.b32 { $0 }, [ $1 + 0 ];\0A\09@!$4 mov.u32 $0, $3;", "=r,l,b,r,b" %285, %2663, %2677, %2663 : (!llvm.ptr<1>, i1, i32, i1) -> i32 loc(#loc40)
    %2691 = llvm.bitcast %2690 : i32 to vector<1xf32> loc(#loc40)
    %2692 = llvm.extractelement %2691[%6 : i32] : vector<1xf32> loc(#loc40)
    %2693 = llvm.inline_asm has_side_effects asm_dialect = att operand_attrs = [] "mov.u32 $0, 0x0;\0A\09@$2 ld.global.b32 { $0 }, [ $1 + 0 ];\0A\09@!$4 mov.u32 $0, $3;", "=r,l,b,r,b" %286, %2664, %2677, %2664 : (!llvm.ptr<1>, i1, i32, i1) -> i32 loc(#loc40)
    %2694 = llvm.bitcast %2693 : i32 to vector<1xf32> loc(#loc40)
    %2695 = llvm.extractelement %2694[%6 : i32] : vector<1xf32> loc(#loc40)
    %2696 = llvm.inline_asm has_side_effects asm_dialect = att operand_attrs = [] "mov.u32 $0, 0x0;\0A\09@$2 ld.global.b32 { $0 }, [ $1 + 0 ];\0A\09@!$4 mov.u32 $0, $3;", "=r,l,b,r,b" %287, %2665, %2677, %2665 : (!llvm.ptr<1>, i1, i32, i1) -> i32 loc(#loc40)
    %2697 = llvm.bitcast %2696 : i32 to vector<1xf32> loc(#loc40)
    %2698 = llvm.extractelement %2697[%6 : i32] : vector<1xf32> loc(#loc40)
    %2699 = llvm.inline_asm has_side_effects asm_dialect = att operand_attrs = [] "mov.u32 $0, 0x0;\0A\09@$2 ld.global.b32 { $0 }, [ $1 + 0 ];\0A\09@!$4 mov.u32 $0, $3;", "=r,l,b,r,b" %288, %2666, %2677, %2666 : (!llvm.ptr<1>, i1, i32, i1) -> i32 loc(#loc40)
    %2700 = llvm.bitcast %2699 : i32 to vector<1xf32> loc(#loc40)
    %2701 = llvm.extractelement %2700[%6 : i32] : vector<1xf32> loc(#loc40)
    %2702 = llvm.inline_asm has_side_effects asm_dialect = att operand_attrs = [] "mov.u32 $0, 0x0;\0A\09@$2 ld.global.b32 { $0 }, [ $1 + 0 ];\0A\09@!$4 mov.u32 $0, $3;", "=r,l,b,r,b" %289, %2667, %2677, %2667 : (!llvm.ptr<1>, i1, i32, i1) -> i32 loc(#loc40)
    %2703 = llvm.bitcast %2702 : i32 to vector<1xf32> loc(#loc40)
    %2704 = llvm.extractelement %2703[%6 : i32] : vector<1xf32> loc(#loc40)
    %2705 = llvm.inline_asm has_side_effects asm_dialect = att operand_attrs = [] "mov.u32 $0, 0x0;\0A\09@$2 ld.global.b32 { $0 }, [ $1 + 0 ];\0A\09@!$4 mov.u32 $0, $3;", "=r,l,b,r,b" %290, %2668, %2677, %2668 : (!llvm.ptr<1>, i1, i32, i1) -> i32 loc(#loc40)
    %2706 = llvm.bitcast %2705 : i32 to vector<1xf32> loc(#loc40)
    %2707 = llvm.extractelement %2706[%6 : i32] : vector<1xf32> loc(#loc40)
    %2708 = llvm.inline_asm has_side_effects asm_dialect = att operand_attrs = [] "mov.u32 $0, 0x0;\0A\09@$2 ld.global.b32 { $0 }, [ $1 + 0 ];\0A\09@!$4 mov.u32 $0, $3;", "=r,l,b,r,b" %291, %2669, %2677, %2669 : (!llvm.ptr<1>, i1, i32, i1) -> i32 loc(#loc40)
    %2709 = llvm.bitcast %2708 : i32 to vector<1xf32> loc(#loc40)
    %2710 = llvm.extractelement %2709[%6 : i32] : vector<1xf32> loc(#loc40)
    %2711 = llvm.inline_asm has_side_effects asm_dialect = att operand_attrs = [] "mov.u32 $0, 0x0;\0A\09@$2 ld.global.b32 { $0 }, [ $1 + 0 ];\0A\09@!$4 mov.u32 $0, $3;", "=r,l,b,r,b" %292, %2670, %2677, %2670 : (!llvm.ptr<1>, i1, i32, i1) -> i32 loc(#loc40)
    %2712 = llvm.bitcast %2711 : i32 to vector<1xf32> loc(#loc40)
    %2713 = llvm.extractelement %2712[%6 : i32] : vector<1xf32> loc(#loc40)
    %2714 = llvm.inline_asm has_side_effects asm_dialect = att operand_attrs = [] "mov.u32 $0, 0x0;\0A\09@$2 ld.global.b32 { $0 }, [ $1 + 0 ];\0A\09@!$4 mov.u32 $0, $3;", "=r,l,b,r,b" %293, %2671, %2677, %2671 : (!llvm.ptr<1>, i1, i32, i1) -> i32 loc(#loc40)
    %2715 = llvm.bitcast %2714 : i32 to vector<1xf32> loc(#loc40)
    %2716 = llvm.extractelement %2715[%6 : i32] : vector<1xf32> loc(#loc40)
    %2717 = llvm.inline_asm has_side_effects asm_dialect = att operand_attrs = [] "mov.u32 $0, 0x0;\0A\09@$2 ld.global.b32 { $0 }, [ $1 + 0 ];\0A\09@!$4 mov.u32 $0, $3;", "=r,l,b,r,b" %294, %2672, %2677, %2672 : (!llvm.ptr<1>, i1, i32, i1) -> i32 loc(#loc40)
    %2718 = llvm.bitcast %2717 : i32 to vector<1xf32> loc(#loc40)
    %2719 = llvm.extractelement %2718[%6 : i32] : vector<1xf32> loc(#loc40)
    %2720 = llvm.inline_asm has_side_effects asm_dialect = att operand_attrs = [] "mov.u32 $0, 0x0;\0A\09@$2 ld.global.b32 { $0 }, [ $1 + 0 ];\0A\09@!$4 mov.u32 $0, $3;", "=r,l,b,r,b" %295, %2673, %2677, %2673 : (!llvm.ptr<1>, i1, i32, i1) -> i32 loc(#loc40)
    %2721 = llvm.bitcast %2720 : i32 to vector<1xf32> loc(#loc40)
    %2722 = llvm.extractelement %2721[%6 : i32] : vector<1xf32> loc(#loc40)
    %2723 = llvm.inline_asm has_side_effects asm_dialect = att operand_attrs = [] "mov.u32 $0, 0x0;\0A\09@$2 ld.global.b32 { $0 }, [ $1 + 0 ];\0A\09@!$4 mov.u32 $0, $3;", "=r,l,b,r,b" %296, %2674, %2677, %2674 : (!llvm.ptr<1>, i1, i32, i1) -> i32 loc(#loc40)
    %2724 = llvm.bitcast %2723 : i32 to vector<1xf32> loc(#loc40)
    %2725 = llvm.extractelement %2724[%6 : i32] : vector<1xf32> loc(#loc40)
    %2726 = llvm.fadd %2552, %2680  : f32 loc(#loc41)
    %2727 = llvm.fadd %2558, %2683  : f32 loc(#loc41)
    %2728 = llvm.fadd %2564, %2686  : f32 loc(#loc41)
    %2729 = llvm.fadd %2570, %2689  : f32 loc(#loc41)
    %2730 = llvm.fadd %2576, %2692  : f32 loc(#loc41)
    %2731 = llvm.fadd %2582, %2695  : f32 loc(#loc41)
    %2732 = llvm.fadd %2588, %2698  : f32 loc(#loc41)
    %2733 = llvm.fadd %2594, %2701  : f32 loc(#loc41)
    %2734 = llvm.fadd %2600, %2704  : f32 loc(#loc41)
    %2735 = llvm.fadd %2606, %2707  : f32 loc(#loc41)
    %2736 = llvm.fadd %2612, %2710  : f32 loc(#loc41)
    %2737 = llvm.fadd %2618, %2713  : f32 loc(#loc41)
    %2738 = llvm.fadd %2624, %2716  : f32 loc(#loc41)
    %2739 = llvm.fadd %2630, %2719  : f32 loc(#loc41)
    %2740 = llvm.fadd %2636, %2722  : f32 loc(#loc41)
    %2741 = llvm.fadd %2642, %2725  : f32 loc(#loc41)
    %2742 = llvm.insertelement %2726, %2675[%38 : i32] : vector<1xf32> loc(#loc1)
    %2743 = llvm.bitcast %2742 : vector<1xf32> to i32 loc(#loc1)
    %2744 = llvm.and %0, %2659  : i1 loc(#loc1)
    %2745 = llvm.inline_asm has_side_effects asm_dialect = att operand_attrs = [] "@$2 st.global.b32 [ $1 + 0 ], { $0 };", "r,l,b" %2743, %470, %2744 : (i32, !llvm.ptr<1>, i1) -> !llvm.void loc(#loc1)
    %2746 = llvm.insertelement %2727, %2675[%38 : i32] : vector<1xf32> loc(#loc1)
    %2747 = llvm.bitcast %2746 : vector<1xf32> to i32 loc(#loc1)
    %2748 = llvm.and %0, %2660  : i1 loc(#loc1)
    %2749 = llvm.inline_asm has_side_effects asm_dialect = att operand_attrs = [] "@$2 st.global.b32 [ $1 + 0 ], { $0 };", "r,l,b" %2747, %471, %2748 : (i32, !llvm.ptr<1>, i1) -> !llvm.void loc(#loc1)
    %2750 = llvm.insertelement %2728, %2675[%38 : i32] : vector<1xf32> loc(#loc1)
    %2751 = llvm.bitcast %2750 : vector<1xf32> to i32 loc(#loc1)
    %2752 = llvm.and %0, %2661  : i1 loc(#loc1)
    %2753 = llvm.inline_asm has_side_effects asm_dialect = att operand_attrs = [] "@$2 st.global.b32 [ $1 + 0 ], { $0 };", "r,l,b" %2751, %472, %2752 : (i32, !llvm.ptr<1>, i1) -> !llvm.void loc(#loc1)
    %2754 = llvm.insertelement %2729, %2675[%38 : i32] : vector<1xf32> loc(#loc1)
    %2755 = llvm.bitcast %2754 : vector<1xf32> to i32 loc(#loc1)
    %2756 = llvm.and %0, %2662  : i1 loc(#loc1)
    %2757 = llvm.inline_asm has_side_effects asm_dialect = att operand_attrs = [] "@$2 st.global.b32 [ $1 + 0 ], { $0 };", "r,l,b" %2755, %473, %2756 : (i32, !llvm.ptr<1>, i1) -> !llvm.void loc(#loc1)
    %2758 = llvm.insertelement %2730, %2675[%38 : i32] : vector<1xf32> loc(#loc1)
    %2759 = llvm.bitcast %2758 : vector<1xf32> to i32 loc(#loc1)
    %2760 = llvm.and %0, %2663  : i1 loc(#loc1)
    %2761 = llvm.inline_asm has_side_effects asm_dialect = att operand_attrs = [] "@$2 st.global.b32 [ $1 + 0 ], { $0 };", "r,l,b" %2759, %474, %2760 : (i32, !llvm.ptr<1>, i1) -> !llvm.void loc(#loc1)
    %2762 = llvm.insertelement %2731, %2675[%38 : i32] : vector<1xf32> loc(#loc1)
    %2763 = llvm.bitcast %2762 : vector<1xf32> to i32 loc(#loc1)
    %2764 = llvm.and %0, %2664  : i1 loc(#loc1)
    %2765 = llvm.inline_asm has_side_effects asm_dialect = att operand_attrs = [] "@$2 st.global.b32 [ $1 + 0 ], { $0 };", "r,l,b" %2763, %475, %2764 : (i32, !llvm.ptr<1>, i1) -> !llvm.void loc(#loc1)
    %2766 = llvm.insertelement %2732, %2675[%38 : i32] : vector<1xf32> loc(#loc1)
    %2767 = llvm.bitcast %2766 : vector<1xf32> to i32 loc(#loc1)
    %2768 = llvm.and %0, %2665  : i1 loc(#loc1)
    %2769 = llvm.inline_asm has_side_effects asm_dialect = att operand_attrs = [] "@$2 st.global.b32 [ $1 + 0 ], { $0 };", "r,l,b" %2767, %476, %2768 : (i32, !llvm.ptr<1>, i1) -> !llvm.void loc(#loc1)
    %2770 = llvm.insertelement %2733, %2675[%38 : i32] : vector<1xf32> loc(#loc1)
    %2771 = llvm.bitcast %2770 : vector<1xf32> to i32 loc(#loc1)
    %2772 = llvm.and %0, %2666  : i1 loc(#loc1)
    %2773 = llvm.inline_asm has_side_effects asm_dialect = att operand_attrs = [] "@$2 st.global.b32 [ $1 + 0 ], { $0 };", "r,l,b" %2771, %477, %2772 : (i32, !llvm.ptr<1>, i1) -> !llvm.void loc(#loc1)
    %2774 = llvm.insertelement %2734, %2675[%38 : i32] : vector<1xf32> loc(#loc1)
    %2775 = llvm.bitcast %2774 : vector<1xf32> to i32 loc(#loc1)
    %2776 = llvm.and %0, %2667  : i1 loc(#loc1)
    %2777 = llvm.inline_asm has_side_effects asm_dialect = att operand_attrs = [] "@$2 st.global.b32 [ $1 + 0 ], { $0 };", "r,l,b" %2775, %478, %2776 : (i32, !llvm.ptr<1>, i1) -> !llvm.void loc(#loc1)
    %2778 = llvm.insertelement %2735, %2675[%38 : i32] : vector<1xf32> loc(#loc1)
    %2779 = llvm.bitcast %2778 : vector<1xf32> to i32 loc(#loc1)
    %2780 = llvm.and %0, %2668  : i1 loc(#loc1)
    %2781 = llvm.inline_asm has_side_effects asm_dialect = att operand_attrs = [] "@$2 st.global.b32 [ $1 + 0 ], { $0 };", "r,l,b" %2779, %479, %2780 : (i32, !llvm.ptr<1>, i1) -> !llvm.void loc(#loc1)
    %2782 = llvm.insertelement %2736, %2675[%38 : i32] : vector<1xf32> loc(#loc1)
    %2783 = llvm.bitcast %2782 : vector<1xf32> to i32 loc(#loc1)
    %2784 = llvm.and %0, %2669  : i1 loc(#loc1)
    %2785 = llvm.inline_asm has_side_effects asm_dialect = att operand_attrs = [] "@$2 st.global.b32 [ $1 + 0 ], { $0 };", "r,l,b" %2783, %480, %2784 : (i32, !llvm.ptr<1>, i1) -> !llvm.void loc(#loc1)
    %2786 = llvm.insertelement %2737, %2675[%38 : i32] : vector<1xf32> loc(#loc1)
    %2787 = llvm.bitcast %2786 : vector<1xf32> to i32 loc(#loc1)
    %2788 = llvm.and %0, %2670  : i1 loc(#loc1)
    %2789 = llvm.inline_asm has_side_effects asm_dialect = att operand_attrs = [] "@$2 st.global.b32 [ $1 + 0 ], { $0 };", "r,l,b" %2787, %481, %2788 : (i32, !llvm.ptr<1>, i1) -> !llvm.void loc(#loc1)
    %2790 = llvm.insertelement %2738, %2675[%38 : i32] : vector<1xf32> loc(#loc1)
    %2791 = llvm.bitcast %2790 : vector<1xf32> to i32 loc(#loc1)
    %2792 = llvm.and %0, %2671  : i1 loc(#loc1)
    %2793 = llvm.inline_asm has_side_effects asm_dialect = att operand_attrs = [] "@$2 st.global.b32 [ $1 + 0 ], { $0 };", "r,l,b" %2791, %482, %2792 : (i32, !llvm.ptr<1>, i1) -> !llvm.void loc(#loc1)
    %2794 = llvm.insertelement %2739, %2675[%38 : i32] : vector<1xf32> loc(#loc1)
    %2795 = llvm.bitcast %2794 : vector<1xf32> to i32 loc(#loc1)
    %2796 = llvm.and %0, %2672  : i1 loc(#loc1)
    %2797 = llvm.inline_asm has_side_effects asm_dialect = att operand_attrs = [] "@$2 st.global.b32 [ $1 + 0 ], { $0 };", "r,l,b" %2795, %483, %2796 : (i32, !llvm.ptr<1>, i1) -> !llvm.void loc(#loc1)
    %2798 = llvm.insertelement %2740, %2675[%38 : i32] : vector<1xf32> loc(#loc1)
    %2799 = llvm.bitcast %2798 : vector<1xf32> to i32 loc(#loc1)
    %2800 = llvm.and %0, %2673  : i1 loc(#loc1)
    %2801 = llvm.inline_asm has_side_effects asm_dialect = att operand_attrs = [] "@$2 st.global.b32 [ $1 + 0 ], { $0 };", "r,l,b" %2799, %484, %2800 : (i32, !llvm.ptr<1>, i1) -> !llvm.void loc(#loc1)
    %2802 = llvm.insertelement %2741, %2675[%38 : i32] : vector<1xf32> loc(#loc1)
    %2803 = llvm.bitcast %2802 : vector<1xf32> to i32 loc(#loc1)
    %2804 = llvm.and %0, %2674  : i1 loc(#loc1)
    %2805 = llvm.inline_asm has_side_effects asm_dialect = att operand_attrs = [] "@$2 st.global.b32 [ $1 + 0 ], { $0 };", "r,l,b" %2803, %485, %2804 : (i32, !llvm.ptr<1>, i1) -> !llvm.void loc(#loc1)
    llvm.return loc(#loc42)
  } loc(#loc44)
} loc(#loc)
#di_file = #llvm.di_file<"addmm.py" in "/home/meng/torch-compiler/models/lenet/torch-compile/addmm">
#di_subroutine_type = #llvm.di_subroutine_type<callingConvention = DW_CC_normal>
#loc1 = loc("/home/meng/torch-compiler/models/lenet/torch-compile/addmm/addmm.py":55:16)
#loc5 = loc("/home/meng/torch-compiler/models/lenet/torch-compile/addmm/addmm.py":31:40)
#loc7 = loc("/home/meng/torch-compiler/models/lenet/torch-compile/addmm/addmm.py":37:34)
#loc8 = loc("/home/meng/torch-compiler/models/lenet/torch-compile/addmm/addmm.py":32:40)
#loc9 = loc("/home/meng/torch-compiler/models/lenet/torch-compile/addmm/addmm.py":36:60)
#loc10 = loc("/home/meng/torch-compiler/models/lenet/torch-compile/addmm/addmm.py":27:26)
#loc11 = loc("/home/meng/torch-compiler/models/lenet/torch-compile/addmm/addmm.py":28:26)
#loc12 = loc("/home/meng/torch-compiler/models/lenet/torch-compile/addmm/addmm.py":31:17)
#loc13 = loc("/home/meng/torch-compiler/models/lenet/torch-compile/addmm/addmm.py":31:27)
#loc14 = loc("/home/meng/torch-compiler/models/lenet/torch-compile/addmm/addmm.py":32:17)
#loc15 = loc("/home/meng/torch-compiler/models/lenet/torch-compile/addmm/addmm.py":32:27)
#loc16 = loc("/home/meng/torch-compiler/models/lenet/torch-compile/addmm/addmm.py":35:26)
#loc17 = loc("/home/meng/torch-compiler/models/lenet/torch-compile/addmm/addmm.py":35:12)
#loc18 = loc("/home/meng/torch-compiler/models/lenet/torch-compile/addmm/addmm.py":35:38)
#loc19 = loc("/home/meng/torch-compiler/models/lenet/torch-compile/addmm/addmm.py":36:26)
#loc20 = loc("/home/meng/torch-compiler/models/lenet/torch-compile/addmm/addmm.py":36:12)
#loc21 = loc("/home/meng/torch-compiler/models/lenet/torch-compile/addmm/addmm.py":36:38)
#loc22 = loc("/home/meng/torch-compiler/models/lenet/torch-compile/addmm/addmm.py":37:45)
#loc23 = loc("/home/meng/torch-compiler/models/lenet/torch-compile/addmm/addmm.py":37:12)
#loc24 = loc("/home/meng/torch-compiler/models/lenet/torch-compile/addmm/addmm.py":37:57)
#loc25 = loc("/home/meng/torch-compiler/models/lenet/torch-compile/addmm/addmm.py":38:26)
#loc26 = loc("/home/meng/torch-compiler/models/lenet/torch-compile/addmm/addmm.py":38:12)
#loc27 = loc("/home/meng/torch-compiler/models/lenet/torch-compile/addmm/addmm.py":38:38)
#loc28 = loc("/home/meng/torch-compiler/models/lenet/torch-compile/addmm/addmm.py":44:43)
#loc29 = loc("/home/meng/torch-compiler/models/lenet/torch-compile/addmm/addmm.py":44:82)
#loc30 = loc("/home/meng/torch-compiler/models/lenet/torch-compile/addmm/addmm.py":44:49)
#loc31 = loc("/home/meng/torch-compiler/models/lenet/torch-compile/addmm/addmm.py":45:62)
#loc32 = loc("/home/meng/torch-compiler/models/lenet/torch-compile/addmm/addmm.py":45:82)
#loc33 = loc("/home/meng/torch-compiler/models/lenet/torch-compile/addmm/addmm.py":45:68)
#loc34 = loc("/home/meng/torch-compiler/models/lenet/torch-compile/addmm/addmm.py":48:23)
#loc37 = loc("/home/meng/torch-compiler/models/lenet/torch-compile/addmm/addmm.py":46:15)
#loc38 = loc("/home/meng/torch-compiler/models/lenet/torch-compile/addmm/addmm.py":51:39)
#loc39 = loc("/home/meng/torch-compiler/models/lenet/torch-compile/addmm/addmm.py":51:45)
#loc40 = loc("/home/meng/torch-compiler/models/lenet/torch-compile/addmm/addmm.py":51:16)
#loc41 = loc("/home/meng/torch-compiler/models/lenet/torch-compile/addmm/addmm.py":52:11)
#loc42 = loc("/home/meng/torch-compiler/models/lenet/torch-compile/addmm/addmm.py":55:4)
#di_compile_unit = #llvm.di_compile_unit<sourceLanguage = DW_LANG_C, file = #di_file, producer = "triton", isOptimized = true, emissionKind = LineTablesOnly>
#loc43 = loc(fused[#loc37, #loc6])
#di_subprogram = #llvm.di_subprogram<compileUnit = #di_compile_unit, scope = #di_file, name = "addmm_kernel_0d1d2d3d4c5678c910c1112c1314c", linkageName = "addmm_kernel_0d1d2d3d4c5678c910c1112c1314c", file = #di_file, line = 6, scopeLine = 6, subprogramFlags = "Definition|Optimized", type = #di_subroutine_type>
#loc44 = loc(fused<#di_subprogram>[#loc])


tensor([[85., 85., 85., 85., 85., 85., 85., 85., 85., 85.]], device='cuda:0')
Test passed! Output matches expected result.
-----> enter one ctas, gridX = 1, gridY = 1, gridZ = 1
