#loc = loc("/tmp/torchinductor_meng/de/cde5x3y3o6rdwuyu6w6ff5d4wdfl6rga4ipvuxcq2oejrltjt4no.py":18:0)
#loc1 = loc(unknown)
#loc18 = loc("/tmp/torchinductor_meng/de/cde5x3y3o6rdwuyu6w6ff5d4wdfl6rga4ipvuxcq2oejrltjt4no.py":33:24)
#loc27 = loc(callsite(#loc1 at #loc18))
module {
  tt.func public @triton_(%arg0: !tt.ptr<f32> {tt.divisibility = 16 : i32} loc("/tmp/torchinductor_meng/de/cde5x3y3o6rdwuyu6w6ff5d4wdfl6rga4ipvuxcq2oejrltjt4no.py":18:0), %arg1: !tt.ptr<f32> {tt.divisibility = 16 : i32} loc("/tmp/torchinductor_meng/de/cde5x3y3o6rdwuyu6w6ff5d4wdfl6rga4ipvuxcq2oejrltjt4no.py":18:0), %arg2: i32 {tt.divisibility = 16 : i32} loc("/tmp/torchinductor_meng/de/cde5x3y3o6rdwuyu6w6ff5d4wdfl6rga4ipvuxcq2oejrltjt4no.py":18:0), %arg3: i32 loc("/tmp/torchinductor_meng/de/cde5x3y3o6rdwuyu6w6ff5d4wdfl6rga4ipvuxcq2oejrltjt4no.py":18:0)) attributes {noinline = false} {
    %cst = arith.constant dense<4.900000e+01> : tensor<32x1xf32> loc(#loc1)
    %cst_0 = arith.constant dense<0.000000e+00> : tensor<32x64xf32> loc(#loc1)
    %cst_1 = arith.constant dense<512> : tensor<1x64xi32> loc(#loc1)
    %cst_2 = arith.constant dense<49> : tensor<1x64xi32> loc(#loc1)
    %cst_3 = arith.constant dense<512> : tensor<32x1xi32> loc(#loc1)
    %c32_i32 = arith.constant 32 : i32 loc(#loc1)
    %0 = tt.get_program_id x : i32 loc(#loc2)
    %1 = arith.muli %0, %c32_i32 : i32 loc(#loc3)
    %2 = tt.make_range {end = 32 : i32, start = 0 : i32} : tensor<32xi32> loc(#loc4)
    %3 = tt.expand_dims %2 {axis = 1 : i32} : tensor<32xi32> -> tensor<32x1xi32> loc(#loc5)
    %4 = tt.splat %1 : i32 -> tensor<32x1xi32> loc(#loc6)
    %5 = arith.addi %4, %3 : tensor<32x1xi32> loc(#loc6)
    %6 = arith.cmpi slt, %5, %cst_3 : tensor<32x1xi32> loc(#loc7)
    %7 = tt.make_range {end = 64 : i32, start = 0 : i32} : tensor<64xi32> loc(#loc8)
    %8 = tt.expand_dims %7 {axis = 0 : i32} : tensor<64xi32> -> tensor<1x64xi32> loc(#loc9)
    %9 = arith.cmpi slt, %8, %cst_2 : tensor<1x64xi32> loc(#loc10)
    %10 = arith.muli %8, %cst_1 : tensor<1x64xi32> loc(#loc11)
    %11 = tt.broadcast %5 : tensor<32x1xi32> -> tensor<32x64xi32> loc(#loc12)
    %12 = tt.broadcast %10 : tensor<1x64xi32> -> tensor<32x64xi32> loc(#loc12)
    %13 = arith.addi %11, %12 : tensor<32x64xi32> loc(#loc12)
    %14 = tt.splat %arg1 : !tt.ptr<f32> -> tensor<32x64x!tt.ptr<f32>> loc(#loc13)
    %15 = tt.addptr %14, %13 : tensor<32x64x!tt.ptr<f32>>, tensor<32x64xi32> loc(#loc13)
    %16 = tt.broadcast %9 : tensor<1x64xi1> -> tensor<32x64xi1> loc(#loc14)
    %17 = tt.broadcast %6 : tensor<32x1xi1> -> tensor<32x64xi1> loc(#loc14)
    %18 = arith.andi %16, %17 : tensor<32x64xi1> loc(#loc14)
    %19 = tt.load %15, %18, %cst_0 : tensor<32x64x!tt.ptr<f32>> loc(#loc15)
    %20 = arith.select %18, %19, %cst_0 : tensor<32x64xi1>, tensor<32x64xf32> loc(#loc16)
    %21 = "tt.reduce"(%20) <{axis = 1 : i32}> ({
    ^bb0(%arg4: f32 loc(callsite(#loc1 at #loc18)), %arg5: f32 loc(callsite(#loc1 at #loc18))):
      %26 = arith.addf %arg4, %arg5 : f32 loc(#loc29)
      tt.reduce.return %26 : f32 loc(#loc26)
    }) : (tensor<32x64xf32>) -> tensor<32xf32> loc(#loc26)
    %22 = tt.expand_dims %21 {axis = 1 : i32} : tensor<32xf32> -> tensor<32x1xf32> loc(#loc20)
    %23 = arith.divf %22, %cst : tensor<32x1xf32> loc(#loc21)
    gpu.barrier loc(#loc22)
    %24 = tt.splat %arg0 : !tt.ptr<f32> -> tensor<32x1x!tt.ptr<f32>> loc(#loc23)
    %25 = tt.addptr %24, %5 : tensor<32x1x!tt.ptr<f32>>, tensor<32x1xi32> loc(#loc23)
    tt.store %25, %23, %6 : tensor<32x1x!tt.ptr<f32>> loc(#loc24)
    tt.return loc(#loc25)
  } loc(#loc)
} loc(#loc)
#loc2 = loc("/tmp/torchinductor_meng/de/cde5x3y3o6rdwuyu6w6ff5d4wdfl6rga4ipvuxcq2oejrltjt4no.py":22:28)
#loc3 = loc("/tmp/torchinductor_meng/de/cde5x3y3o6rdwuyu6w6ff5d4wdfl6rga4ipvuxcq2oejrltjt4no.py":22:33)
#loc4 = loc("/tmp/torchinductor_meng/de/cde5x3y3o6rdwuyu6w6ff5d4wdfl6rga4ipvuxcq2oejrltjt4no.py":23:36)
#loc5 = loc("/tmp/torchinductor_meng/de/cde5x3y3o6rdwuyu6w6ff5d4wdfl6rga4ipvuxcq2oejrltjt4no.py":23:44)
#loc6 = loc("/tmp/torchinductor_meng/de/cde5x3y3o6rdwuyu6w6ff5d4wdfl6rga4ipvuxcq2oejrltjt4no.py":23:23)
#loc7 = loc("/tmp/torchinductor_meng/de/cde5x3y3o6rdwuyu6w6ff5d4wdfl6rga4ipvuxcq2oejrltjt4no.py":24:21)
#loc8 = loc("/tmp/torchinductor_meng/de/cde5x3y3o6rdwuyu6w6ff5d4wdfl6rga4ipvuxcq2oejrltjt4no.py":25:26)
#loc9 = loc("/tmp/torchinductor_meng/de/cde5x3y3o6rdwuyu6w6ff5d4wdfl6rga4ipvuxcq2oejrltjt4no.py":25:34)
#loc10 = loc("/tmp/torchinductor_meng/de/cde5x3y3o6rdwuyu6w6ff5d4wdfl6rga4ipvuxcq2oejrltjt4no.py":27:21)
#loc11 = loc("/tmp/torchinductor_meng/de/cde5x3y3o6rdwuyu6w6ff5d4wdfl6rga4ipvuxcq2oejrltjt4no.py":30:40)
#loc12 = loc("/tmp/torchinductor_meng/de/cde5x3y3o6rdwuyu6w6ff5d4wdfl6rga4ipvuxcq2oejrltjt4no.py":30:36)
#loc13 = loc("/tmp/torchinductor_meng/de/cde5x3y3o6rdwuyu6w6ff5d4wdfl6rga4ipvuxcq2oejrltjt4no.py":30:30)
#loc14 = loc("/tmp/torchinductor_meng/de/cde5x3y3o6rdwuyu6w6ff5d4wdfl6rga4ipvuxcq2oejrltjt4no.py":30:54)
#loc15 = loc("/tmp/torchinductor_meng/de/cde5x3y3o6rdwuyu6w6ff5d4wdfl6rga4ipvuxcq2oejrltjt4no.py":30:46)
#loc16 = loc("/tmp/torchinductor_meng/de/cde5x3y3o6rdwuyu6w6ff5d4wdfl6rga4ipvuxcq2oejrltjt4no.py":32:41)
#loc17 = loc("/home/meng/anaconda3/envs/spacemit/lib/python3.10/site-packages/triton/language/standard.py":267:36)
#loc19 = loc("/home/meng/anaconda3/envs/spacemit/lib/python3.10/site-packages/triton/language/standard.py":256:15)
#loc20 = loc("/tmp/torchinductor_meng/de/cde5x3y3o6rdwuyu6w6ff5d4wdfl6rga4ipvuxcq2oejrltjt4no.py":33:27)
#loc21 = loc("/tmp/torchinductor_meng/de/cde5x3y3o6rdwuyu6w6ff5d4wdfl6rga4ipvuxcq2oejrltjt4no.py":35:18)
#loc22 = loc("/tmp/torchinductor_meng/de/cde5x3y3o6rdwuyu6w6ff5d4wdfl6rga4ipvuxcq2oejrltjt4no.py":36:4)
#loc23 = loc("/tmp/torchinductor_meng/de/cde5x3y3o6rdwuyu6w6ff5d4wdfl6rga4ipvuxcq2oejrltjt4no.py":37:28)
#loc24 = loc("/tmp/torchinductor_meng/de/cde5x3y3o6rdwuyu6w6ff5d4wdfl6rga4ipvuxcq2oejrltjt4no.py":37:39)
#loc25 = loc("/tmp/torchinductor_meng/de/cde5x3y3o6rdwuyu6w6ff5d4wdfl6rga4ipvuxcq2oejrltjt4no.py":37:4)
#loc26 = loc(callsite(#loc17 at #loc18))
#loc28 = loc(callsite(#loc19 at #loc17))
#loc29 = loc(callsite(#loc28 at #loc18))
