#loc = loc("/tmp/torchinductor_meng/cp/ccpy4j2zxgzjuf5esydnbp5qsnrfsjwdiuzf5i7z4x4gj67w7kqp.py":18:0)
module {
  tt.func public @triton_(%arg0: !tt.ptr<f32> {tt.divisibility = 16 : i32} loc("/tmp/torchinductor_meng/cp/ccpy4j2zxgzjuf5esydnbp5qsnrfsjwdiuzf5i7z4x4gj67w7kqp.py":18:0), %arg1: !tt.ptr<f32> {tt.divisibility = 16 : i32} loc("/tmp/torchinductor_meng/cp/ccpy4j2zxgzjuf5esydnbp5qsnrfsjwdiuzf5i7z4x4gj67w7kqp.py":18:0), %arg2: !tt.ptr<f32> {tt.divisibility = 16 : i32} loc("/tmp/torchinductor_meng/cp/ccpy4j2zxgzjuf5esydnbp5qsnrfsjwdiuzf5i7z4x4gj67w7kqp.py":18:0), %arg3: !tt.ptr<f32> {tt.divisibility = 16 : i32} loc("/tmp/torchinductor_meng/cp/ccpy4j2zxgzjuf5esydnbp5qsnrfsjwdiuzf5i7z4x4gj67w7kqp.py":18:0), %arg4: !tt.ptr<f32> {tt.divisibility = 16 : i32} loc("/tmp/torchinductor_meng/cp/ccpy4j2zxgzjuf5esydnbp5qsnrfsjwdiuzf5i7z4x4gj67w7kqp.py":18:0), %arg5: !tt.ptr<f32> {tt.divisibility = 16 : i32} loc("/tmp/torchinductor_meng/cp/ccpy4j2zxgzjuf5esydnbp5qsnrfsjwdiuzf5i7z4x4gj67w7kqp.py":18:0), %arg6: i32 {tt.divisibility = 16 : i32} loc("/tmp/torchinductor_meng/cp/ccpy4j2zxgzjuf5esydnbp5qsnrfsjwdiuzf5i7z4x4gj67w7kqp.py":18:0)) attributes {noinline = false} {
    %cst = arith.constant dense<0.000000e+00> : tensor<512xf32> loc(#loc1)
    %cst_0 = arith.constant dense<1.000000e+00> : tensor<512xf32> loc(#loc1)
    %cst_1 = arith.constant dense<9.99999974E-6> : tensor<512xf32> loc(#loc1)
    %cst_2 = arith.constant dense<64> : tensor<512xi32> loc(#loc1)
    %c512_i32 = arith.constant 512 : i32 loc(#loc1)
    %0 = tt.get_program_id x : i32 loc(#loc2)
    %1 = arith.muli %0, %c512_i32 : i32 loc(#loc3)
    %2 = tt.make_range {end = 512 : i32, start = 0 : i32} : tensor<512xi32> loc(#loc4)
    %3 = tt.splat %1 : i32 -> tensor<512xi32> loc(#loc5)
    %4 = arith.addi %3, %2 : tensor<512xi32> loc(#loc5)
    %5 = arith.remsi %4, %cst_2 : tensor<512xi32> loc(#loc6)
    %6 = tt.splat %arg0 : !tt.ptr<f32> -> tensor<512x!tt.ptr<f32>> loc(#loc7)
    %7 = tt.addptr %6, %4 : tensor<512x!tt.ptr<f32>>, tensor<512xi32> loc(#loc7)
    %8 = tt.load %7 : tensor<512x!tt.ptr<f32>> loc(#loc8)
    %9 = tt.splat %arg1 : !tt.ptr<f32> -> tensor<512x!tt.ptr<f32>> loc(#loc9)
    %10 = tt.addptr %9, %5 : tensor<512x!tt.ptr<f32>>, tensor<512xi32> loc(#loc9)
    %11 = tt.load %10 evictionPolicy = evict_last : tensor<512x!tt.ptr<f32>> loc(#loc10)
    %12 = tt.splat %arg2 : !tt.ptr<f32> -> tensor<512x!tt.ptr<f32>> loc(#loc11)
    %13 = tt.addptr %12, %5 : tensor<512x!tt.ptr<f32>>, tensor<512xi32> loc(#loc11)
    %14 = tt.load %13 evictionPolicy = evict_last : tensor<512x!tt.ptr<f32>> loc(#loc12)
    %15 = tt.splat %arg3 : !tt.ptr<f32> -> tensor<512x!tt.ptr<f32>> loc(#loc13)
    %16 = tt.addptr %15, %5 : tensor<512x!tt.ptr<f32>>, tensor<512xi32> loc(#loc13)
    %17 = tt.load %16 evictionPolicy = evict_last : tensor<512x!tt.ptr<f32>> loc(#loc14)
    %18 = tt.splat %arg4 : !tt.ptr<f32> -> tensor<512x!tt.ptr<f32>> loc(#loc15)
    %19 = tt.addptr %18, %5 : tensor<512x!tt.ptr<f32>>, tensor<512xi32> loc(#loc15)
    %20 = tt.load %19 evictionPolicy = evict_last : tensor<512x!tt.ptr<f32>> loc(#loc16)
    %21 = arith.subf %8, %11 : tensor<512xf32> loc(#loc17)
    %22 = arith.addf %14, %cst_1 : tensor<512xf32> loc(#loc18)
    %23 = tt.extern_elementwise %22 {libname = "", libpath = "", pure = true, symbol = "__nv_sqrtf"} : (tensor<512xf32>) -> tensor<512xf32> loc(#loc19)
    %24 = arith.divf %cst_0, %23 : tensor<512xf32> loc(#loc20)
    %25 = arith.mulf %21, %24 : tensor<512xf32> loc(#loc21)
    %26 = arith.mulf %25, %17 : tensor<512xf32> loc(#loc22)
    %27 = arith.addf %26, %20 : tensor<512xf32> loc(#loc23)
    %28 = arith.cmpf ogt, %cst, %27 : tensor<512xf32> loc(#loc30)
    %29 = arith.select %28, %cst, %27 : tensor<512xi1>, tensor<512xf32> loc(#loc31)
    %30 = tt.splat %arg5 : !tt.ptr<f32> -> tensor<512x!tt.ptr<f32>> loc(#loc27)
    %31 = tt.addptr %30, %4 : tensor<512x!tt.ptr<f32>>, tensor<512xi32> loc(#loc27)
    tt.store %31, %29 : tensor<512x!tt.ptr<f32>> loc(#loc28)
    tt.return loc(#loc29)
  } loc(#loc)
} loc(#loc)
#loc1 = loc(unknown)
#loc2 = loc("/tmp/torchinductor_meng/cp/ccpy4j2zxgzjuf5esydnbp5qsnrfsjwdiuzf5i7z4x4gj67w7kqp.py":20:28)
#loc3 = loc("/tmp/torchinductor_meng/cp/ccpy4j2zxgzjuf5esydnbp5qsnrfsjwdiuzf5i7z4x4gj67w7kqp.py":20:33)
#loc4 = loc("/tmp/torchinductor_meng/cp/ccpy4j2zxgzjuf5esydnbp5qsnrfsjwdiuzf5i7z4x4gj67w7kqp.py":21:36)
#loc5 = loc("/tmp/torchinductor_meng/cp/ccpy4j2zxgzjuf5esydnbp5qsnrfsjwdiuzf5i7z4x4gj67w7kqp.py":21:23)
#loc6 = loc("/tmp/torchinductor_meng/cp/ccpy4j2zxgzjuf5esydnbp5qsnrfsjwdiuzf5i7z4x4gj67w7kqp.py":24:18)
#loc7 = loc("/tmp/torchinductor_meng/cp/ccpy4j2zxgzjuf5esydnbp5qsnrfsjwdiuzf5i7z4x4gj67w7kqp.py":25:30)
#loc8 = loc("/tmp/torchinductor_meng/cp/ccpy4j2zxgzjuf5esydnbp5qsnrfsjwdiuzf5i7z4x4gj67w7kqp.py":25:35)
#loc9 = loc("/tmp/torchinductor_meng/cp/ccpy4j2zxgzjuf5esydnbp5qsnrfsjwdiuzf5i7z4x4gj67w7kqp.py":26:30)
#loc10 = loc("/tmp/torchinductor_meng/cp/ccpy4j2zxgzjuf5esydnbp5qsnrfsjwdiuzf5i7z4x4gj67w7kqp.py":26:35)
#loc11 = loc("/tmp/torchinductor_meng/cp/ccpy4j2zxgzjuf5esydnbp5qsnrfsjwdiuzf5i7z4x4gj67w7kqp.py":27:30)
#loc12 = loc("/tmp/torchinductor_meng/cp/ccpy4j2zxgzjuf5esydnbp5qsnrfsjwdiuzf5i7z4x4gj67w7kqp.py":27:35)
#loc13 = loc("/tmp/torchinductor_meng/cp/ccpy4j2zxgzjuf5esydnbp5qsnrfsjwdiuzf5i7z4x4gj67w7kqp.py":28:31)
#loc14 = loc("/tmp/torchinductor_meng/cp/ccpy4j2zxgzjuf5esydnbp5qsnrfsjwdiuzf5i7z4x4gj67w7kqp.py":28:36)
#loc15 = loc("/tmp/torchinductor_meng/cp/ccpy4j2zxgzjuf5esydnbp5qsnrfsjwdiuzf5i7z4x4gj67w7kqp.py":29:31)
#loc16 = loc("/tmp/torchinductor_meng/cp/ccpy4j2zxgzjuf5esydnbp5qsnrfsjwdiuzf5i7z4x4gj67w7kqp.py":29:36)
#loc17 = loc("/tmp/torchinductor_meng/cp/ccpy4j2zxgzjuf5esydnbp5qsnrfsjwdiuzf5i7z4x4gj67w7kqp.py":30:18)
#loc18 = loc("/tmp/torchinductor_meng/cp/ccpy4j2zxgzjuf5esydnbp5qsnrfsjwdiuzf5i7z4x4gj67w7kqp.py":32:18)
#loc19 = loc("/tmp/torchinductor_meng/cp/ccpy4j2zxgzjuf5esydnbp5qsnrfsjwdiuzf5i7z4x4gj67w7kqp.py":33:26)
#loc20 = loc("/tmp/torchinductor_meng/cp/ccpy4j2zxgzjuf5esydnbp5qsnrfsjwdiuzf5i7z4x4gj67w7kqp.py":35:18)
#loc21 = loc("/tmp/torchinductor_meng/cp/ccpy4j2zxgzjuf5esydnbp5qsnrfsjwdiuzf5i7z4x4gj67w7kqp.py":38:19)
#loc22 = loc("/tmp/torchinductor_meng/cp/ccpy4j2zxgzjuf5esydnbp5qsnrfsjwdiuzf5i7z4x4gj67w7kqp.py":39:20)
#loc23 = loc("/tmp/torchinductor_meng/cp/ccpy4j2zxgzjuf5esydnbp5qsnrfsjwdiuzf5i7z4x4gj67w7kqp.py":40:20)
#loc24 = loc("/home/meng/anaconda3/envs/spacemit/lib/python3.10/site-packages/torch/_inductor/runtime/triton_helpers.py":68:15)
#loc25 = loc("/tmp/torchinductor_meng/cp/ccpy4j2zxgzjuf5esydnbp5qsnrfsjwdiuzf5i7z4x4gj67w7kqp.py":42:42)
#loc26 = loc("/home/meng/anaconda3/envs/spacemit/lib/python3.10/site-packages/torch/_inductor/runtime/triton_helpers.py":71:29)
#loc27 = loc("/tmp/torchinductor_meng/cp/ccpy4j2zxgzjuf5esydnbp5qsnrfsjwdiuzf5i7z4x4gj67w7kqp.py":43:25)
#loc28 = loc("/tmp/torchinductor_meng/cp/ccpy4j2zxgzjuf5esydnbp5qsnrfsjwdiuzf5i7z4x4gj67w7kqp.py":43:37)
#loc29 = loc("/tmp/torchinductor_meng/cp/ccpy4j2zxgzjuf5esydnbp5qsnrfsjwdiuzf5i7z4x4gj67w7kqp.py":43:4)
#loc30 = loc(callsite(#loc24 at #loc25))
#loc31 = loc(callsite(#loc26 at #loc25))
